saved_model_schema_version: 1
meta_graphs {
  meta_info_def {
    stripped_op_list {
      op {
        name: "Abs"
        input_arg {
          name: "x"
          type_attr: "T"
        }
        output_arg {
          name: "y"
          type_attr: "T"
        }
        attr {
          name: "T"
          type: "type"
          allowed_values {
            list {
              type: DT_HALF
              type: DT_BFLOAT16
              type: DT_FLOAT
              type: DT_DOUBLE
              type: DT_INT32
              type: DT_INT64
            }
          }
        }
      }
      op {
        name: "Add"
        input_arg {
          name: "x"
          type_attr: "T"
        }
        input_arg {
          name: "y"
          type_attr: "T"
        }
        output_arg {
          name: "z"
          type_attr: "T"
        }
        attr {
          name: "T"
          type: "type"
          allowed_values {
            list {
              type: DT_HALF
              type: DT_BFLOAT16
              type: DT_FLOAT
              type: DT_DOUBLE
              type: DT_UINT8
              type: DT_INT8
              type: DT_INT16
              type: DT_INT32
              type: DT_INT64
              type: DT_COMPLEX64
              type: DT_COMPLEX128
              type: DT_STRING
            }
          }
        }
      }
      op {
        name: "All"
        input_arg {
          name: "input"
          type: DT_BOOL
        }
        input_arg {
          name: "reduction_indices"
          type_attr: "Tidx"
        }
        output_arg {
          name: "output"
          type: DT_BOOL
        }
        attr {
          name: "keep_dims"
          type: "bool"
          default_value {
            b: false
          }
        }
        attr {
          name: "Tidx"
          type: "type"
          default_value {
            type: DT_INT32
          }
          allowed_values {
            list {
              type: DT_INT32
              type: DT_INT64
            }
          }
        }
      }
      op {
        name: "Any"
        input_arg {
          name: "input"
          type: DT_BOOL
        }
        input_arg {
          name: "reduction_indices"
          type_attr: "Tidx"
        }
        output_arg {
          name: "output"
          type: DT_BOOL
        }
        attr {
          name: "keep_dims"
          type: "bool"
          default_value {
            b: false
          }
        }
        attr {
          name: "Tidx"
          type: "type"
          default_value {
            type: DT_INT32
          }
          allowed_values {
            list {
              type: DT_INT32
              type: DT_INT64
            }
          }
        }
      }
      op {
        name: "Assign"
        input_arg {
          name: "ref"
          type_attr: "T"
          is_ref: true
        }
        input_arg {
          name: "value"
          type_attr: "T"
        }
        output_arg {
          name: "output_ref"
          type_attr: "T"
          is_ref: true
        }
        attr {
          name: "T"
          type: "type"
        }
        attr {
          name: "validate_shape"
          type: "bool"
          default_value {
            b: true
          }
        }
        attr {
          name: "use_locking"
          type: "bool"
          default_value {
            b: true
          }
        }
        allows_uninitialized_input: true
      }
      op {
        name: "BatchMatMul"
        input_arg {
          name: "x"
          type_attr: "T"
        }
        input_arg {
          name: "y"
          type_attr: "T"
        }
        output_arg {
          name: "output"
          type_attr: "T"
        }
        attr {
          name: "T"
          type: "type"
          allowed_values {
            list {
              type: DT_HALF
              type: DT_BFLOAT16
              type: DT_FLOAT
              type: DT_DOUBLE
              type: DT_INT32
              type: DT_COMPLEX64
              type: DT_COMPLEX128
            }
          }
        }
        attr {
          name: "adj_x"
          type: "bool"
          default_value {
            b: false
          }
        }
        attr {
          name: "adj_y"
          type: "bool"
          default_value {
            b: false
          }
        }
      }
      op {
        name: "BiasAdd"
        input_arg {
          name: "value"
          type_attr: "T"
        }
        input_arg {
          name: "bias"
          type_attr: "T"
        }
        output_arg {
          name: "output"
          type_attr: "T"
        }
        attr {
          name: "T"
          type: "type"
          allowed_values {
            list {
              type: DT_FLOAT
              type: DT_DOUBLE
              type: DT_INT64
              type: DT_INT32
              type: DT_UINT8
              type: DT_UINT16
              type: DT_INT16
              type: DT_INT8
              type: DT_COMPLEX64
              type: DT_COMPLEX128
              type: DT_QINT8
              type: DT_QUINT8
              type: DT_QINT32
              type: DT_HALF
              type: DT_UINT32
              type: DT_UINT64
              type: DT_BFLOAT16
            }
          }
        }
        attr {
          name: "data_format"
          type: "string"
          default_value {
            s: "NHWC"
          }
          allowed_values {
            list {
              s: "NHWC"
              s: "NCHW"
            }
          }
        }
      }
      op {
        name: "Cast"
        input_arg {
          name: "x"
          type_attr: "SrcT"
        }
        output_arg {
          name: "y"
          type_attr: "DstT"
        }
        attr {
          name: "SrcT"
          type: "type"
        }
        attr {
          name: "DstT"
          type: "type"
        }
      }
      op {
        name: "ConcatV2"
        input_arg {
          name: "values"
          type_attr: "T"
          number_attr: "N"
        }
        input_arg {
          name: "axis"
          type_attr: "Tidx"
        }
        output_arg {
          name: "output"
          type_attr: "T"
        }
        attr {
          name: "N"
          type: "int"
          has_minimum: true
          minimum: 2
        }
        attr {
          name: "T"
          type: "type"
        }
        attr {
          name: "Tidx"
          type: "type"
          default_value {
            type: DT_INT32
          }
          allowed_values {
            list {
              type: DT_INT32
              type: DT_INT64
            }
          }
        }
      }
      op {
        name: "Const"
        output_arg {
          name: "output"
          type_attr: "dtype"
        }
        attr {
          name: "value"
          type: "tensor"
        }
        attr {
          name: "dtype"
          type: "type"
        }
      }
      op {
        name: "Cos"
        input_arg {
          name: "x"
          type_attr: "T"
        }
        output_arg {
          name: "y"
          type_attr: "T"
        }
        attr {
          name: "T"
          type: "type"
          allowed_values {
            list {
              type: DT_HALF
              type: DT_BFLOAT16
              type: DT_FLOAT
              type: DT_DOUBLE
              type: DT_COMPLEX64
              type: DT_COMPLEX128
            }
          }
        }
      }
      op {
        name: "DatasetToSingleElement"
        input_arg {
          name: "dataset"
          type: DT_VARIANT
        }
        output_arg {
          name: "components"
          type_list_attr: "output_types"
        }
        attr {
          name: "output_types"
          type: "list(type)"
          has_minimum: true
          minimum: 1
        }
        attr {
          name: "output_shapes"
          type: "list(shape)"
          has_minimum: true
          minimum: 1
        }
      }
      op {
        name: "Enter"
        input_arg {
          name: "data"
          type_attr: "T"
        }
        output_arg {
          name: "output"
          type_attr: "T"
        }
        attr {
          name: "T"
          type: "type"
        }
        attr {
          name: "frame_name"
          type: "string"
        }
        attr {
          name: "is_constant"
          type: "bool"
          default_value {
            b: false
          }
        }
        attr {
          name: "parallel_iterations"
          type: "int"
          default_value {
            i: 10
          }
        }
      }
      op {
        name: "Equal"
        input_arg {
          name: "x"
          type_attr: "T"
        }
        input_arg {
          name: "y"
          type_attr: "T"
        }
        output_arg {
          name: "z"
          type: DT_BOOL
        }
        attr {
          name: "T"
          type: "type"
          allowed_values {
            list {
              type: DT_HALF
              type: DT_BFLOAT16
              type: DT_FLOAT
              type: DT_DOUBLE
              type: DT_UINT8
              type: DT_INT8
              type: DT_INT16
              type: DT_INT32
              type: DT_INT64
              type: DT_COMPLEX64
              type: DT_QUINT8
              type: DT_QINT8
              type: DT_QINT32
              type: DT_STRING
              type: DT_BOOL
              type: DT_COMPLEX128
            }
          }
        }
        is_commutative: true
      }
      op {
        name: "Exit"
        input_arg {
          name: "data"
          type_attr: "T"
        }
        output_arg {
          name: "output"
          type_attr: "T"
        }
        attr {
          name: "T"
          type: "type"
        }
      }
      op {
        name: "Exp"
        input_arg {
          name: "x"
          type_attr: "T"
        }
        output_arg {
          name: "y"
          type_attr: "T"
        }
        attr {
          name: "T"
          type: "type"
          allowed_values {
            list {
              type: DT_HALF
              type: DT_BFLOAT16
              type: DT_FLOAT
              type: DT_DOUBLE
              type: DT_COMPLEX64
              type: DT_COMPLEX128
            }
          }
        }
      }
      op {
        name: "ExpandDims"
        input_arg {
          name: "input"
          type_attr: "T"
        }
        input_arg {
          name: "dim"
          type_attr: "Tdim"
        }
        output_arg {
          name: "output"
          type_attr: "T"
        }
        attr {
          name: "T"
          type: "type"
        }
        attr {
          name: "Tdim"
          type: "type"
          default_value {
            type: DT_INT32
          }
          allowed_values {
            list {
              type: DT_INT32
              type: DT_INT64
            }
          }
        }
      }
      op {
        name: "Fill"
        input_arg {
          name: "dims"
          type: DT_INT32
        }
        input_arg {
          name: "value"
          type_attr: "T"
        }
        output_arg {
          name: "output"
          type_attr: "T"
        }
        attr {
          name: "T"
          type: "type"
        }
      }
      op {
        name: "FloorDiv"
        input_arg {
          name: "x"
          type_attr: "T"
        }
        input_arg {
          name: "y"
          type_attr: "T"
        }
        output_arg {
          name: "z"
          type_attr: "T"
        }
        attr {
          name: "T"
          type: "type"
          allowed_values {
            list {
              type: DT_HALF
              type: DT_BFLOAT16
              type: DT_FLOAT
              type: DT_DOUBLE
              type: DT_UINT8
              type: DT_INT8
              type: DT_UINT16
              type: DT_INT16
              type: DT_INT32
              type: DT_INT64
              type: DT_COMPLEX64
              type: DT_COMPLEX128
            }
          }
        }
      }
      op {
        name: "FloorMod"
        input_arg {
          name: "x"
          type_attr: "T"
        }
        input_arg {
          name: "y"
          type_attr: "T"
        }
        output_arg {
          name: "z"
          type_attr: "T"
        }
        attr {
          name: "T"
          type: "type"
          allowed_values {
            list {
              type: DT_INT32
              type: DT_INT64
              type: DT_BFLOAT16
              type: DT_FLOAT
              type: DT_DOUBLE
            }
          }
        }
      }
      op {
        name: "Gather"
        input_arg {
          name: "params"
          type_attr: "Tparams"
        }
        input_arg {
          name: "indices"
          type_attr: "Tindices"
        }
        output_arg {
          name: "output"
          type_attr: "Tparams"
        }
        attr {
          name: "validate_indices"
          type: "bool"
          default_value {
            b: true
          }
        }
        attr {
          name: "Tparams"
          type: "type"
        }
        attr {
          name: "Tindices"
          type: "type"
          allowed_values {
            list {
              type: DT_INT32
              type: DT_INT64
            }
          }
        }
      }
      op {
        name: "GatherNd"
        input_arg {
          name: "params"
          type_attr: "Tparams"
        }
        input_arg {
          name: "indices"
          type_attr: "Tindices"
        }
        output_arg {
          name: "output"
          type_attr: "Tparams"
        }
        attr {
          name: "Tparams"
          type: "type"
        }
        attr {
          name: "Tindices"
          type: "type"
          allowed_values {
            list {
              type: DT_INT32
              type: DT_INT64
            }
          }
        }
      }
      op {
        name: "Greater"
        input_arg {
          name: "x"
          type_attr: "T"
        }
        input_arg {
          name: "y"
          type_attr: "T"
        }
        output_arg {
          name: "z"
          type: DT_BOOL
        }
        attr {
          name: "T"
          type: "type"
          allowed_values {
            list {
              type: DT_FLOAT
              type: DT_DOUBLE
              type: DT_INT32
              type: DT_INT64
              type: DT_UINT8
              type: DT_INT16
              type: DT_INT8
              type: DT_UINT16
              type: DT_HALF
              type: DT_UINT32
              type: DT_UINT64
              type: DT_BFLOAT16
            }
          }
        }
      }
      op {
        name: "GreaterEqual"
        input_arg {
          name: "x"
          type_attr: "T"
        }
        input_arg {
          name: "y"
          type_attr: "T"
        }
        output_arg {
          name: "z"
          type: DT_BOOL
        }
        attr {
          name: "T"
          type: "type"
          allowed_values {
            list {
              type: DT_FLOAT
              type: DT_DOUBLE
              type: DT_INT32
              type: DT_INT64
              type: DT_UINT8
              type: DT_INT16
              type: DT_INT8
              type: DT_UINT16
              type: DT_HALF
              type: DT_UINT32
              type: DT_UINT64
              type: DT_BFLOAT16
            }
          }
        }
      }
      op {
        name: "Identity"
        input_arg {
          name: "input"
          type_attr: "T"
        }
        output_arg {
          name: "output"
          type_attr: "T"
        }
        attr {
          name: "T"
          type: "type"
        }
      }
      op {
        name: "ImageSummary"
        input_arg {
          name: "tag"
          type: DT_STRING
        }
        input_arg {
          name: "tensor"
          type_attr: "T"
        }
        output_arg {
          name: "summary"
          type: DT_STRING
        }
        attr {
          name: "max_images"
          type: "int"
          default_value {
            i: 3
          }
          has_minimum: true
          minimum: 1
        }
        attr {
          name: "T"
          type: "type"
          default_value {
            type: DT_FLOAT
          }
          allowed_values {
            list {
              type: DT_UINT8
              type: DT_FLOAT
              type: DT_HALF
              type: DT_DOUBLE
            }
          }
        }
        attr {
          name: "bad_color"
          type: "tensor"
          default_value {
            tensor {
              dtype: DT_UINT8
              tensor_shape {
                dim {
                  size: 4
                }
              }
              int_val: 255
              int_val: 0
              int_val: 0
              int_val: 255
            }
          }
        }
      }
      op {
        name: "IsFinite"
        input_arg {
          name: "x"
          type_attr: "T"
        }
        output_arg {
          name: "y"
          type: DT_BOOL
        }
        attr {
          name: "T"
          type: "type"
          allowed_values {
            list {
              type: DT_HALF
              type: DT_BFLOAT16
              type: DT_FLOAT
              type: DT_DOUBLE
            }
          }
        }
      }
      op {
        name: "Less"
        input_arg {
          name: "x"
          type_attr: "T"
        }
        input_arg {
          name: "y"
          type_attr: "T"
        }
        output_arg {
          name: "z"
          type: DT_BOOL
        }
        attr {
          name: "T"
          type: "type"
          allowed_values {
            list {
              type: DT_FLOAT
              type: DT_DOUBLE
              type: DT_INT32
              type: DT_INT64
              type: DT_UINT8
              type: DT_INT16
              type: DT_INT8
              type: DT_UINT16
              type: DT_HALF
              type: DT_UINT32
              type: DT_UINT64
              type: DT_BFLOAT16
            }
          }
        }
      }
      op {
        name: "ListDiff"
        input_arg {
          name: "x"
          type_attr: "T"
        }
        input_arg {
          name: "y"
          type_attr: "T"
        }
        output_arg {
          name: "out"
          type_attr: "T"
        }
        output_arg {
          name: "idx"
          type_attr: "out_idx"
        }
        attr {
          name: "T"
          type: "type"
        }
        attr {
          name: "out_idx"
          type: "type"
          default_value {
            type: DT_INT32
          }
          allowed_values {
            list {
              type: DT_INT32
              type: DT_INT64
            }
          }
        }
      }
      op {
        name: "Log"
        input_arg {
          name: "x"
          type_attr: "T"
        }
        output_arg {
          name: "y"
          type_attr: "T"
        }
        attr {
          name: "T"
          type: "type"
          allowed_values {
            list {
              type: DT_HALF
              type: DT_BFLOAT16
              type: DT_FLOAT
              type: DT_DOUBLE
              type: DT_COMPLEX64
              type: DT_COMPLEX128
            }
          }
        }
      }
      op {
        name: "LogicalAnd"
        input_arg {
          name: "x"
          type: DT_BOOL
        }
        input_arg {
          name: "y"
          type: DT_BOOL
        }
        output_arg {
          name: "z"
          type: DT_BOOL
        }
        is_commutative: true
      }
      op {
        name: "LogicalNot"
        input_arg {
          name: "x"
          type: DT_BOOL
        }
        output_arg {
          name: "y"
          type: DT_BOOL
        }
      }
      op {
        name: "LoopCond"
        input_arg {
          name: "input"
          type: DT_BOOL
        }
        output_arg {
          name: "output"
          type: DT_BOOL
        }
      }
      op {
        name: "MapDataset"
        input_arg {
          name: "input_dataset"
          type: DT_VARIANT
        }
        input_arg {
          name: "other_arguments"
          type_list_attr: "Targuments"
        }
        output_arg {
          name: "handle"
          type: DT_VARIANT
        }
        attr {
          name: "f"
          type: "func"
        }
        attr {
          name: "Targuments"
          type: "list(type)"
          has_minimum: true
        }
        attr {
          name: "output_types"
          type: "list(type)"
          has_minimum: true
          minimum: 1
        }
        attr {
          name: "output_shapes"
          type: "list(shape)"
          has_minimum: true
          minimum: 1
        }
      }
      op {
        name: "MatMul"
        input_arg {
          name: "a"
          type_attr: "T"
        }
        input_arg {
          name: "b"
          type_attr: "T"
        }
        output_arg {
          name: "product"
          type_attr: "T"
        }
        attr {
          name: "transpose_a"
          type: "bool"
          default_value {
            b: false
          }
        }
        attr {
          name: "transpose_b"
          type: "bool"
          default_value {
            b: false
          }
        }
        attr {
          name: "T"
          type: "type"
          allowed_values {
            list {
              type: DT_HALF
              type: DT_BFLOAT16
              type: DT_FLOAT
              type: DT_DOUBLE
              type: DT_INT32
              type: DT_COMPLEX64
              type: DT_COMPLEX128
            }
          }
        }
      }
      op {
        name: "MatrixBandPart"
        input_arg {
          name: "input"
          type_attr: "T"
        }
        input_arg {
          name: "num_lower"
          type: DT_INT64
        }
        input_arg {
          name: "num_upper"
          type: DT_INT64
        }
        output_arg {
          name: "band"
          type_attr: "T"
        }
        attr {
          name: "T"
          type: "type"
        }
      }
      op {
        name: "Max"
        input_arg {
          name: "input"
          type_attr: "T"
        }
        input_arg {
          name: "reduction_indices"
          type_attr: "Tidx"
        }
        output_arg {
          name: "output"
          type_attr: "T"
        }
        attr {
          name: "keep_dims"
          type: "bool"
          default_value {
            b: false
          }
        }
        attr {
          name: "T"
          type: "type"
          allowed_values {
            list {
              type: DT_FLOAT
              type: DT_DOUBLE
              type: DT_INT64
              type: DT_INT32
              type: DT_UINT8
              type: DT_UINT16
              type: DT_INT16
              type: DT_INT8
              type: DT_COMPLEX64
              type: DT_COMPLEX128
              type: DT_QINT8
              type: DT_QUINT8
              type: DT_QINT32
              type: DT_HALF
              type: DT_UINT32
              type: DT_UINT64
              type: DT_BFLOAT16
            }
          }
        }
        attr {
          name: "Tidx"
          type: "type"
          default_value {
            type: DT_INT32
          }
          allowed_values {
            list {
              type: DT_INT32
              type: DT_INT64
            }
          }
        }
      }
      op {
        name: "Mean"
        input_arg {
          name: "input"
          type_attr: "T"
        }
        input_arg {
          name: "reduction_indices"
          type_attr: "Tidx"
        }
        output_arg {
          name: "output"
          type_attr: "T"
        }
        attr {
          name: "keep_dims"
          type: "bool"
          default_value {
            b: false
          }
        }
        attr {
          name: "T"
          type: "type"
          allowed_values {
            list {
              type: DT_FLOAT
              type: DT_DOUBLE
              type: DT_INT64
              type: DT_INT32
              type: DT_UINT8
              type: DT_UINT16
              type: DT_INT16
              type: DT_INT8
              type: DT_COMPLEX64
              type: DT_COMPLEX128
              type: DT_QINT8
              type: DT_QUINT8
              type: DT_QINT32
              type: DT_HALF
              type: DT_UINT32
              type: DT_UINT64
              type: DT_BFLOAT16
            }
          }
        }
        attr {
          name: "Tidx"
          type: "type"
          default_value {
            type: DT_INT32
          }
          allowed_values {
            list {
              type: DT_INT32
              type: DT_INT64
            }
          }
        }
      }
      op {
        name: "Merge"
        input_arg {
          name: "inputs"
          type_attr: "T"
          number_attr: "N"
        }
        output_arg {
          name: "output"
          type_attr: "T"
        }
        output_arg {
          name: "value_index"
          type: DT_INT32
        }
        attr {
          name: "T"
          type: "type"
        }
        attr {
          name: "N"
          type: "int"
          has_minimum: true
          minimum: 1
        }
      }
      op {
        name: "MergeV2Checkpoints"
        input_arg {
          name: "checkpoint_prefixes"
          type: DT_STRING
        }
        input_arg {
          name: "destination_prefix"
          type: DT_STRING
        }
        attr {
          name: "delete_old_dirs"
          type: "bool"
          default_value {
            b: true
          }
        }
        is_stateful: true
      }
      op {
        name: "Min"
        input_arg {
          name: "input"
          type_attr: "T"
        }
        input_arg {
          name: "reduction_indices"
          type_attr: "Tidx"
        }
        output_arg {
          name: "output"
          type_attr: "T"
        }
        attr {
          name: "keep_dims"
          type: "bool"
          default_value {
            b: false
          }
        }
        attr {
          name: "T"
          type: "type"
          allowed_values {
            list {
              type: DT_FLOAT
              type: DT_DOUBLE
              type: DT_INT64
              type: DT_INT32
              type: DT_UINT8
              type: DT_UINT16
              type: DT_INT16
              type: DT_INT8
              type: DT_COMPLEX64
              type: DT_COMPLEX128
              type: DT_QINT8
              type: DT_QUINT8
              type: DT_QINT32
              type: DT_HALF
              type: DT_UINT32
              type: DT_UINT64
              type: DT_BFLOAT16
            }
          }
        }
        attr {
          name: "Tidx"
          type: "type"
          default_value {
            type: DT_INT32
          }
          allowed_values {
            list {
              type: DT_INT32
              type: DT_INT64
            }
          }
        }
      }
      op {
        name: "Mul"
        input_arg {
          name: "x"
          type_attr: "T"
        }
        input_arg {
          name: "y"
          type_attr: "T"
        }
        output_arg {
          name: "z"
          type_attr: "T"
        }
        attr {
          name: "T"
          type: "type"
          allowed_values {
            list {
              type: DT_HALF
              type: DT_BFLOAT16
              type: DT_FLOAT
              type: DT_DOUBLE
              type: DT_UINT8
              type: DT_INT8
              type: DT_UINT16
              type: DT_INT16
              type: DT_INT32
              type: DT_INT64
              type: DT_COMPLEX64
              type: DT_COMPLEX128
            }
          }
        }
        is_commutative: true
      }
      op {
        name: "Neg"
        input_arg {
          name: "x"
          type_attr: "T"
        }
        output_arg {
          name: "y"
          type_attr: "T"
        }
        attr {
          name: "T"
          type: "type"
          allowed_values {
            list {
              type: DT_HALF
              type: DT_BFLOAT16
              type: DT_FLOAT
              type: DT_DOUBLE
              type: DT_INT32
              type: DT_INT64
              type: DT_COMPLEX64
              type: DT_COMPLEX128
            }
          }
        }
      }
      op {
        name: "NextIteration"
        input_arg {
          name: "data"
          type_attr: "T"
        }
        output_arg {
          name: "output"
          type_attr: "T"
        }
        attr {
          name: "T"
          type: "type"
        }
      }
      op {
        name: "NoOp"
      }
      op {
        name: "NotEqual"
        input_arg {
          name: "x"
          type_attr: "T"
        }
        input_arg {
          name: "y"
          type_attr: "T"
        }
        output_arg {
          name: "z"
          type: DT_BOOL
        }
        attr {
          name: "T"
          type: "type"
          allowed_values {
            list {
              type: DT_HALF
              type: DT_BFLOAT16
              type: DT_FLOAT
              type: DT_DOUBLE
              type: DT_UINT8
              type: DT_INT8
              type: DT_INT16
              type: DT_INT32
              type: DT_INT64
              type: DT_COMPLEX64
              type: DT_QUINT8
              type: DT_QINT8
              type: DT_QINT32
              type: DT_STRING
              type: DT_BOOL
              type: DT_COMPLEX128
            }
          }
        }
        is_commutative: true
      }
      op {
        name: "Pack"
        input_arg {
          name: "values"
          type_attr: "T"
          number_attr: "N"
        }
        output_arg {
          name: "output"
          type_attr: "T"
        }
        attr {
          name: "N"
          type: "int"
          has_minimum: true
          minimum: 1
        }
        attr {
          name: "T"
          type: "type"
        }
        attr {
          name: "axis"
          type: "int"
          default_value {
            i: 0
          }
        }
      }
      op {
        name: "Pad"
        input_arg {
          name: "input"
          type_attr: "T"
        }
        input_arg {
          name: "paddings"
          type_attr: "Tpaddings"
        }
        output_arg {
          name: "output"
          type_attr: "T"
        }
        attr {
          name: "T"
          type: "type"
        }
        attr {
          name: "Tpaddings"
          type: "type"
          default_value {
            type: DT_INT32
          }
          allowed_values {
            list {
              type: DT_INT32
              type: DT_INT64
            }
          }
        }
      }
      op {
        name: "PaddedBatchDataset"
        input_arg {
          name: "input_dataset"
          type: DT_VARIANT
        }
        input_arg {
          name: "batch_size"
          type: DT_INT64
        }
        input_arg {
          name: "padded_shapes"
          type: DT_INT64
          number_attr: "N"
        }
        input_arg {
          name: "padding_values"
          type_list_attr: "Toutput_types"
        }
        output_arg {
          name: "handle"
          type: DT_VARIANT
        }
        attr {
          name: "Toutput_types"
          type: "list(type)"
          has_minimum: true
          minimum: 1
        }
        attr {
          name: "output_shapes"
          type: "list(shape)"
          has_minimum: true
          minimum: 1
        }
        attr {
          name: "N"
          type: "int"
          has_minimum: true
          minimum: 1
        }
      }
      op {
        name: "Placeholder"
        output_arg {
          name: "output"
          type_attr: "dtype"
        }
        attr {
          name: "dtype"
          type: "type"
        }
        attr {
          name: "shape"
          type: "shape"
          default_value {
            shape {
              unknown_rank: true
            }
          }
        }
      }
      op {
        name: "Pow"
        input_arg {
          name: "x"
          type_attr: "T"
        }
        input_arg {
          name: "y"
          type_attr: "T"
        }
        output_arg {
          name: "z"
          type_attr: "T"
        }
        attr {
          name: "T"
          type: "type"
          allowed_values {
            list {
              type: DT_HALF
              type: DT_BFLOAT16
              type: DT_FLOAT
              type: DT_DOUBLE
              type: DT_INT32
              type: DT_INT64
              type: DT_COMPLEX64
              type: DT_COMPLEX128
            }
          }
        }
      }
      op {
        name: "Prod"
        input_arg {
          name: "input"
          type_attr: "T"
        }
        input_arg {
          name: "reduction_indices"
          type_attr: "Tidx"
        }
        output_arg {
          name: "output"
          type_attr: "T"
        }
        attr {
          name: "keep_dims"
          type: "bool"
          default_value {
            b: false
          }
        }
        attr {
          name: "T"
          type: "type"
          allowed_values {
            list {
              type: DT_FLOAT
              type: DT_DOUBLE
              type: DT_INT64
              type: DT_INT32
              type: DT_UINT8
              type: DT_UINT16
              type: DT_INT16
              type: DT_INT8
              type: DT_COMPLEX64
              type: DT_COMPLEX128
              type: DT_QINT8
              type: DT_QUINT8
              type: DT_QINT32
              type: DT_HALF
              type: DT_UINT32
              type: DT_UINT64
              type: DT_BFLOAT16
            }
          }
        }
        attr {
          name: "Tidx"
          type: "type"
          default_value {
            type: DT_INT32
          }
          allowed_values {
            list {
              type: DT_INT32
              type: DT_INT64
            }
          }
        }
      }
      op {
        name: "RandomStandardNormal"
        input_arg {
          name: "shape"
          type_attr: "T"
        }
        output_arg {
          name: "output"
          type_attr: "dtype"
        }
        attr {
          name: "seed"
          type: "int"
          default_value {
            i: 0
          }
        }
        attr {
          name: "seed2"
          type: "int"
          default_value {
            i: 0
          }
        }
        attr {
          name: "dtype"
          type: "type"
          allowed_values {
            list {
              type: DT_HALF
              type: DT_BFLOAT16
              type: DT_FLOAT
              type: DT_DOUBLE
            }
          }
        }
        attr {
          name: "T"
          type: "type"
          allowed_values {
            list {
              type: DT_INT32
              type: DT_INT64
            }
          }
        }
        is_stateful: true
      }
      op {
        name: "RandomUniform"
        input_arg {
          name: "shape"
          type_attr: "T"
        }
        output_arg {
          name: "output"
          type_attr: "dtype"
        }
        attr {
          name: "seed"
          type: "int"
          default_value {
            i: 0
          }
        }
        attr {
          name: "seed2"
          type: "int"
          default_value {
            i: 0
          }
        }
        attr {
          name: "dtype"
          type: "type"
          allowed_values {
            list {
              type: DT_HALF
              type: DT_BFLOAT16
              type: DT_FLOAT
              type: DT_DOUBLE
            }
          }
        }
        attr {
          name: "T"
          type: "type"
          allowed_values {
            list {
              type: DT_INT32
              type: DT_INT64
            }
          }
        }
        is_stateful: true
      }
      op {
        name: "Range"
        input_arg {
          name: "start"
          type_attr: "Tidx"
        }
        input_arg {
          name: "limit"
          type_attr: "Tidx"
        }
        input_arg {
          name: "delta"
          type_attr: "Tidx"
        }
        output_arg {
          name: "output"
          type_attr: "Tidx"
        }
        attr {
          name: "Tidx"
          type: "type"
          default_value {
            type: DT_INT32
          }
          allowed_values {
            list {
              type: DT_BFLOAT16
              type: DT_FLOAT
              type: DT_DOUBLE
              type: DT_INT32
              type: DT_INT64
            }
          }
        }
      }
      op {
        name: "RealDiv"
        input_arg {
          name: "x"
          type_attr: "T"
        }
        input_arg {
          name: "y"
          type_attr: "T"
        }
        output_arg {
          name: "z"
          type_attr: "T"
        }
        attr {
          name: "T"
          type: "type"
          allowed_values {
            list {
              type: DT_HALF
              type: DT_BFLOAT16
              type: DT_FLOAT
              type: DT_DOUBLE
              type: DT_UINT8
              type: DT_INT8
              type: DT_UINT16
              type: DT_INT16
              type: DT_INT32
              type: DT_INT64
              type: DT_COMPLEX64
              type: DT_COMPLEX128
            }
          }
        }
      }
      op {
        name: "RefEnter"
        input_arg {
          name: "data"
          type_attr: "T"
          is_ref: true
        }
        output_arg {
          name: "output"
          type_attr: "T"
          is_ref: true
        }
        attr {
          name: "T"
          type: "type"
        }
        attr {
          name: "frame_name"
          type: "string"
        }
        attr {
          name: "is_constant"
          type: "bool"
          default_value {
            b: false
          }
        }
        attr {
          name: "parallel_iterations"
          type: "int"
          default_value {
            i: 10
          }
        }
      }
      op {
        name: "Relu"
        input_arg {
          name: "features"
          type_attr: "T"
        }
        output_arg {
          name: "activations"
          type_attr: "T"
        }
        attr {
          name: "T"
          type: "type"
          allowed_values {
            list {
              type: DT_FLOAT
              type: DT_DOUBLE
              type: DT_INT32
              type: DT_INT64
              type: DT_UINT8
              type: DT_INT16
              type: DT_INT8
              type: DT_UINT16
              type: DT_HALF
              type: DT_UINT32
              type: DT_UINT64
              type: DT_BFLOAT16
            }
          }
        }
      }
      op {
        name: "Reshape"
        input_arg {
          name: "tensor"
          type_attr: "T"
        }
        input_arg {
          name: "shape"
          type_attr: "Tshape"
        }
        output_arg {
          name: "output"
          type_attr: "T"
        }
        attr {
          name: "T"
          type: "type"
        }
        attr {
          name: "Tshape"
          type: "type"
          default_value {
            type: DT_INT32
          }
          allowed_values {
            list {
              type: DT_INT32
              type: DT_INT64
            }
          }
        }
      }
      op {
        name: "RestoreV2"
        input_arg {
          name: "prefix"
          type: DT_STRING
        }
        input_arg {
          name: "tensor_names"
          type: DT_STRING
        }
        input_arg {
          name: "shape_and_slices"
          type: DT_STRING
        }
        output_arg {
          name: "tensors"
          type_list_attr: "dtypes"
        }
        attr {
          name: "dtypes"
          type: "list(type)"
          has_minimum: true
          minimum: 1
        }
        is_stateful: true
      }
      op {
        name: "Rsqrt"
        input_arg {
          name: "x"
          type_attr: "T"
        }
        output_arg {
          name: "y"
          type_attr: "T"
        }
        attr {
          name: "T"
          type: "type"
          allowed_values {
            list {
              type: DT_HALF
              type: DT_BFLOAT16
              type: DT_FLOAT
              type: DT_DOUBLE
              type: DT_COMPLEX64
              type: DT_COMPLEX128
            }
          }
        }
      }
      op {
        name: "SaveV2"
        input_arg {
          name: "prefix"
          type: DT_STRING
        }
        input_arg {
          name: "tensor_names"
          type: DT_STRING
        }
        input_arg {
          name: "shape_and_slices"
          type: DT_STRING
        }
        input_arg {
          name: "tensors"
          type_list_attr: "dtypes"
        }
        attr {
          name: "dtypes"
          type: "list(type)"
          has_minimum: true
          minimum: 1
        }
        is_stateful: true
      }
      op {
        name: "ScatterNd"
        input_arg {
          name: "indices"
          type_attr: "Tindices"
        }
        input_arg {
          name: "updates"
          type_attr: "T"
        }
        input_arg {
          name: "shape"
          type_attr: "Tindices"
        }
        output_arg {
          name: "output"
          type_attr: "T"
        }
        attr {
          name: "T"
          type: "type"
        }
        attr {
          name: "Tindices"
          type: "type"
          allowed_values {
            list {
              type: DT_INT32
              type: DT_INT64
            }
          }
        }
      }
      op {
        name: "Select"
        input_arg {
          name: "condition"
          type: DT_BOOL
        }
        input_arg {
          name: "t"
          type_attr: "T"
        }
        input_arg {
          name: "e"
          type_attr: "T"
        }
        output_arg {
          name: "output"
          type_attr: "T"
        }
        attr {
          name: "T"
          type: "type"
        }
      }
      op {
        name: "Shape"
        input_arg {
          name: "input"
          type_attr: "T"
        }
        output_arg {
          name: "output"
          type_attr: "out_type"
        }
        attr {
          name: "T"
          type: "type"
        }
        attr {
          name: "out_type"
          type: "type"
          default_value {
            type: DT_INT32
          }
          allowed_values {
            list {
              type: DT_INT32
              type: DT_INT64
            }
          }
        }
      }
      op {
        name: "ShardedFilename"
        input_arg {
          name: "basename"
          type: DT_STRING
        }
        input_arg {
          name: "shard"
          type: DT_INT32
        }
        input_arg {
          name: "num_shards"
          type: DT_INT32
        }
        output_arg {
          name: "filename"
          type: DT_STRING
        }
      }
      op {
        name: "Sin"
        input_arg {
          name: "x"
          type_attr: "T"
        }
        output_arg {
          name: "y"
          type_attr: "T"
        }
        attr {
          name: "T"
          type: "type"
          allowed_values {
            list {
              type: DT_HALF
              type: DT_BFLOAT16
              type: DT_FLOAT
              type: DT_DOUBLE
              type: DT_COMPLEX64
              type: DT_COMPLEX128
            }
          }
        }
      }
      op {
        name: "Slice"
        input_arg {
          name: "input"
          type_attr: "T"
        }
        input_arg {
          name: "begin"
          type_attr: "Index"
        }
        input_arg {
          name: "size"
          type_attr: "Index"
        }
        output_arg {
          name: "output"
          type_attr: "T"
        }
        attr {
          name: "T"
          type: "type"
        }
        attr {
          name: "Index"
          type: "type"
          allowed_values {
            list {
              type: DT_INT32
              type: DT_INT64
            }
          }
        }
      }
      op {
        name: "Softmax"
        input_arg {
          name: "logits"
          type_attr: "T"
        }
        output_arg {
          name: "softmax"
          type_attr: "T"
        }
        attr {
          name: "T"
          type: "type"
          allowed_values {
            list {
              type: DT_HALF
              type: DT_BFLOAT16
              type: DT_FLOAT
              type: DT_DOUBLE
            }
          }
        }
      }
      op {
        name: "Split"
        input_arg {
          name: "split_dim"
          type: DT_INT32
        }
        input_arg {
          name: "value"
          type_attr: "T"
        }
        output_arg {
          name: "output"
          type_attr: "T"
          number_attr: "num_split"
        }
        attr {
          name: "num_split"
          type: "int"
          has_minimum: true
          minimum: 1
        }
        attr {
          name: "T"
          type: "type"
        }
      }
      op {
        name: "Square"
        input_arg {
          name: "x"
          type_attr: "T"
        }
        output_arg {
          name: "y"
          type_attr: "T"
        }
        attr {
          name: "T"
          type: "type"
          allowed_values {
            list {
              type: DT_HALF
              type: DT_BFLOAT16
              type: DT_FLOAT
              type: DT_DOUBLE
              type: DT_INT32
              type: DT_INT64
              type: DT_COMPLEX64
              type: DT_COMPLEX128
            }
          }
        }
      }
      op {
        name: "Squeeze"
        input_arg {
          name: "input"
          type_attr: "T"
        }
        output_arg {
          name: "output"
          type_attr: "T"
        }
        attr {
          name: "T"
          type: "type"
        }
        attr {
          name: "squeeze_dims"
          type: "list(int)"
          default_value {
            list {
            }
          }
          has_minimum: true
        }
      }
      op {
        name: "StopGradient"
        input_arg {
          name: "input"
          type_attr: "T"
        }
        output_arg {
          name: "output"
          type_attr: "T"
        }
        attr {
          name: "T"
          type: "type"
        }
      }
      op {
        name: "StridedSlice"
        input_arg {
          name: "input"
          type_attr: "T"
        }
        input_arg {
          name: "begin"
          type_attr: "Index"
        }
        input_arg {
          name: "end"
          type_attr: "Index"
        }
        input_arg {
          name: "strides"
          type_attr: "Index"
        }
        output_arg {
          name: "output"
          type_attr: "T"
        }
        attr {
          name: "T"
          type: "type"
        }
        attr {
          name: "Index"
          type: "type"
          allowed_values {
            list {
              type: DT_INT32
              type: DT_INT64
            }
          }
        }
        attr {
          name: "begin_mask"
          type: "int"
          default_value {
            i: 0
          }
        }
        attr {
          name: "end_mask"
          type: "int"
          default_value {
            i: 0
          }
        }
        attr {
          name: "ellipsis_mask"
          type: "int"
          default_value {
            i: 0
          }
        }
        attr {
          name: "new_axis_mask"
          type: "int"
          default_value {
            i: 0
          }
        }
        attr {
          name: "shrink_axis_mask"
          type: "int"
          default_value {
            i: 0
          }
        }
      }
      op {
        name: "StringJoin"
        input_arg {
          name: "inputs"
          type: DT_STRING
          number_attr: "N"
        }
        output_arg {
          name: "output"
          type: DT_STRING
        }
        attr {
          name: "N"
          type: "int"
          has_minimum: true
          minimum: 1
        }
        attr {
          name: "separator"
          type: "string"
          default_value {
            s: ""
          }
        }
      }
      op {
        name: "Sub"
        input_arg {
          name: "x"
          type_attr: "T"
        }
        input_arg {
          name: "y"
          type_attr: "T"
        }
        output_arg {
          name: "z"
          type_attr: "T"
        }
        attr {
          name: "T"
          type: "type"
          allowed_values {
            list {
              type: DT_HALF
              type: DT_BFLOAT16
              type: DT_FLOAT
              type: DT_DOUBLE
              type: DT_UINT8
              type: DT_INT8
              type: DT_UINT16
              type: DT_INT16
              type: DT_INT32
              type: DT_INT64
              type: DT_COMPLEX64
              type: DT_COMPLEX128
            }
          }
        }
      }
      op {
        name: "Sum"
        input_arg {
          name: "input"
          type_attr: "T"
        }
        input_arg {
          name: "reduction_indices"
          type_attr: "Tidx"
        }
        output_arg {
          name: "output"
          type_attr: "T"
        }
        attr {
          name: "keep_dims"
          type: "bool"
          default_value {
            b: false
          }
        }
        attr {
          name: "T"
          type: "type"
          allowed_values {
            list {
              type: DT_FLOAT
              type: DT_DOUBLE
              type: DT_INT64
              type: DT_INT32
              type: DT_UINT8
              type: DT_UINT16
              type: DT_INT16
              type: DT_INT8
              type: DT_COMPLEX64
              type: DT_COMPLEX128
              type: DT_QINT8
              type: DT_QUINT8
              type: DT_QINT32
              type: DT_HALF
              type: DT_UINT32
              type: DT_UINT64
              type: DT_BFLOAT16
            }
          }
        }
        attr {
          name: "Tidx"
          type: "type"
          default_value {
            type: DT_INT32
          }
          allowed_values {
            list {
              type: DT_INT32
              type: DT_INT64
            }
          }
        }
      }
      op {
        name: "Switch"
        input_arg {
          name: "data"
          type_attr: "T"
        }
        input_arg {
          name: "pred"
          type: DT_BOOL
        }
        output_arg {
          name: "output_false"
          type_attr: "T"
        }
        output_arg {
          name: "output_true"
          type_attr: "T"
        }
        attr {
          name: "T"
          type: "type"
        }
      }
      op {
        name: "TensorSliceDataset"
        input_arg {
          name: "components"
          type_list_attr: "Toutput_types"
        }
        output_arg {
          name: "handle"
          type: DT_VARIANT
        }
        attr {
          name: "Toutput_types"
          type: "list(type)"
          has_minimum: true
          minimum: 1
        }
        attr {
          name: "output_shapes"
          type: "list(shape)"
          has_minimum: true
          minimum: 1
        }
        is_stateful: true
      }
      op {
        name: "Tile"
        input_arg {
          name: "input"
          type_attr: "T"
        }
        input_arg {
          name: "multiples"
          type_attr: "Tmultiples"
        }
        output_arg {
          name: "output"
          type_attr: "T"
        }
        attr {
          name: "T"
          type: "type"
        }
        attr {
          name: "Tmultiples"
          type: "type"
          default_value {
            type: DT_INT32
          }
          allowed_values {
            list {
              type: DT_INT32
              type: DT_INT64
            }
          }
        }
      }
      op {
        name: "TopKV2"
        input_arg {
          name: "input"
          type_attr: "T"
        }
        input_arg {
          name: "k"
          type: DT_INT32
        }
        output_arg {
          name: "values"
          type_attr: "T"
        }
        output_arg {
          name: "indices"
          type: DT_INT32
        }
        attr {
          name: "sorted"
          type: "bool"
          default_value {
            b: true
          }
        }
        attr {
          name: "T"
          type: "type"
          allowed_values {
            list {
              type: DT_FLOAT
              type: DT_DOUBLE
              type: DT_INT32
              type: DT_INT64
              type: DT_UINT8
              type: DT_INT16
              type: DT_INT8
              type: DT_UINT16
              type: DT_HALF
              type: DT_UINT32
              type: DT_UINT64
              type: DT_BFLOAT16
            }
          }
        }
      }
      op {
        name: "Transpose"
        input_arg {
          name: "x"
          type_attr: "T"
        }
        input_arg {
          name: "perm"
          type_attr: "Tperm"
        }
        output_arg {
          name: "y"
          type_attr: "T"
        }
        attr {
          name: "T"
          type: "type"
        }
        attr {
          name: "Tperm"
          type: "type"
          default_value {
            type: DT_INT32
          }
          allowed_values {
            list {
              type: DT_INT32
              type: DT_INT64
            }
          }
        }
      }
      op {
        name: "VariableV2"
        output_arg {
          name: "ref"
          type_attr: "dtype"
          is_ref: true
        }
        attr {
          name: "shape"
          type: "shape"
        }
        attr {
          name: "dtype"
          type: "type"
        }
        attr {
          name: "container"
          type: "string"
          default_value {
            s: ""
          }
        }
        attr {
          name: "shared_name"
          type: "string"
          default_value {
            s: ""
          }
        }
        is_stateful: true
      }
      op {
        name: "Where"
        input_arg {
          name: "input"
          type_attr: "T"
        }
        output_arg {
          name: "index"
          type: DT_INT64
        }
        attr {
          name: "T"
          type: "type"
          default_value {
            type: DT_BOOL
          }
          allowed_values {
            list {
              type: DT_FLOAT
              type: DT_DOUBLE
              type: DT_INT64
              type: DT_INT32
              type: DT_UINT8
              type: DT_UINT16
              type: DT_INT16
              type: DT_INT8
              type: DT_COMPLEX64
              type: DT_COMPLEX128
              type: DT_QINT8
              type: DT_QUINT8
              type: DT_QINT32
              type: DT_HALF
              type: DT_UINT32
              type: DT_UINT64
              type: DT_BFLOAT16
              type: DT_BOOL
            }
          }
        }
      }
      op {
        name: "ZerosLike"
        input_arg {
          name: "x"
          type_attr: "T"
        }
        output_arg {
          name: "y"
          type_attr: "T"
        }
        attr {
          name: "T"
          type: "type"
        }
      }
    }
    tags: "serve"
    tensorflow_version: "1.5.0"
    tensorflow_git_version: "v1.5.0-0-g37aa430d84"
  }
  graph_def {
    node {
      name: "global_step/Initializer/zeros"
      op: "Const"
      attr {
        key: "_class"
        value {
          list {
            s: "loc:@global_step"
          }
        }
      }
      attr {
        key: "_output_shapes"
        value {
          list {
            shape {
            }
          }
        }
      }
      attr {
        key: "dtype"
        value {
          type: DT_INT64
        }
      }
      attr {
        key: "value"
        value {
          tensor {
            dtype: DT_INT64
            tensor_shape {
            }
            int64_val: 0
          }
        }
      }
    }
    node {
      name: "global_step"
      op: "VariableV2"
      attr {
        key: "_class"
        value {
          list {
            s: "loc:@global_step"
          }
        }
      }
      attr {
        key: "_output_shapes"
        value {
          list {
            shape {
            }
          }
        }
      }
      attr {
        key: "container"
        value {
          s: ""
        }
      }
      attr {
        key: "dtype"
        value {
          type: DT_INT64
        }
      }
      attr {
        key: "shape"
        value {
          shape {
          }
        }
      }
      attr {
        key: "shared_name"
        value {
          s: ""
        }
      }
    }
    node {
      name: "global_step/Assign"
      op: "Assign"
      input: "global_step"
      input: "global_step/Initializer/zeros"
      attr {
        key: "T"
        value {
          type: DT_INT64
        }
      }
      attr {
        key: "_class"
        value {
          list {
            s: "loc:@global_step"
          }
        }
      }
      attr {
        key: "_output_shapes"
        value {
          list {
            shape {
            }
          }
        }
      }
      attr {
        key: "use_locking"
        value {
          b: true
        }
      }
      attr {
        key: "validate_shape"
        value {
          b: true
        }
      }
    }
    node {
      name: "global_step/read"
      op: "Identity"
      input: "global_step"
      attr {
        key: "T"
        value {
          type: DT_INT64
        }
      }
      attr {
        key: "_class"
        value {
          list {
            s: "loc:@global_step"
          }
        }
      }
      attr {
        key: "_output_shapes"
        value {
          list {
            shape {
            }
          }
        }
      }
    }
    node {
      name: "serialized_example"
      op: "Placeholder"
      attr {
        key: "_output_shapes"
        value {
          list {
            shape {
              dim {
                size: -1
              }
            }
          }
        }
      }
      attr {
        key: "dtype"
        value {
          type: DT_STRING
        }
      }
      attr {
        key: "shape"
        value {
          shape {
            dim {
              size: -1
            }
          }
        }
      }
    }
    node {
      name: "batch_size"
      op: "Const"
      attr {
        key: "_output_shapes"
        value {
          list {
            shape {
            }
          }
        }
      }
      attr {
        key: "dtype"
        value {
          type: DT_INT64
        }
      }
      attr {
        key: "value"
        value {
          tensor {
            dtype: DT_INT64
            tensor_shape {
            }
            int64_val: 1000
          }
        }
      }
    }
    node {
      name: "Const"
      op: "Const"
      attr {
        key: "_output_shapes"
        value {
          list {
            shape {
              dim {
                size: 1
              }
            }
          }
        }
      }
      attr {
        key: "dtype"
        value {
          type: DT_INT64
        }
      }
      attr {
        key: "value"
        value {
          tensor {
            dtype: DT_INT64
            tensor_shape {
              dim {
                size: 1
              }
            }
            int64_val: 1
          }
        }
      }
    }
    node {
      name: "Const_1"
      op: "Const"
      attr {
        key: "_output_shapes"
        value {
          list {
            shape {
              dim {
                size: 1
              }
            }
          }
        }
      }
      attr {
        key: "dtype"
        value {
          type: DT_INT64
        }
      }
      attr {
        key: "value"
        value {
          tensor {
            dtype: DT_INT64
            tensor_shape {
              dim {
                size: 1
              }
            }
            int64_val: -1
          }
        }
      }
    }
    node {
      name: "Const_2"
      op: "Const"
      attr {
        key: "_output_shapes"
        value {
          list {
            shape {
              dim {
                size: 1
              }
            }
          }
        }
      }
      attr {
        key: "dtype"
        value {
          type: DT_INT64
        }
      }
      attr {
        key: "value"
        value {
          tensor {
            dtype: DT_INT64
            tensor_shape {
              dim {
                size: 1
              }
            }
            int64_val: -1
          }
        }
      }
    }
    node {
      name: "padding_value"
      op: "Const"
      attr {
        key: "_output_shapes"
        value {
          list {
            shape {
            }
          }
        }
      }
      attr {
        key: "dtype"
        value {
          type: DT_INT32
        }
      }
      attr {
        key: "value"
        value {
          tensor {
            dtype: DT_INT32
            tensor_shape {
            }
            int_val: 0
          }
        }
      }
    }
    node {
      name: "padding_value_1"
      op: "Const"
      attr {
        key: "_output_shapes"
        value {
          list {
            shape {
            }
          }
        }
      }
      attr {
        key: "dtype"
        value {
          type: DT_INT32
        }
      }
      attr {
        key: "value"
        value {
          tensor {
            dtype: DT_INT32
            tensor_shape {
            }
            int_val: 0
          }
        }
      }
    }
    node {
      name: "padding_value_2"
      op: "Const"
      attr {
        key: "_output_shapes"
        value {
          list {
            shape {
            }
          }
        }
      }
      attr {
        key: "dtype"
        value {
          type: DT_INT32
        }
      }
      attr {
        key: "value"
        value {
          tensor {
            dtype: DT_INT32
            tensor_shape {
            }
            int_val: 0
          }
        }
      }
    }
    node {
      name: "TensorSliceDataset"
      op: "TensorSliceDataset"
      input: "serialized_example"
      attr {
        key: "Toutput_types"
        value {
          list {
            type: DT_STRING
          }
        }
      }
      attr {
        key: "_output_shapes"
        value {
          list {
            shape {
            }
          }
        }
      }
      attr {
        key: "output_shapes"
        value {
          list {
            shape {
            }
          }
        }
      }
    }
    node {
      name: "MapDataset"
      op: "MapDataset"
      input: "TensorSliceDataset"
      attr {
        key: "Targuments"
        value {
          list {
          }
        }
      }
      attr {
        key: "_output_shapes"
        value {
          list {
            shape {
            }
          }
        }
      }
      attr {
        key: "f"
        value {
          func {
            name: "tf_map_func_557edf4e"
          }
        }
      }
      attr {
        key: "output_shapes"
        value {
          list {
            shape {
              dim {
                size: 1
              }
            }
            shape {
              dim {
                size: -1
              }
            }
            shape {
              dim {
                size: -1
              }
            }
          }
        }
      }
      attr {
        key: "output_types"
        value {
          list {
            type: DT_INT64
            type: DT_INT64
            type: DT_INT64
          }
        }
      }
    }
    node {
      name: "MapDataset_1"
      op: "MapDataset"
      input: "MapDataset"
      attr {
        key: "Targuments"
        value {
          list {
          }
        }
      }
      attr {
        key: "_output_shapes"
        value {
          list {
            shape {
            }
          }
        }
      }
      attr {
        key: "f"
        value {
          func {
            name: "tf_map_func_b6493f56"
          }
        }
      }
      attr {
        key: "output_shapes"
        value {
          list {
            shape {
              dim {
                size: 1
              }
            }
            shape {
              dim {
                size: -1
              }
            }
            shape {
              dim {
                size: -1
              }
            }
          }
        }
      }
      attr {
        key: "output_types"
        value {
          list {
            type: DT_INT64
            type: DT_INT64
            type: DT_INT64
          }
        }
      }
    }
    node {
      name: "MapDataset_2"
      op: "MapDataset"
      input: "MapDataset_1"
      attr {
        key: "Targuments"
        value {
          list {
          }
        }
      }
      attr {
        key: "_output_shapes"
        value {
          list {
            shape {
            }
          }
        }
      }
      attr {
        key: "f"
        value {
          func {
            name: "tf_map_func_f2064ac4"
          }
        }
      }
      attr {
        key: "output_shapes"
        value {
          list {
            shape {
              dim {
                size: 1
              }
            }
            shape {
              dim {
                size: -1
              }
            }
            shape {
              dim {
                size: -1
              }
            }
          }
        }
      }
      attr {
        key: "output_types"
        value {
          list {
            type: DT_INT64
            type: DT_INT64
            type: DT_INT64
          }
        }
      }
    }
    node {
      name: "MapDataset_3"
      op: "MapDataset"
      input: "MapDataset_2"
      attr {
        key: "Targuments"
        value {
          list {
          }
        }
      }
      attr {
        key: "_output_shapes"
        value {
          list {
            shape {
            }
          }
        }
      }
      attr {
        key: "f"
        value {
          func {
            name: "tf_map_func_3cfa13bc"
          }
        }
      }
      attr {
        key: "output_shapes"
        value {
          list {
            shape {
              dim {
                size: 1
              }
            }
            shape {
              dim {
                size: -1
              }
            }
            shape {
              dim {
                size: -1
              }
            }
          }
        }
      }
      attr {
        key: "output_types"
        value {
          list {
            type: DT_INT32
            type: DT_INT32
            type: DT_INT32
          }
        }
      }
    }
    node {
      name: "PaddedBatchDataset"
      op: "PaddedBatchDataset"
      input: "MapDataset_3"
      input: "batch_size"
      input: "Const"
      input: "Const_1"
      input: "Const_2"
      input: "padding_value"
      input: "padding_value_1"
      input: "padding_value_2"
      attr {
        key: "N"
        value {
          i: 3
        }
      }
      attr {
        key: "Toutput_types"
        value {
          list {
            type: DT_INT32
            type: DT_INT32
            type: DT_INT32
          }
        }
      }
      attr {
        key: "_output_shapes"
        value {
          list {
            shape {
            }
          }
        }
      }
      attr {
        key: "output_shapes"
        value {
          list {
            shape {
              dim {
                size: -1
              }
              dim {
                size: 1
              }
            }
            shape {
              dim {
                size: -1
              }
              dim {
                size: -1
              }
            }
            shape {
              dim {
                size: -1
              }
              dim {
                size: -1
              }
            }
          }
        }
      }
    }
    node {
      name: "MapDataset_4"
      op: "MapDataset"
      input: "PaddedBatchDataset"
      attr {
        key: "Targuments"
        value {
          list {
          }
        }
      }
      attr {
        key: "_output_shapes"
        value {
          list {
            shape {
            }
          }
        }
      }
      attr {
        key: "f"
        value {
          func {
            name: "tf_map_func_13841386"
          }
        }
      }
      attr {
        key: "output_shapes"
        value {
          list {
            shape {
              dim {
                size: -1
              }
              dim {
                size: 1
              }
            }
            shape {
              dim {
                size: -1
              }
              dim {
                size: -1
              }
              dim {
                size: 1
              }
              dim {
                size: 1
              }
            }
            shape {
              dim {
                size: -1
              }
              dim {
                size: -1
              }
              dim {
                size: 1
              }
              dim {
                size: 1
              }
            }
          }
        }
      }
      attr {
        key: "output_types"
        value {
          list {
            type: DT_INT32
            type: DT_INT32
            type: DT_INT32
          }
        }
      }
    }
    node {
      name: "DatasetToSingleElement"
      op: "DatasetToSingleElement"
      input: "MapDataset_4"
      attr {
        key: "_output_shapes"
        value {
          list {
            shape {
              dim {
                size: -1
              }
              dim {
                size: 1
              }
            }
            shape {
              dim {
                size: -1
              }
              dim {
                size: -1
              }
              dim {
                size: 1
              }
              dim {
                size: 1
              }
            }
            shape {
              dim {
                size: -1
              }
              dim {
                size: -1
              }
              dim {
                size: 1
              }
              dim {
                size: 1
              }
            }
          }
        }
      }
      attr {
        key: "output_shapes"
        value {
          list {
            shape {
              dim {
                size: -1
              }
              dim {
                size: 1
              }
            }
            shape {
              dim {
                size: -1
              }
              dim {
                size: -1
              }
              dim {
                size: 1
              }
              dim {
                size: 1
              }
            }
            shape {
              dim {
                size: -1
              }
              dim {
                size: -1
              }
              dim {
                size: 1
              }
              dim {
                size: 1
              }
            }
          }
        }
      }
      attr {
        key: "output_types"
        value {
          list {
            type: DT_INT32
            type: DT_INT32
            type: DT_INT32
          }
        }
      }
    }
    node {
      name: "losses_avg/problem_0/total_loss/initial_value"
      op: "Const"
      attr {
        key: "_output_shapes"
        value {
          list {
            shape {
            }
          }
        }
      }
      attr {
        key: "dtype"
        value {
          type: DT_FLOAT
        }
      }
      attr {
        key: "value"
        value {
          tensor {
            dtype: DT_FLOAT
            tensor_shape {
            }
            float_val: 100.0
          }
        }
      }
    }
    node {
      name: "losses_avg/problem_0/total_loss"
      op: "VariableV2"
      attr {
        key: "_output_shapes"
        value {
          list {
            shape {
            }
          }
        }
      }
      attr {
        key: "container"
        value {
          s: ""
        }
      }
      attr {
        key: "dtype"
        value {
          type: DT_FLOAT
        }
      }
      attr {
        key: "shape"
        value {
          shape {
          }
        }
      }
      attr {
        key: "shared_name"
        value {
          s: ""
        }
      }
    }
    node {
      name: "losses_avg/problem_0/total_loss/Assign"
      op: "Assign"
      input: "losses_avg/problem_0/total_loss"
      input: "losses_avg/problem_0/total_loss/initial_value"
      attr {
        key: "T"
        value {
          type: DT_FLOAT
        }
      }
      attr {
        key: "_class"
        value {
          list {
            s: "loc:@losses_avg/problem_0/total_loss"
          }
        }
      }
      attr {
        key: "_output_shapes"
        value {
          list {
            shape {
            }
          }
        }
      }
      attr {
        key: "use_locking"
        value {
          b: true
        }
      }
      attr {
        key: "validate_shape"
        value {
          b: true
        }
      }
    }
    node {
      name: "losses_avg/problem_0/total_loss/read"
      op: "Identity"
      input: "losses_avg/problem_0/total_loss"
      attr {
        key: "T"
        value {
          type: DT_FLOAT
        }
      }
      attr {
        key: "_class"
        value {
          list {
            s: "loc:@losses_avg/problem_0/total_loss"
          }
        }
      }
      attr {
        key: "_output_shapes"
        value {
          list {
            shape {
            }
          }
        }
      }
    }
    node {
      name: "losses_avg/problem_0/extra_loss/initial_value"
      op: "Const"
      attr {
        key: "_output_shapes"
        value {
          list {
            shape {
            }
          }
        }
      }
      attr {
        key: "dtype"
        value {
          type: DT_FLOAT
        }
      }
      attr {
        key: "value"
        value {
          tensor {
            dtype: DT_FLOAT
            tensor_shape {
            }
            float_val: 100.0
          }
        }
      }
    }
    node {
      name: "losses_avg/problem_0/extra_loss"
      op: "VariableV2"
      attr {
        key: "_output_shapes"
        value {
          list {
            shape {
            }
          }
        }
      }
      attr {
        key: "container"
        value {
          s: ""
        }
      }
      attr {
        key: "dtype"
        value {
          type: DT_FLOAT
        }
      }
      attr {
        key: "shape"
        value {
          shape {
          }
        }
      }
      attr {
        key: "shared_name"
        value {
          s: ""
        }
      }
    }
    node {
      name: "losses_avg/problem_0/extra_loss/Assign"
      op: "Assign"
      input: "losses_avg/problem_0/extra_loss"
      input: "losses_avg/problem_0/extra_loss/initial_value"
      attr {
        key: "T"
        value {
          type: DT_FLOAT
        }
      }
      attr {
        key: "_class"
        value {
          list {
            s: "loc:@losses_avg/problem_0/extra_loss"
          }
        }
      }
      attr {
        key: "_output_shapes"
        value {
          list {
            shape {
            }
          }
        }
      }
      attr {
        key: "use_locking"
        value {
          b: true
        }
      }
      attr {
        key: "validate_shape"
        value {
          b: true
        }
      }
    }
    node {
      name: "losses_avg/problem_0/extra_loss/read"
      op: "Identity"
      input: "losses_avg/problem_0/extra_loss"
      attr {
        key: "T"
        value {
          type: DT_FLOAT
        }
      }
      attr {
        key: "_class"
        value {
          list {
            s: "loc:@losses_avg/problem_0/extra_loss"
          }
        }
      }
      attr {
        key: "_output_shapes"
        value {
          list {
            shape {
            }
          }
        }
      }
    }
    node {
      name: "losses_avg/problem_0/training_loss/initial_value"
      op: "Const"
      attr {
        key: "_output_shapes"
        value {
          list {
            shape {
            }
          }
        }
      }
      attr {
        key: "dtype"
        value {
          type: DT_FLOAT
        }
      }
      attr {
        key: "value"
        value {
          tensor {
            dtype: DT_FLOAT
            tensor_shape {
            }
            float_val: 100.0
          }
        }
      }
    }
    node {
      name: "losses_avg/problem_0/training_loss"
      op: "VariableV2"
      attr {
        key: "_output_shapes"
        value {
          list {
            shape {
            }
          }
        }
      }
      attr {
        key: "container"
        value {
          s: ""
        }
      }
      attr {
        key: "dtype"
        value {
          type: DT_FLOAT
        }
      }
      attr {
        key: "shape"
        value {
          shape {
          }
        }
      }
      attr {
        key: "shared_name"
        value {
          s: ""
        }
      }
    }
    node {
      name: "losses_avg/problem_0/training_loss/Assign"
      op: "Assign"
      input: "losses_avg/problem_0/training_loss"
      input: "losses_avg/problem_0/training_loss/initial_value"
      attr {
        key: "T"
        value {
          type: DT_FLOAT
        }
      }
      attr {
        key: "_class"
        value {
          list {
            s: "loc:@losses_avg/problem_0/training_loss"
          }
        }
      }
      attr {
        key: "_output_shapes"
        value {
          list {
            shape {
            }
          }
        }
      }
      attr {
        key: "use_locking"
        value {
          b: true
        }
      }
      attr {
        key: "validate_shape"
        value {
          b: true
        }
      }
    }
    node {
      name: "losses_avg/problem_0/training_loss/read"
      op: "Identity"
      input: "losses_avg/problem_0/training_loss"
      attr {
        key: "T"
        value {
          type: DT_FLOAT
        }
      }
      attr {
        key: "_class"
        value {
          list {
            s: "loc:@losses_avg/problem_0/training_loss"
          }
        }
      }
      attr {
        key: "_output_shapes"
        value {
          list {
            shape {
            }
          }
        }
      }
    }
    node {
      name: "train_stats/problem_0_steps/initial_value"
      op: "Const"
      attr {
        key: "_output_shapes"
        value {
          list {
            shape {
            }
          }
        }
      }
      attr {
        key: "dtype"
        value {
          type: DT_INT32
        }
      }
      attr {
        key: "value"
        value {
          tensor {
            dtype: DT_INT32
            tensor_shape {
            }
            int_val: 0
          }
        }
      }
    }
    node {
      name: "train_stats/problem_0_steps"
      op: "VariableV2"
      attr {
        key: "_output_shapes"
        value {
          list {
            shape {
            }
          }
        }
      }
      attr {
        key: "container"
        value {
          s: ""
        }
      }
      attr {
        key: "dtype"
        value {
          type: DT_INT32
        }
      }
      attr {
        key: "shape"
        value {
          shape {
          }
        }
      }
      attr {
        key: "shared_name"
        value {
          s: ""
        }
      }
    }
    node {
      name: "train_stats/problem_0_steps/Assign"
      op: "Assign"
      input: "train_stats/problem_0_steps"
      input: "train_stats/problem_0_steps/initial_value"
      attr {
        key: "T"
        value {
          type: DT_INT32
        }
      }
      attr {
        key: "_class"
        value {
          list {
            s: "loc:@train_stats/problem_0_steps"
          }
        }
      }
      attr {
        key: "_output_shapes"
        value {
          list {
            shape {
            }
          }
        }
      }
      attr {
        key: "use_locking"
        value {
          b: true
        }
      }
      attr {
        key: "validate_shape"
        value {
          b: true
        }
      }
    }
    node {
      name: "train_stats/problem_0_steps/read"
      op: "Identity"
      input: "train_stats/problem_0_steps"
      attr {
        key: "T"
        value {
          type: DT_INT32
        }
      }
      attr {
        key: "_class"
        value {
          list {
            s: "loc:@train_stats/problem_0_steps"
          }
        }
      }
      attr {
        key: "_output_shapes"
        value {
          list {
            shape {
            }
          }
        }
      }
    }
    node {
      name: "target_space_id"
      op: "Const"
      attr {
        key: "_output_shapes"
        value {
          list {
            shape {
            }
          }
        }
      }
      attr {
        key: "dtype"
        value {
          type: DT_INT32
        }
      }
      attr {
        key: "value"
        value {
          tensor {
            dtype: DT_INT32
            tensor_shape {
            }
            int_val: 0
          }
        }
      }
    }
    node {
      name: "problem_choice"
      op: "Const"
      attr {
        key: "_output_shapes"
        value {
          list {
            shape {
            }
          }
        }
      }
      attr {
        key: "dtype"
        value {
          type: DT_INT32
        }
      }
      attr {
        key: "value"
        value {
          tensor {
            dtype: DT_INT32
            tensor_shape {
            }
            int_val: 0
          }
        }
      }
    }
    node {
      name: "input_space_id"
      op: "Const"
      attr {
        key: "_output_shapes"
        value {
          list {
            shape {
            }
          }
        }
      }
      attr {
        key: "dtype"
        value {
          type: DT_INT32
        }
      }
      attr {
        key: "value"
        value {
          tensor {
            dtype: DT_INT32
            tensor_shape {
            }
            int_val: 0
          }
        }
      }
    }
    node {
      name: "transformer/Shape"
      op: "Shape"
      input: "DatasetToSingleElement:1"
      attr {
        key: "T"
        value {
          type: DT_INT32
        }
      }
      attr {
        key: "_output_shapes"
        value {
          list {
            shape {
              dim {
                size: 4
              }
            }
          }
        }
      }
      attr {
        key: "out_type"
        value {
          type: DT_INT32
        }
      }
    }
    node {
      name: "transformer/strided_slice/stack"
      op: "Const"
      attr {
        key: "_output_shapes"
        value {
          list {
            shape {
              dim {
                size: 1
              }
            }
          }
        }
      }
      attr {
        key: "dtype"
        value {
          type: DT_INT32
        }
      }
      attr {
        key: "value"
        value {
          tensor {
            dtype: DT_INT32
            tensor_shape {
              dim {
                size: 1
              }
            }
            int_val: 0
          }
        }
      }
    }
    node {
      name: "transformer/strided_slice/stack_1"
      op: "Const"
      attr {
        key: "_output_shapes"
        value {
          list {
            shape {
              dim {
                size: 1
              }
            }
          }
        }
      }
      attr {
        key: "dtype"
        value {
          type: DT_INT32
        }
      }
      attr {
        key: "value"
        value {
          tensor {
            dtype: DT_INT32
            tensor_shape {
              dim {
                size: 1
              }
            }
            int_val: 1
          }
        }
      }
    }
    node {
      name: "transformer/strided_slice/stack_2"
      op: "Const"
      attr {
        key: "_output_shapes"
        value {
          list {
            shape {
              dim {
                size: 1
              }
            }
          }
        }
      }
      attr {
        key: "dtype"
        value {
          type: DT_INT32
        }
      }
      attr {
        key: "value"
        value {
          tensor {
            dtype: DT_INT32
            tensor_shape {
              dim {
                size: 1
              }
            }
            int_val: 1
          }
        }
      }
    }
    node {
      name: "transformer/strided_slice"
      op: "StridedSlice"
      input: "transformer/Shape"
      input: "transformer/strided_slice/stack"
      input: "transformer/strided_slice/stack_1"
      input: "transformer/strided_slice/stack_2"
      attr {
        key: "Index"
        value {
          type: DT_INT32
        }
      }
      attr {
        key: "T"
        value {
          type: DT_INT32
        }
      }
      attr {
        key: "_output_shapes"
        value {
          list {
            shape {
            }
          }
        }
      }
      attr {
        key: "begin_mask"
        value {
          i: 0
        }
      }
      attr {
        key: "ellipsis_mask"
        value {
          i: 0
        }
      }
      attr {
        key: "end_mask"
        value {
          i: 0
        }
      }
      attr {
        key: "new_axis_mask"
        value {
          i: 0
        }
      }
      attr {
        key: "shrink_axis_mask"
        value {
          i: 1
        }
      }
    }
    node {
      name: "transformer/strided_slice_1/stack"
      op: "Const"
      attr {
        key: "_output_shapes"
        value {
          list {
            shape {
              dim {
                size: 1
              }
            }
          }
        }
      }
      attr {
        key: "dtype"
        value {
          type: DT_INT32
        }
      }
      attr {
        key: "value"
        value {
          tensor {
            dtype: DT_INT32
            tensor_shape {
              dim {
                size: 1
              }
            }
            int_val: 1
          }
        }
      }
    }
    node {
      name: "transformer/strided_slice_1/stack_1"
      op: "Const"
      attr {
        key: "_output_shapes"
        value {
          list {
            shape {
              dim {
                size: 1
              }
            }
          }
        }
      }
      attr {
        key: "dtype"
        value {
          type: DT_INT32
        }
      }
      attr {
        key: "value"
        value {
          tensor {
            dtype: DT_INT32
            tensor_shape {
              dim {
                size: 1
              }
            }
            int_val: 2
          }
        }
      }
    }
    node {
      name: "transformer/strided_slice_1/stack_2"
      op: "Const"
      attr {
        key: "_output_shapes"
        value {
          list {
            shape {
              dim {
                size: 1
              }
            }
          }
        }
      }
      attr {
        key: "dtype"
        value {
          type: DT_INT32
        }
      }
      attr {
        key: "value"
        value {
          tensor {
            dtype: DT_INT32
            tensor_shape {
              dim {
                size: 1
              }
            }
            int_val: 1
          }
        }
      }
    }
    node {
      name: "transformer/strided_slice_1"
      op: "StridedSlice"
      input: "transformer/Shape"
      input: "transformer/strided_slice_1/stack"
      input: "transformer/strided_slice_1/stack_1"
      input: "transformer/strided_slice_1/stack_2"
      attr {
        key: "Index"
        value {
          type: DT_INT32
        }
      }
      attr {
        key: "T"
        value {
          type: DT_INT32
        }
      }
      attr {
        key: "_output_shapes"
        value {
          list {
            shape {
            }
          }
        }
      }
      attr {
        key: "begin_mask"
        value {
          i: 0
        }
      }
      attr {
        key: "ellipsis_mask"
        value {
          i: 0
        }
      }
      attr {
        key: "end_mask"
        value {
          i: 0
        }
      }
      attr {
        key: "new_axis_mask"
        value {
          i: 0
        }
      }
      attr {
        key: "shrink_axis_mask"
        value {
          i: 1
        }
      }
    }
    node {
      name: "transformer/add/y"
      op: "Const"
      attr {
        key: "_output_shapes"
        value {
          list {
            shape {
            }
          }
        }
      }
      attr {
        key: "dtype"
        value {
          type: DT_INT32
        }
      }
      attr {
        key: "value"
        value {
          tensor {
            dtype: DT_INT32
            tensor_shape {
            }
            int_val: 100
          }
        }
      }
    }
    node {
      name: "transformer/add"
      op: "Add"
      input: "transformer/strided_slice_1"
      input: "transformer/add/y"
      attr {
        key: "T"
        value {
          type: DT_INT32
        }
      }
      attr {
        key: "_output_shapes"
        value {
          list {
            shape {
            }
          }
        }
      }
    }
    node {
      name: "transformer/ExpandDims/dim"
      op: "Const"
      attr {
        key: "_output_shapes"
        value {
          list {
            shape {
            }
          }
        }
      }
      attr {
        key: "dtype"
        value {
          type: DT_INT32
        }
      }
      attr {
        key: "value"
        value {
          tensor {
            dtype: DT_INT32
            tensor_shape {
            }
            int_val: 1
          }
        }
      }
    }
    node {
      name: "transformer/ExpandDims"
      op: "ExpandDims"
      input: "DatasetToSingleElement:1"
      input: "transformer/ExpandDims/dim"
      attr {
        key: "T"
        value {
          type: DT_INT32
        }
      }
      attr {
        key: "Tdim"
        value {
          type: DT_INT32
        }
      }
      attr {
        key: "_output_shapes"
        value {
          list {
            shape {
              dim {
                size: -1
              }
              dim {
                size: 1
              }
              dim {
                size: -1
              }
              dim {
                size: 1
              }
              dim {
                size: 1
              }
            }
          }
        }
      }
    }
    node {
      name: "transformer/Shape_1"
      op: "Shape"
      input: "transformer/ExpandDims"
      attr {
        key: "T"
        value {
          type: DT_INT32
        }
      }
      attr {
        key: "_output_shapes"
        value {
          list {
            shape {
              dim {
                size: 5
              }
            }
          }
        }
      }
      attr {
        key: "out_type"
        value {
          type: DT_INT32
        }
      }
    }
    node {
      name: "transformer/strided_slice_2/stack"
      op: "Const"
      attr {
        key: "_output_shapes"
        value {
          list {
            shape {
              dim {
                size: 1
              }
            }
          }
        }
      }
      attr {
        key: "dtype"
        value {
          type: DT_INT32
        }
      }
      attr {
        key: "value"
        value {
          tensor {
            dtype: DT_INT32
            tensor_shape {
              dim {
                size: 1
              }
            }
            int_val: 0
          }
        }
      }
    }
    node {
      name: "transformer/strided_slice_2/stack_1"
      op: "Const"
      attr {
        key: "_output_shapes"
        value {
          list {
            shape {
              dim {
                size: 1
              }
            }
          }
        }
      }
      attr {
        key: "dtype"
        value {
          type: DT_INT32
        }
      }
      attr {
        key: "value"
        value {
          tensor {
            dtype: DT_INT32
            tensor_shape {
              dim {
                size: 1
              }
            }
            int_val: 1
          }
        }
      }
    }
    node {
      name: "transformer/strided_slice_2/stack_2"
      op: "Const"
      attr {
        key: "_output_shapes"
        value {
          list {
            shape {
              dim {
                size: 1
              }
            }
          }
        }
      }
      attr {
        key: "dtype"
        value {
          type: DT_INT32
        }
      }
      attr {
        key: "value"
        value {
          tensor {
            dtype: DT_INT32
            tensor_shape {
              dim {
                size: 1
              }
            }
            int_val: 1
          }
        }
      }
    }
    node {
      name: "transformer/strided_slice_2"
      op: "StridedSlice"
      input: "transformer/Shape_1"
      input: "transformer/strided_slice_2/stack"
      input: "transformer/strided_slice_2/stack_1"
      input: "transformer/strided_slice_2/stack_2"
      attr {
        key: "Index"
        value {
          type: DT_INT32
        }
      }
      attr {
        key: "T"
        value {
          type: DT_INT32
        }
      }
      attr {
        key: "_output_shapes"
        value {
          list {
            shape {
            }
          }
        }
      }
      attr {
        key: "begin_mask"
        value {
          i: 0
        }
      }
      attr {
        key: "ellipsis_mask"
        value {
          i: 0
        }
      }
      attr {
        key: "end_mask"
        value {
          i: 0
        }
      }
      attr {
        key: "new_axis_mask"
        value {
          i: 0
        }
      }
      attr {
        key: "shrink_axis_mask"
        value {
          i: 1
        }
      }
    }
    node {
      name: "transformer/strided_slice_3/stack"
      op: "Const"
      attr {
        key: "_output_shapes"
        value {
          list {
            shape {
              dim {
                size: 1
              }
            }
          }
        }
      }
      attr {
        key: "dtype"
        value {
          type: DT_INT32
        }
      }
      attr {
        key: "value"
        value {
          tensor {
            dtype: DT_INT32
            tensor_shape {
              dim {
                size: 1
              }
            }
            int_val: 2
          }
        }
      }
    }
    node {
      name: "transformer/strided_slice_3/stack_1"
      op: "Const"
      attr {
        key: "_output_shapes"
        value {
          list {
            shape {
              dim {
                size: 1
              }
            }
          }
        }
      }
      attr {
        key: "dtype"
        value {
          type: DT_INT32
        }
      }
      attr {
        key: "value"
        value {
          tensor {
            dtype: DT_INT32
            tensor_shape {
              dim {
                size: 1
              }
            }
            int_val: 3
          }
        }
      }
    }
    node {
      name: "transformer/strided_slice_3/stack_2"
      op: "Const"
      attr {
        key: "_output_shapes"
        value {
          list {
            shape {
              dim {
                size: 1
              }
            }
          }
        }
      }
      attr {
        key: "dtype"
        value {
          type: DT_INT32
        }
      }
      attr {
        key: "value"
        value {
          tensor {
            dtype: DT_INT32
            tensor_shape {
              dim {
                size: 1
              }
            }
            int_val: 1
          }
        }
      }
    }
    node {
      name: "transformer/strided_slice_3"
      op: "StridedSlice"
      input: "transformer/Shape_1"
      input: "transformer/strided_slice_3/stack"
      input: "transformer/strided_slice_3/stack_1"
      input: "transformer/strided_slice_3/stack_2"
      attr {
        key: "Index"
        value {
          type: DT_INT32
        }
      }
      attr {
        key: "T"
        value {
          type: DT_INT32
        }
      }
      attr {
        key: "_output_shapes"
        value {
          list {
            shape {
            }
          }
        }
      }
      attr {
        key: "begin_mask"
        value {
          i: 0
        }
      }
      attr {
        key: "ellipsis_mask"
        value {
          i: 0
        }
      }
      attr {
        key: "end_mask"
        value {
          i: 0
        }
      }
      attr {
        key: "new_axis_mask"
        value {
          i: 0
        }
      }
      attr {
        key: "shrink_axis_mask"
        value {
          i: 1
        }
      }
    }
    node {
      name: "transformer/mul/y"
      op: "Const"
      attr {
        key: "_output_shapes"
        value {
          list {
            shape {
            }
          }
        }
      }
      attr {
        key: "dtype"
        value {
          type: DT_INT32
        }
      }
      attr {
        key: "value"
        value {
          tensor {
            dtype: DT_INT32
            tensor_shape {
            }
            int_val: 1
          }
        }
      }
    }
    node {
      name: "transformer/mul"
      op: "Mul"
      input: "transformer/strided_slice_2"
      input: "transformer/mul/y"
      attr {
        key: "T"
        value {
          type: DT_INT32
        }
      }
      attr {
        key: "_output_shapes"
        value {
          list {
            shape {
            }
          }
        }
      }
    }
    node {
      name: "transformer/Reshape/shape/2"
      op: "Const"
      attr {
        key: "_output_shapes"
        value {
          list {
            shape {
            }
          }
        }
      }
      attr {
        key: "dtype"
        value {
          type: DT_INT32
        }
      }
      attr {
        key: "value"
        value {
          tensor {
            dtype: DT_INT32
            tensor_shape {
            }
            int_val: 1
          }
        }
      }
    }
    node {
      name: "transformer/Reshape/shape/3"
      op: "Const"
      attr {
        key: "_output_shapes"
        value {
          list {
            shape {
            }
          }
        }
      }
      attr {
        key: "dtype"
        value {
          type: DT_INT32
        }
      }
      attr {
        key: "value"
        value {
          tensor {
            dtype: DT_INT32
            tensor_shape {
            }
            int_val: 1
          }
        }
      }
    }
    node {
      name: "transformer/Reshape/shape"
      op: "Pack"
      input: "transformer/mul"
      input: "transformer/strided_slice_3"
      input: "transformer/Reshape/shape/2"
      input: "transformer/Reshape/shape/3"
      attr {
        key: "N"
        value {
          i: 4
        }
      }
      attr {
        key: "T"
        value {
          type: DT_INT32
        }
      }
      attr {
        key: "_output_shapes"
        value {
          list {
            shape {
              dim {
                size: 4
              }
            }
          }
        }
      }
      attr {
        key: "axis"
        value {
          i: 0
        }
      }
    }
    node {
      name: "transformer/Reshape"
      op: "Reshape"
      input: "transformer/ExpandDims"
      input: "transformer/Reshape/shape"
      attr {
        key: "T"
        value {
          type: DT_INT32
        }
      }
      attr {
        key: "Tshape"
        value {
          type: DT_INT32
        }
      }
      attr {
        key: "_output_shapes"
        value {
          list {
            shape {
              dim {
                size: -1
              }
              dim {
                size: -1
              }
              dim {
                size: 1
              }
              dim {
                size: 1
              }
            }
          }
        }
      }
    }
    node {
      name: "transformer/Shape_2"
      op: "Shape"
      input: "transformer/Reshape"
      attr {
        key: "T"
        value {
          type: DT_INT32
        }
      }
      attr {
        key: "_output_shapes"
        value {
          list {
            shape {
              dim {
                size: 4
              }
            }
          }
        }
      }
      attr {
        key: "out_type"
        value {
          type: DT_INT32
        }
      }
    }
    node {
      name: "transformer/strided_slice_4/stack"
      op: "Const"
      attr {
        key: "_output_shapes"
        value {
          list {
            shape {
              dim {
                size: 1
              }
            }
          }
        }
      }
      attr {
        key: "dtype"
        value {
          type: DT_INT32
        }
      }
      attr {
        key: "value"
        value {
          tensor {
            dtype: DT_INT32
            tensor_shape {
              dim {
                size: 1
              }
            }
            int_val: 0
          }
        }
      }
    }
    node {
      name: "transformer/strided_slice_4/stack_1"
      op: "Const"
      attr {
        key: "_output_shapes"
        value {
          list {
            shape {
              dim {
                size: 1
              }
            }
          }
        }
      }
      attr {
        key: "dtype"
        value {
          type: DT_INT32
        }
      }
      attr {
        key: "value"
        value {
          tensor {
            dtype: DT_INT32
            tensor_shape {
              dim {
                size: 1
              }
            }
            int_val: 1
          }
        }
      }
    }
    node {
      name: "transformer/strided_slice_4/stack_2"
      op: "Const"
      attr {
        key: "_output_shapes"
        value {
          list {
            shape {
              dim {
                size: 1
              }
            }
          }
        }
      }
      attr {
        key: "dtype"
        value {
          type: DT_INT32
        }
      }
      attr {
        key: "value"
        value {
          tensor {
            dtype: DT_INT32
            tensor_shape {
              dim {
                size: 1
              }
            }
            int_val: 1
          }
        }
      }
    }
    node {
      name: "transformer/strided_slice_4"
      op: "StridedSlice"
      input: "transformer/Shape_2"
      input: "transformer/strided_slice_4/stack"
      input: "transformer/strided_slice_4/stack_1"
      input: "transformer/strided_slice_4/stack_2"
      attr {
        key: "Index"
        value {
          type: DT_INT32
        }
      }
      attr {
        key: "T"
        value {
          type: DT_INT32
        }
      }
      attr {
        key: "_output_shapes"
        value {
          list {
            shape {
            }
          }
        }
      }
      attr {
        key: "begin_mask"
        value {
          i: 0
        }
      }
      attr {
        key: "ellipsis_mask"
        value {
          i: 0
        }
      }
      attr {
        key: "end_mask"
        value {
          i: 0
        }
      }
      attr {
        key: "new_axis_mask"
        value {
          i: 0
        }
      }
      attr {
        key: "shrink_axis_mask"
        value {
          i: 1
        }
      }
    }
    node {
      name: "transformer/strided_slice_5/stack"
      op: "Const"
      attr {
        key: "_output_shapes"
        value {
          list {
            shape {
              dim {
                size: 1
              }
            }
          }
        }
      }
      attr {
        key: "dtype"
        value {
          type: DT_INT32
        }
      }
      attr {
        key: "value"
        value {
          tensor {
            dtype: DT_INT32
            tensor_shape {
              dim {
                size: 1
              }
            }
            int_val: 1
          }
        }
      }
    }
    node {
      name: "transformer/strided_slice_5/stack_1"
      op: "Const"
      attr {
        key: "_output_shapes"
        value {
          list {
            shape {
              dim {
                size: 1
              }
            }
          }
        }
      }
      attr {
        key: "dtype"
        value {
          type: DT_INT32
        }
      }
      attr {
        key: "value"
        value {
          tensor {
            dtype: DT_INT32
            tensor_shape {
              dim {
                size: 1
              }
            }
            int_val: 2
          }
        }
      }
    }
    node {
      name: "transformer/strided_slice_5/stack_2"
      op: "Const"
      attr {
        key: "_output_shapes"
        value {
          list {
            shape {
              dim {
                size: 1
              }
            }
          }
        }
      }
      attr {
        key: "dtype"
        value {
          type: DT_INT32
        }
      }
      attr {
        key: "value"
        value {
          tensor {
            dtype: DT_INT32
            tensor_shape {
              dim {
                size: 1
              }
            }
            int_val: 1
          }
        }
      }
    }
    node {
      name: "transformer/strided_slice_5"
      op: "StridedSlice"
      input: "transformer/Shape_2"
      input: "transformer/strided_slice_5/stack"
      input: "transformer/strided_slice_5/stack_1"
      input: "transformer/strided_slice_5/stack_2"
      attr {
        key: "Index"
        value {
          type: DT_INT32
        }
      }
      attr {
        key: "T"
        value {
          type: DT_INT32
        }
      }
      attr {
        key: "_output_shapes"
        value {
          list {
            shape {
            }
          }
        }
      }
      attr {
        key: "begin_mask"
        value {
          i: 0
        }
      }
      attr {
        key: "ellipsis_mask"
        value {
          i: 0
        }
      }
      attr {
        key: "end_mask"
        value {
          i: 0
        }
      }
      attr {
        key: "new_axis_mask"
        value {
          i: 0
        }
      }
      attr {
        key: "shrink_axis_mask"
        value {
          i: 1
        }
      }
    }
    node {
      name: "transformer/Const"
      op: "Const"
      attr {
        key: "_output_shapes"
        value {
          list {
            shape {
            }
          }
        }
      }
      attr {
        key: "dtype"
        value {
          type: DT_INT32
        }
      }
      attr {
        key: "value"
        value {
          tensor {
            dtype: DT_INT32
            tensor_shape {
            }
            int_val: 1
          }
        }
      }
    }
    node {
      name: "transformer/split/split_dim"
      op: "Const"
      attr {
        key: "_output_shapes"
        value {
          list {
            shape {
            }
          }
        }
      }
      attr {
        key: "dtype"
        value {
          type: DT_INT32
        }
      }
      attr {
        key: "value"
        value {
          tensor {
            dtype: DT_INT32
            tensor_shape {
            }
            int_val: 0
          }
        }
      }
    }
    node {
      name: "transformer/split"
      op: "Split"
      input: "transformer/split/split_dim"
      input: "transformer/Reshape"
      attr {
        key: "T"
        value {
          type: DT_INT32
        }
      }
      attr {
        key: "_output_shapes"
        value {
          list {
            shape {
              dim {
                size: -1
              }
              dim {
                size: -1
              }
              dim {
                size: 1
              }
              dim {
                size: 1
              }
            }
          }
        }
      }
      attr {
        key: "num_split"
        value {
          i: 1
        }
      }
    }
    node {
      name: "transformer/parallel_0/transformer/Identity"
      op: "Identity"
      input: "transformer/split"
      attr {
        key: "T"
        value {
          type: DT_INT32
        }
      }
      attr {
        key: "_output_shapes"
        value {
          list {
            shape {
              dim {
                size: -1
              }
              dim {
                size: -1
              }
              dim {
                size: 1
              }
              dim {
                size: 1
              }
            }
          }
        }
      }
    }
    node {
      name: "transformer/symbol_modality_2857_256/parallel_0/symbol_modality_2857_256/shared/Squeeze"
      op: "Squeeze"
      input: "transformer/parallel_0/transformer/Identity"
      attr {
        key: "T"
        value {
          type: DT_INT32
        }
      }
      attr {
        key: "_output_shapes"
        value {
          list {
            shape {
              dim {
                size: -1
              }
              dim {
                size: -1
              }
              dim {
                size: 1
              }
            }
          }
        }
      }
      attr {
        key: "squeeze_dims"
        value {
          list {
            i: 3
          }
        }
      }
    }
    node {
      name: "transformer/symbol_modality_2857_256/shared/weights_0/Initializer/random_normal/shape"
      op: "Const"
      attr {
        key: "_class"
        value {
          list {
            s: "loc:@transformer/symbol_modality_2857_256/shared/weights_0"
          }
        }
      }
      attr {
        key: "_output_shapes"
        value {
          list {
            shape {
              dim {
                size: 2
              }
            }
          }
        }
      }
      attr {
        key: "dtype"
        value {
          type: DT_INT32
        }
      }
      attr {
        key: "value"
        value {
          tensor {
            dtype: DT_INT32
            tensor_shape {
              dim {
                size: 2
              }
            }
            tensor_content: "\263\000\000\000\000\001\000\000"
          }
        }
      }
    }
    node {
      name: "transformer/symbol_modality_2857_256/shared/weights_0/Initializer/random_normal/mean"
      op: "Const"
      attr {
        key: "_class"
        value {
          list {
            s: "loc:@transformer/symbol_modality_2857_256/shared/weights_0"
          }
        }
      }
      attr {
        key: "_output_shapes"
        value {
          list {
            shape {
            }
          }
        }
      }
      attr {
        key: "dtype"
        value {
          type: DT_FLOAT
        }
      }
      attr {
        key: "value"
        value {
          tensor {
            dtype: DT_FLOAT
            tensor_shape {
            }
            float_val: 0.0
          }
        }
      }
    }
    node {
      name: "transformer/symbol_modality_2857_256/shared/weights_0/Initializer/random_normal/stddev"
      op: "Const"
      attr {
        key: "_class"
        value {
          list {
            s: "loc:@transformer/symbol_modality_2857_256/shared/weights_0"
          }
        }
      }
      attr {
        key: "_output_shapes"
        value {
          list {
            shape {
            }
          }
        }
      }
      attr {
        key: "dtype"
        value {
          type: DT_FLOAT
        }
      }
      attr {
        key: "value"
        value {
          tensor {
            dtype: DT_FLOAT
            tensor_shape {
            }
            float_val: 0.0625
          }
        }
      }
    }
    node {
      name: "transformer/symbol_modality_2857_256/shared/weights_0/Initializer/random_normal/RandomStandardNormal"
      op: "RandomStandardNormal"
      input: "transformer/symbol_modality_2857_256/shared/weights_0/Initializer/random_normal/shape"
      attr {
        key: "T"
        value {
          type: DT_INT32
        }
      }
      attr {
        key: "_class"
        value {
          list {
            s: "loc:@transformer/symbol_modality_2857_256/shared/weights_0"
          }
        }
      }
      attr {
        key: "_output_shapes"
        value {
          list {
            shape {
              dim {
                size: 179
              }
              dim {
                size: 256
              }
            }
          }
        }
      }
      attr {
        key: "dtype"
        value {
          type: DT_FLOAT
        }
      }
      attr {
        key: "seed"
        value {
          i: 1234
        }
      }
      attr {
        key: "seed2"
        value {
          i: 84
        }
      }
    }
    node {
      name: "transformer/symbol_modality_2857_256/shared/weights_0/Initializer/random_normal/mul"
      op: "Mul"
      input: "transformer/symbol_modality_2857_256/shared/weights_0/Initializer/random_normal/RandomStandardNormal"
      input: "transformer/symbol_modality_2857_256/shared/weights_0/Initializer/random_normal/stddev"
      attr {
        key: "T"
        value {
          type: DT_FLOAT
        }
      }
      attr {
        key: "_class"
        value {
          list {
            s: "loc:@transformer/symbol_modality_2857_256/shared/weights_0"
          }
        }
      }
      attr {
        key: "_output_shapes"
        value {
          list {
            shape {
              dim {
                size: 179
              }
              dim {
                size: 256
              }
            }
          }
        }
      }
    }
    node {
      name: "transformer/symbol_modality_2857_256/shared/weights_0/Initializer/random_normal"
      op: "Add"
      input: "transformer/symbol_modality_2857_256/shared/weights_0/Initializer/random_normal/mul"
      input: "transformer/symbol_modality_2857_256/shared/weights_0/Initializer/random_normal/mean"
      attr {
        key: "T"
        value {
          type: DT_FLOAT
        }
      }
      attr {
        key: "_class"
        value {
          list {
            s: "loc:@transformer/symbol_modality_2857_256/shared/weights_0"
          }
        }
      }
      attr {
        key: "_output_shapes"
        value {
          list {
            shape {
              dim {
                size: 179
              }
              dim {
                size: 256
              }
            }
          }
        }
      }
    }
    node {
      name: "transformer/symbol_modality_2857_256/shared/weights_0"
      op: "VariableV2"
      attr {
        key: "_class"
        value {
          list {
            s: "loc:@transformer/symbol_modality_2857_256/shared/weights_0"
          }
        }
      }
      attr {
        key: "_output_shapes"
        value {
          list {
            shape {
              dim {
                size: 179
              }
              dim {
                size: 256
              }
            }
          }
        }
      }
      attr {
        key: "container"
        value {
          s: ""
        }
      }
      attr {
        key: "dtype"
        value {
          type: DT_FLOAT
        }
      }
      attr {
        key: "shape"
        value {
          shape {
            dim {
              size: 179
            }
            dim {
              size: 256
            }
          }
        }
      }
      attr {
        key: "shared_name"
        value {
          s: ""
        }
      }
    }
    node {
      name: "transformer/symbol_modality_2857_256/shared/weights_0/Assign"
      op: "Assign"
      input: "transformer/symbol_modality_2857_256/shared/weights_0"
      input: "transformer/symbol_modality_2857_256/shared/weights_0/Initializer/random_normal"
      attr {
        key: "T"
        value {
          type: DT_FLOAT
        }
      }
      attr {
        key: "_class"
        value {
          list {
            s: "loc:@transformer/symbol_modality_2857_256/shared/weights_0"
          }
        }
      }
      attr {
        key: "_output_shapes"
        value {
          list {
            shape {
              dim {
                size: 179
              }
              dim {
                size: 256
              }
            }
          }
        }
      }
      attr {
        key: "use_locking"
        value {
          b: true
        }
      }
      attr {
        key: "validate_shape"
        value {
          b: true
        }
      }
    }
    node {
      name: "transformer/symbol_modality_2857_256/shared/weights_0/read"
      op: "Identity"
      input: "transformer/symbol_modality_2857_256/shared/weights_0"
      attr {
        key: "T"
        value {
          type: DT_FLOAT
        }
      }
      attr {
        key: "_class"
        value {
          list {
            s: "loc:@transformer/symbol_modality_2857_256/shared/weights_0"
          }
        }
      }
      attr {
        key: "_output_shapes"
        value {
          list {
            shape {
              dim {
                size: 179
              }
              dim {
                size: 256
              }
            }
          }
        }
      }
    }
    node {
      name: "Identity"
      op: "Identity"
      input: "transformer/symbol_modality_2857_256/shared/weights_0"
      attr {
        key: "T"
        value {
          type: DT_FLOAT
        }
      }
      attr {
        key: "_output_shapes"
        value {
          list {
            shape {
              dim {
                size: 179
              }
              dim {
                size: 256
              }
            }
          }
        }
      }
    }
    node {
      name: "transformer/symbol_modality_2857_256/shared/weights_1/Initializer/random_normal/shape"
      op: "Const"
      attr {
        key: "_class"
        value {
          list {
            s: "loc:@transformer/symbol_modality_2857_256/shared/weights_1"
          }
        }
      }
      attr {
        key: "_output_shapes"
        value {
          list {
            shape {
              dim {
                size: 2
              }
            }
          }
        }
      }
      attr {
        key: "dtype"
        value {
          type: DT_INT32
        }
      }
      attr {
        key: "value"
        value {
          tensor {
            dtype: DT_INT32
            tensor_shape {
              dim {
                size: 2
              }
            }
            tensor_content: "\263\000\000\000\000\001\000\000"
          }
        }
      }
    }
    node {
      name: "transformer/symbol_modality_2857_256/shared/weights_1/Initializer/random_normal/mean"
      op: "Const"
      attr {
        key: "_class"
        value {
          list {
            s: "loc:@transformer/symbol_modality_2857_256/shared/weights_1"
          }
        }
      }
      attr {
        key: "_output_shapes"
        value {
          list {
            shape {
            }
          }
        }
      }
      attr {
        key: "dtype"
        value {
          type: DT_FLOAT
        }
      }
      attr {
        key: "value"
        value {
          tensor {
            dtype: DT_FLOAT
            tensor_shape {
            }
            float_val: 0.0
          }
        }
      }
    }
    node {
      name: "transformer/symbol_modality_2857_256/shared/weights_1/Initializer/random_normal/stddev"
      op: "Const"
      attr {
        key: "_class"
        value {
          list {
            s: "loc:@transformer/symbol_modality_2857_256/shared/weights_1"
          }
        }
      }
      attr {
        key: "_output_shapes"
        value {
          list {
            shape {
            }
          }
        }
      }
      attr {
        key: "dtype"
        value {
          type: DT_FLOAT
        }
      }
      attr {
        key: "value"
        value {
          tensor {
            dtype: DT_FLOAT
            tensor_shape {
            }
            float_val: 0.0625
          }
        }
      }
    }
    node {
      name: "transformer/symbol_modality_2857_256/shared/weights_1/Initializer/random_normal/RandomStandardNormal"
      op: "RandomStandardNormal"
      input: "transformer/symbol_modality_2857_256/shared/weights_1/Initializer/random_normal/shape"
      attr {
        key: "T"
        value {
          type: DT_INT32
        }
      }
      attr {
        key: "_class"
        value {
          list {
            s: "loc:@transformer/symbol_modality_2857_256/shared/weights_1"
          }
        }
      }
      attr {
        key: "_output_shapes"
        value {
          list {
            shape {
              dim {
                size: 179
              }
              dim {
                size: 256
              }
            }
          }
        }
      }
      attr {
        key: "dtype"
        value {
          type: DT_FLOAT
        }
      }
      attr {
        key: "seed"
        value {
          i: 1234
        }
      }
      attr {
        key: "seed2"
        value {
          i: 94
        }
      }
    }
    node {
      name: "transformer/symbol_modality_2857_256/shared/weights_1/Initializer/random_normal/mul"
      op: "Mul"
      input: "transformer/symbol_modality_2857_256/shared/weights_1/Initializer/random_normal/RandomStandardNormal"
      input: "transformer/symbol_modality_2857_256/shared/weights_1/Initializer/random_normal/stddev"
      attr {
        key: "T"
        value {
          type: DT_FLOAT
        }
      }
      attr {
        key: "_class"
        value {
          list {
            s: "loc:@transformer/symbol_modality_2857_256/shared/weights_1"
          }
        }
      }
      attr {
        key: "_output_shapes"
        value {
          list {
            shape {
              dim {
                size: 179
              }
              dim {
                size: 256
              }
            }
          }
        }
      }
    }
    node {
      name: "transformer/symbol_modality_2857_256/shared/weights_1/Initializer/random_normal"
      op: "Add"
      input: "transformer/symbol_modality_2857_256/shared/weights_1/Initializer/random_normal/mul"
      input: "transformer/symbol_modality_2857_256/shared/weights_1/Initializer/random_normal/mean"
      attr {
        key: "T"
        value {
          type: DT_FLOAT
        }
      }
      attr {
        key: "_class"
        value {
          list {
            s: "loc:@transformer/symbol_modality_2857_256/shared/weights_1"
          }
        }
      }
      attr {
        key: "_output_shapes"
        value {
          list {
            shape {
              dim {
                size: 179
              }
              dim {
                size: 256
              }
            }
          }
        }
      }
    }
    node {
      name: "transformer/symbol_modality_2857_256/shared/weights_1"
      op: "VariableV2"
      attr {
        key: "_class"
        value {
          list {
            s: "loc:@transformer/symbol_modality_2857_256/shared/weights_1"
          }
        }
      }
      attr {
        key: "_output_shapes"
        value {
          list {
            shape {
              dim {
                size: 179
              }
              dim {
                size: 256
              }
            }
          }
        }
      }
      attr {
        key: "container"
        value {
          s: ""
        }
      }
      attr {
        key: "dtype"
        value {
          type: DT_FLOAT
        }
      }
      attr {
        key: "shape"
        value {
          shape {
            dim {
              size: 179
            }
            dim {
              size: 256
            }
          }
        }
      }
      attr {
        key: "shared_name"
        value {
          s: ""
        }
      }
    }
    node {
      name: "transformer/symbol_modality_2857_256/shared/weights_1/Assign"
      op: "Assign"
      input: "transformer/symbol_modality_2857_256/shared/weights_1"
      input: "transformer/symbol_modality_2857_256/shared/weights_1/Initializer/random_normal"
      attr {
        key: "T"
        value {
          type: DT_FLOAT
        }
      }
      attr {
        key: "_class"
        value {
          list {
            s: "loc:@transformer/symbol_modality_2857_256/shared/weights_1"
          }
        }
      }
      attr {
        key: "_output_shapes"
        value {
          list {
            shape {
              dim {
                size: 179
              }
              dim {
                size: 256
              }
            }
          }
        }
      }
      attr {
        key: "use_locking"
        value {
          b: true
        }
      }
      attr {
        key: "validate_shape"
        value {
          b: true
        }
      }
    }
    node {
      name: "transformer/symbol_modality_2857_256/shared/weights_1/read"
      op: "Identity"
      input: "transformer/symbol_modality_2857_256/shared/weights_1"
      attr {
        key: "T"
        value {
          type: DT_FLOAT
        }
      }
      attr {
        key: "_class"
        value {
          list {
            s: "loc:@transformer/symbol_modality_2857_256/shared/weights_1"
          }
        }
      }
      attr {
        key: "_output_shapes"
        value {
          list {
            shape {
              dim {
                size: 179
              }
              dim {
                size: 256
              }
            }
          }
        }
      }
    }
    node {
      name: "Identity_1"
      op: "Identity"
      input: "transformer/symbol_modality_2857_256/shared/weights_1"
      attr {
        key: "T"
        value {
          type: DT_FLOAT
        }
      }
      attr {
        key: "_output_shapes"
        value {
          list {
            shape {
              dim {
                size: 179
              }
              dim {
                size: 256
              }
            }
          }
        }
      }
    }
    node {
      name: "transformer/symbol_modality_2857_256/shared/weights_2/Initializer/random_normal/shape"
      op: "Const"
      attr {
        key: "_class"
        value {
          list {
            s: "loc:@transformer/symbol_modality_2857_256/shared/weights_2"
          }
        }
      }
      attr {
        key: "_output_shapes"
        value {
          list {
            shape {
              dim {
                size: 2
              }
            }
          }
        }
      }
      attr {
        key: "dtype"
        value {
          type: DT_INT32
        }
      }
      attr {
        key: "value"
        value {
          tensor {
            dtype: DT_INT32
            tensor_shape {
              dim {
                size: 2
              }
            }
            tensor_content: "\263\000\000\000\000\001\000\000"
          }
        }
      }
    }
    node {
      name: "transformer/symbol_modality_2857_256/shared/weights_2/Initializer/random_normal/mean"
      op: "Const"
      attr {
        key: "_class"
        value {
          list {
            s: "loc:@transformer/symbol_modality_2857_256/shared/weights_2"
          }
        }
      }
      attr {
        key: "_output_shapes"
        value {
          list {
            shape {
            }
          }
        }
      }
      attr {
        key: "dtype"
        value {
          type: DT_FLOAT
        }
      }
      attr {
        key: "value"
        value {
          tensor {
            dtype: DT_FLOAT
            tensor_shape {
            }
            float_val: 0.0
          }
        }
      }
    }
    node {
      name: "transformer/symbol_modality_2857_256/shared/weights_2/Initializer/random_normal/stddev"
      op: "Const"
      attr {
        key: "_class"
        value {
          list {
            s: "loc:@transformer/symbol_modality_2857_256/shared/weights_2"
          }
        }
      }
      attr {
        key: "_output_shapes"
        value {
          list {
            shape {
            }
          }
        }
      }
      attr {
        key: "dtype"
        value {
          type: DT_FLOAT
        }
      }
      attr {
        key: "value"
        value {
          tensor {
            dtype: DT_FLOAT
            tensor_shape {
            }
            float_val: 0.0625
          }
        }
      }
    }
    node {
      name: "transformer/symbol_modality_2857_256/shared/weights_2/Initializer/random_normal/RandomStandardNormal"
      op: "RandomStandardNormal"
      input: "transformer/symbol_modality_2857_256/shared/weights_2/Initializer/random_normal/shape"
      attr {
        key: "T"
        value {
          type: DT_INT32
        }
      }
      attr {
        key: "_class"
        value {
          list {
            s: "loc:@transformer/symbol_modality_2857_256/shared/weights_2"
          }
        }
      }
      attr {
        key: "_output_shapes"
        value {
          list {
            shape {
              dim {
                size: 179
              }
              dim {
                size: 256
              }
            }
          }
        }
      }
      attr {
        key: "dtype"
        value {
          type: DT_FLOAT
        }
      }
      attr {
        key: "seed"
        value {
          i: 1234
        }
      }
      attr {
        key: "seed2"
        value {
          i: 104
        }
      }
    }
    node {
      name: "transformer/symbol_modality_2857_256/shared/weights_2/Initializer/random_normal/mul"
      op: "Mul"
      input: "transformer/symbol_modality_2857_256/shared/weights_2/Initializer/random_normal/RandomStandardNormal"
      input: "transformer/symbol_modality_2857_256/shared/weights_2/Initializer/random_normal/stddev"
      attr {
        key: "T"
        value {
          type: DT_FLOAT
        }
      }
      attr {
        key: "_class"
        value {
          list {
            s: "loc:@transformer/symbol_modality_2857_256/shared/weights_2"
          }
        }
      }
      attr {
        key: "_output_shapes"
        value {
          list {
            shape {
              dim {
                size: 179
              }
              dim {
                size: 256
              }
            }
          }
        }
      }
    }
    node {
      name: "transformer/symbol_modality_2857_256/shared/weights_2/Initializer/random_normal"
      op: "Add"
      input: "transformer/symbol_modality_2857_256/shared/weights_2/Initializer/random_normal/mul"
      input: "transformer/symbol_modality_2857_256/shared/weights_2/Initializer/random_normal/mean"
      attr {
        key: "T"
        value {
          type: DT_FLOAT
        }
      }
      attr {
        key: "_class"
        value {
          list {
            s: "loc:@transformer/symbol_modality_2857_256/shared/weights_2"
          }
        }
      }
      attr {
        key: "_output_shapes"
        value {
          list {
            shape {
              dim {
                size: 179
              }
              dim {
                size: 256
              }
            }
          }
        }
      }
    }
    node {
      name: "transformer/symbol_modality_2857_256/shared/weights_2"
      op: "VariableV2"
      attr {
        key: "_class"
        value {
          list {
            s: "loc:@transformer/symbol_modality_2857_256/shared/weights_2"
          }
        }
      }
      attr {
        key: "_output_shapes"
        value {
          list {
            shape {
              dim {
                size: 179
              }
              dim {
                size: 256
              }
            }
          }
        }
      }
      attr {
        key: "container"
        value {
          s: ""
        }
      }
      attr {
        key: "dtype"
        value {
          type: DT_FLOAT
        }
      }
      attr {
        key: "shape"
        value {
          shape {
            dim {
              size: 179
            }
            dim {
              size: 256
            }
          }
        }
      }
      attr {
        key: "shared_name"
        value {
          s: ""
        }
      }
    }
    node {
      name: "transformer/symbol_modality_2857_256/shared/weights_2/Assign"
      op: "Assign"
      input: "transformer/symbol_modality_2857_256/shared/weights_2"
      input: "transformer/symbol_modality_2857_256/shared/weights_2/Initializer/random_normal"
      attr {
        key: "T"
        value {
          type: DT_FLOAT
        }
      }
      attr {
        key: "_class"
        value {
          list {
            s: "loc:@transformer/symbol_modality_2857_256/shared/weights_2"
          }
        }
      }
      attr {
        key: "_output_shapes"
        value {
          list {
            shape {
              dim {
                size: 179
              }
              dim {
                size: 256
              }
            }
          }
        }
      }
      attr {
        key: "use_locking"
        value {
          b: true
        }
      }
      attr {
        key: "validate_shape"
        value {
          b: true
        }
      }
    }
    node {
      name: "transformer/symbol_modality_2857_256/shared/weights_2/read"
      op: "Identity"
      input: "transformer/symbol_modality_2857_256/shared/weights_2"
      attr {
        key: "T"
        value {
          type: DT_FLOAT
        }
      }
      attr {
        key: "_class"
        value {
          list {
            s: "loc:@transformer/symbol_modality_2857_256/shared/weights_2"
          }
        }
      }
      attr {
        key: "_output_shapes"
        value {
          list {
            shape {
              dim {
                size: 179
              }
              dim {
                size: 256
              }
            }
          }
        }
      }
    }
    node {
      name: "Identity_2"
      op: "Identity"
      input: "transformer/symbol_modality_2857_256/shared/weights_2"
      attr {
        key: "T"
        value {
          type: DT_FLOAT
        }
      }
      attr {
        key: "_output_shapes"
        value {
          list {
            shape {
              dim {
                size: 179
              }
              dim {
                size: 256
              }
            }
          }
        }
      }
    }
    node {
      name: "transformer/symbol_modality_2857_256/shared/weights_3/Initializer/random_normal/shape"
      op: "Const"
      attr {
        key: "_class"
        value {
          list {
            s: "loc:@transformer/symbol_modality_2857_256/shared/weights_3"
          }
        }
      }
      attr {
        key: "_output_shapes"
        value {
          list {
            shape {
              dim {
                size: 2
              }
            }
          }
        }
      }
      attr {
        key: "dtype"
        value {
          type: DT_INT32
        }
      }
      attr {
        key: "value"
        value {
          tensor {
            dtype: DT_INT32
            tensor_shape {
              dim {
                size: 2
              }
            }
            tensor_content: "\263\000\000\000\000\001\000\000"
          }
        }
      }
    }
    node {
      name: "transformer/symbol_modality_2857_256/shared/weights_3/Initializer/random_normal/mean"
      op: "Const"
      attr {
        key: "_class"
        value {
          list {
            s: "loc:@transformer/symbol_modality_2857_256/shared/weights_3"
          }
        }
      }
      attr {
        key: "_output_shapes"
        value {
          list {
            shape {
            }
          }
        }
      }
      attr {
        key: "dtype"
        value {
          type: DT_FLOAT
        }
      }
      attr {
        key: "value"
        value {
          tensor {
            dtype: DT_FLOAT
            tensor_shape {
            }
            float_val: 0.0
          }
        }
      }
    }
    node {
      name: "transformer/symbol_modality_2857_256/shared/weights_3/Initializer/random_normal/stddev"
      op: "Const"
      attr {
        key: "_class"
        value {
          list {
            s: "loc:@transformer/symbol_modality_2857_256/shared/weights_3"
          }
        }
      }
      attr {
        key: "_output_shapes"
        value {
          list {
            shape {
            }
          }
        }
      }
      attr {
        key: "dtype"
        value {
          type: DT_FLOAT
        }
      }
      attr {
        key: "value"
        value {
          tensor {
            dtype: DT_FLOAT
            tensor_shape {
            }
            float_val: 0.0625
          }
        }
      }
    }
    node {
      name: "transformer/symbol_modality_2857_256/shared/weights_3/Initializer/random_normal/RandomStandardNormal"
      op: "RandomStandardNormal"
      input: "transformer/symbol_modality_2857_256/shared/weights_3/Initializer/random_normal/shape"
      attr {
        key: "T"
        value {
          type: DT_INT32
        }
      }
      attr {
        key: "_class"
        value {
          list {
            s: "loc:@transformer/symbol_modality_2857_256/shared/weights_3"
          }
        }
      }
      attr {
        key: "_output_shapes"
        value {
          list {
            shape {
              dim {
                size: 179
              }
              dim {
                size: 256
              }
            }
          }
        }
      }
      attr {
        key: "dtype"
        value {
          type: DT_FLOAT
        }
      }
      attr {
        key: "seed"
        value {
          i: 1234
        }
      }
      attr {
        key: "seed2"
        value {
          i: 114
        }
      }
    }
    node {
      name: "transformer/symbol_modality_2857_256/shared/weights_3/Initializer/random_normal/mul"
      op: "Mul"
      input: "transformer/symbol_modality_2857_256/shared/weights_3/Initializer/random_normal/RandomStandardNormal"
      input: "transformer/symbol_modality_2857_256/shared/weights_3/Initializer/random_normal/stddev"
      attr {
        key: "T"
        value {
          type: DT_FLOAT
        }
      }
      attr {
        key: "_class"
        value {
          list {
            s: "loc:@transformer/symbol_modality_2857_256/shared/weights_3"
          }
        }
      }
      attr {
        key: "_output_shapes"
        value {
          list {
            shape {
              dim {
                size: 179
              }
              dim {
                size: 256
              }
            }
          }
        }
      }
    }
    node {
      name: "transformer/symbol_modality_2857_256/shared/weights_3/Initializer/random_normal"
      op: "Add"
      input: "transformer/symbol_modality_2857_256/shared/weights_3/Initializer/random_normal/mul"
      input: "transformer/symbol_modality_2857_256/shared/weights_3/Initializer/random_normal/mean"
      attr {
        key: "T"
        value {
          type: DT_FLOAT
        }
      }
      attr {
        key: "_class"
        value {
          list {
            s: "loc:@transformer/symbol_modality_2857_256/shared/weights_3"
          }
        }
      }
      attr {
        key: "_output_shapes"
        value {
          list {
            shape {
              dim {
                size: 179
              }
              dim {
                size: 256
              }
            }
          }
        }
      }
    }
    node {
      name: "transformer/symbol_modality_2857_256/shared/weights_3"
      op: "VariableV2"
      attr {
        key: "_class"
        value {
          list {
            s: "loc:@transformer/symbol_modality_2857_256/shared/weights_3"
          }
        }
      }
      attr {
        key: "_output_shapes"
        value {
          list {
            shape {
              dim {
                size: 179
              }
              dim {
                size: 256
              }
            }
          }
        }
      }
      attr {
        key: "container"
        value {
          s: ""
        }
      }
      attr {
        key: "dtype"
        value {
          type: DT_FLOAT
        }
      }
      attr {
        key: "shape"
        value {
          shape {
            dim {
              size: 179
            }
            dim {
              size: 256
            }
          }
        }
      }
      attr {
        key: "shared_name"
        value {
          s: ""
        }
      }
    }
    node {
      name: "transformer/symbol_modality_2857_256/shared/weights_3/Assign"
      op: "Assign"
      input: "transformer/symbol_modality_2857_256/shared/weights_3"
      input: "transformer/symbol_modality_2857_256/shared/weights_3/Initializer/random_normal"
      attr {
        key: "T"
        value {
          type: DT_FLOAT
        }
      }
      attr {
        key: "_class"
        value {
          list {
            s: "loc:@transformer/symbol_modality_2857_256/shared/weights_3"
          }
        }
      }
      attr {
        key: "_output_shapes"
        value {
          list {
            shape {
              dim {
                size: 179
              }
              dim {
                size: 256
              }
            }
          }
        }
      }
      attr {
        key: "use_locking"
        value {
          b: true
        }
      }
      attr {
        key: "validate_shape"
        value {
          b: true
        }
      }
    }
    node {
      name: "transformer/symbol_modality_2857_256/shared/weights_3/read"
      op: "Identity"
      input: "transformer/symbol_modality_2857_256/shared/weights_3"
      attr {
        key: "T"
        value {
          type: DT_FLOAT
        }
      }
      attr {
        key: "_class"
        value {
          list {
            s: "loc:@transformer/symbol_modality_2857_256/shared/weights_3"
          }
        }
      }
      attr {
        key: "_output_shapes"
        value {
          list {
            shape {
              dim {
                size: 179
              }
              dim {
                size: 256
              }
            }
          }
        }
      }
    }
    node {
      name: "Identity_3"
      op: "Identity"
      input: "transformer/symbol_modality_2857_256/shared/weights_3"
      attr {
        key: "T"
        value {
          type: DT_FLOAT
        }
      }
      attr {
        key: "_output_shapes"
        value {
          list {
            shape {
              dim {
                size: 179
              }
              dim {
                size: 256
              }
            }
          }
        }
      }
    }
    node {
      name: "transformer/symbol_modality_2857_256/shared/weights_4/Initializer/random_normal/shape"
      op: "Const"
      attr {
        key: "_class"
        value {
          list {
            s: "loc:@transformer/symbol_modality_2857_256/shared/weights_4"
          }
        }
      }
      attr {
        key: "_output_shapes"
        value {
          list {
            shape {
              dim {
                size: 2
              }
            }
          }
        }
      }
      attr {
        key: "dtype"
        value {
          type: DT_INT32
        }
      }
      attr {
        key: "value"
        value {
          tensor {
            dtype: DT_INT32
            tensor_shape {
              dim {
                size: 2
              }
            }
            tensor_content: "\263\000\000\000\000\001\000\000"
          }
        }
      }
    }
    node {
      name: "transformer/symbol_modality_2857_256/shared/weights_4/Initializer/random_normal/mean"
      op: "Const"
      attr {
        key: "_class"
        value {
          list {
            s: "loc:@transformer/symbol_modality_2857_256/shared/weights_4"
          }
        }
      }
      attr {
        key: "_output_shapes"
        value {
          list {
            shape {
            }
          }
        }
      }
      attr {
        key: "dtype"
        value {
          type: DT_FLOAT
        }
      }
      attr {
        key: "value"
        value {
          tensor {
            dtype: DT_FLOAT
            tensor_shape {
            }
            float_val: 0.0
          }
        }
      }
    }
    node {
      name: "transformer/symbol_modality_2857_256/shared/weights_4/Initializer/random_normal/stddev"
      op: "Const"
      attr {
        key: "_class"
        value {
          list {
            s: "loc:@transformer/symbol_modality_2857_256/shared/weights_4"
          }
        }
      }
      attr {
        key: "_output_shapes"
        value {
          list {
            shape {
            }
          }
        }
      }
      attr {
        key: "dtype"
        value {
          type: DT_FLOAT
        }
      }
      attr {
        key: "value"
        value {
          tensor {
            dtype: DT_FLOAT
            tensor_shape {
            }
            float_val: 0.0625
          }
        }
      }
    }
    node {
      name: "transformer/symbol_modality_2857_256/shared/weights_4/Initializer/random_normal/RandomStandardNormal"
      op: "RandomStandardNormal"
      input: "transformer/symbol_modality_2857_256/shared/weights_4/Initializer/random_normal/shape"
      attr {
        key: "T"
        value {
          type: DT_INT32
        }
      }
      attr {
        key: "_class"
        value {
          list {
            s: "loc:@transformer/symbol_modality_2857_256/shared/weights_4"
          }
        }
      }
      attr {
        key: "_output_shapes"
        value {
          list {
            shape {
              dim {
                size: 179
              }
              dim {
                size: 256
              }
            }
          }
        }
      }
      attr {
        key: "dtype"
        value {
          type: DT_FLOAT
        }
      }
      attr {
        key: "seed"
        value {
          i: 1234
        }
      }
      attr {
        key: "seed2"
        value {
          i: 124
        }
      }
    }
    node {
      name: "transformer/symbol_modality_2857_256/shared/weights_4/Initializer/random_normal/mul"
      op: "Mul"
      input: "transformer/symbol_modality_2857_256/shared/weights_4/Initializer/random_normal/RandomStandardNormal"
      input: "transformer/symbol_modality_2857_256/shared/weights_4/Initializer/random_normal/stddev"
      attr {
        key: "T"
        value {
          type: DT_FLOAT
        }
      }
      attr {
        key: "_class"
        value {
          list {
            s: "loc:@transformer/symbol_modality_2857_256/shared/weights_4"
          }
        }
      }
      attr {
        key: "_output_shapes"
        value {
          list {
            shape {
              dim {
                size: 179
              }
              dim {
                size: 256
              }
            }
          }
        }
      }
    }
    node {
      name: "transformer/symbol_modality_2857_256/shared/weights_4/Initializer/random_normal"
      op: "Add"
      input: "transformer/symbol_modality_2857_256/shared/weights_4/Initializer/random_normal/mul"
      input: "transformer/symbol_modality_2857_256/shared/weights_4/Initializer/random_normal/mean"
      attr {
        key: "T"
        value {
          type: DT_FLOAT
        }
      }
      attr {
        key: "_class"
        value {
          list {
            s: "loc:@transformer/symbol_modality_2857_256/shared/weights_4"
          }
        }
      }
      attr {
        key: "_output_shapes"
        value {
          list {
            shape {
              dim {
                size: 179
              }
              dim {
                size: 256
              }
            }
          }
        }
      }
    }
    node {
      name: "transformer/symbol_modality_2857_256/shared/weights_4"
      op: "VariableV2"
      attr {
        key: "_class"
        value {
          list {
            s: "loc:@transformer/symbol_modality_2857_256/shared/weights_4"
          }
        }
      }
      attr {
        key: "_output_shapes"
        value {
          list {
            shape {
              dim {
                size: 179
              }
              dim {
                size: 256
              }
            }
          }
        }
      }
      attr {
        key: "container"
        value {
          s: ""
        }
      }
      attr {
        key: "dtype"
        value {
          type: DT_FLOAT
        }
      }
      attr {
        key: "shape"
        value {
          shape {
            dim {
              size: 179
            }
            dim {
              size: 256
            }
          }
        }
      }
      attr {
        key: "shared_name"
        value {
          s: ""
        }
      }
    }
    node {
…
ttention/multihead_attention/k/Tensordot/Gather:0\nptransformer/while/body/parallel_0/body/decoder/layer_1/self_attention/multihead_attention/k/Tensordot/Gather_1:0\nvtransformer/while/body/parallel_0/body/decoder/layer_1/self_attention/multihead_attention/k/Tensordot/GreaterEqual/y:0\nttransformer/while/body/parallel_0/body/decoder/layer_1/self_attention/multihead_attention/k/Tensordot/GreaterEqual:0\nntransformer/while/body/parallel_0/body/decoder/layer_1/self_attention/multihead_attention/k/Tensordot/Less/y:0\nltransformer/while/body/parallel_0/body/decoder/layer_1/self_attention/multihead_attention/k/Tensordot/Less:0\nptransformer/while/body/parallel_0/body/decoder/layer_1/self_attention/multihead_attention/k/Tensordot/ListDiff:0\nptransformer/while/body/parallel_0/body/decoder/layer_1/self_attention/multihead_attention/k/Tensordot/ListDiff:1\nntransformer/while/body/parallel_0/body/decoder/layer_1/self_attention/multihead_attention/k/Tensordot/MatMul:0\nltransformer/while/body/parallel_0/body/decoder/layer_1/self_attention/multihead_attention/k/Tensordot/Prod:0\nntransformer/while/body/parallel_0/body/decoder/layer_1/self_attention/multihead_attention/k/Tensordot/Prod_1:0\nltransformer/while/body/parallel_0/body/decoder/layer_1/self_attention/multihead_attention/k/Tensordot/Rank:0\notransformer/while/body/parallel_0/body/decoder/layer_1/self_attention/multihead_attention/k/Tensordot/Reshape:0\nwtransformer/while/body/parallel_0/body/decoder/layer_1/self_attention/multihead_attention/k/Tensordot/Reshape_1/shape:0\nqtransformer/while/body/parallel_0/body/decoder/layer_1/self_attention/multihead_attention/k/Tensordot/Reshape_1:0\nmtransformer/while/body/parallel_0/body/decoder/layer_1/self_attention/multihead_attention/k/Tensordot/Shape:0\nktransformer/while/body/parallel_0/body/decoder/layer_1/self_attention/multihead_attention/k/Tensordot/add:0\nmtransformer/while/body/parallel_0/body/decoder/layer_1/self_attention/multihead_attention/k/Tensordot/add_1:0\nltransformer/while/body/parallel_0/body/decoder/layer_1/self_attention/multihead_attention/k/Tensordot/axes:0\nstransformer/while/body/parallel_0/body/decoder/layer_1/self_attention/multihead_attention/k/Tensordot/concat/axis:0\nntransformer/while/body/parallel_0/body/decoder/layer_1/self_attention/multihead_attention/k/Tensordot/concat:0\nutransformer/while/body/parallel_0/body/decoder/layer_1/self_attention/multihead_attention/k/Tensordot/concat_1/axis:0\nptransformer/while/body/parallel_0/body/decoder/layer_1/self_attention/multihead_attention/k/Tensordot/concat_1:0\nutransformer/while/body/parallel_0/body/decoder/layer_1/self_attention/multihead_attention/k/Tensordot/concat_2/axis:0\nptransformer/while/body/parallel_0/body/decoder/layer_1/self_attention/multihead_attention/k/Tensordot/concat_2:0\nktransformer/while/body/parallel_0/body/decoder/layer_1/self_attention/multihead_attention/k/Tensordot/mul:0\nmtransformer/while/body/parallel_0/body/decoder/layer_1/self_attention/multihead_attention/k/Tensordot/mul_1:0\nstransformer/while/body/parallel_0/body/decoder/layer_1/self_attention/multihead_attention/k/Tensordot/range/delta:0\nstransformer/while/body/parallel_0/body/decoder/layer_1/self_attention/multihead_attention/k/Tensordot/range/start:0\nmtransformer/while/body/parallel_0/body/decoder/layer_1/self_attention/multihead_attention/k/Tensordot/range:0\nmtransformer/while/body/parallel_0/body/decoder/layer_1/self_attention/multihead_attention/k/Tensordot/stack:0\nqtransformer/while/body/parallel_0/body/decoder/layer_1/self_attention/multihead_attention/k/Tensordot/transpose:0\nxtransformer/while/body/parallel_0/body/decoder/layer_1/self_attention/multihead_attention/k/Tensordot/transpose_1/perm:0\nstransformer/while/body/parallel_0/body/decoder/layer_1/self_attention/multihead_attention/k/Tensordot/transpose_1:0\ngtransformer/while/body/parallel_0/body/decoder/layer_1/self_attention/multihead_attention/k/Tensordot:0\natransformer/while/body/parallel_0/body/decoder/layer_1/self_attention/multihead_attention/mul/y:0\n_transformer/while/body/parallel_0/body/decoder/layer_1/self_attention/multihead_attention/mul:0\n{transformer/while/body/parallel_0/body/decoder/layer_1/self_attention/multihead_attention/output_transform/Tensordot/Cast:0\n}transformer/while/body/parallel_0/body/decoder/layer_1/self_attention/multihead_attention/output_transform/Tensordot/Cast_1:0\n|transformer/while/body/parallel_0/body/decoder/layer_1/self_attention/multihead_attention/output_transform/Tensordot/Const:0\n~transformer/while/body/parallel_0/body/decoder/layer_1/self_attention/multihead_attention/output_transform/Tensordot/Const_1:0\n~transformer/while/body/parallel_0/body/decoder/layer_1/self_attention/multihead_attention/output_transform/Tensordot/Const_2:0\n}transformer/while/body/parallel_0/body/decoder/layer_1/self_attention/multihead_attention/output_transform/Tensordot/Gather:0\n\177transformer/while/body/parallel_0/body/decoder/layer_1/self_attention/multihead_attention/output_transform/Tensordot/Gather_1:0\n\205\001transformer/while/body/parallel_0/body/decoder/layer_1/self_attention/multihead_attention/output_transform/Tensordot/GreaterEqual/y:0\n\203\001transformer/while/body/parallel_0/body/decoder/layer_1/self_attention/multihead_attention/output_transform/Tensordot/GreaterEqual:0\n}transformer/while/body/parallel_0/body/decoder/layer_1/self_attention/multihead_attention/output_transform/Tensordot/Less/y:0\n{transformer/while/body/parallel_0/body/decoder/layer_1/self_attention/multihead_attention/output_transform/Tensordot/Less:0\n\177transformer/while/body/parallel_0/body/decoder/layer_1/self_attention/multihead_attention/output_transform/Tensordot/ListDiff:0\n\177transformer/while/body/parallel_0/body/decoder/layer_1/self_attention/multihead_attention/output_transform/Tensordot/ListDiff:1\n}transformer/while/body/parallel_0/body/decoder/layer_1/self_attention/multihead_attention/output_transform/Tensordot/MatMul:0\n{transformer/while/body/parallel_0/body/decoder/layer_1/self_attention/multihead_attention/output_transform/Tensordot/Prod:0\n}transformer/while/body/parallel_0/body/decoder/layer_1/self_attention/multihead_attention/output_transform/Tensordot/Prod_1:0\n{transformer/while/body/parallel_0/body/decoder/layer_1/self_attention/multihead_attention/output_transform/Tensordot/Rank:0\n~transformer/while/body/parallel_0/body/decoder/layer_1/self_attention/multihead_attention/output_transform/Tensordot/Reshape:0\n\206\001transformer/while/body/parallel_0/body/decoder/layer_1/self_attention/multihead_attention/output_transform/Tensordot/Reshape_1/shape:0\n\200\001transformer/while/body/parallel_0/body/decoder/layer_1/self_attention/multihead_attention/output_transform/Tensordot/Reshape_1:0\n|transformer/while/body/parallel_0/body/decoder/layer_1/self_attention/multihead_attention/output_transform/Tensordot/Shape:0\nztransformer/while/body/parallel_0/body/decoder/layer_1/self_attention/multihead_attention/output_transform/Tensordot/add:0\n|transformer/while/body/parallel_0/body/decoder/layer_1/self_attention/multihead_attention/output_transform/Tensordot/add_1:0\n{transformer/while/body/parallel_0/body/decoder/layer_1/self_attention/multihead_attention/output_transform/Tensordot/axes:0\n\202\001transformer/while/body/parallel_0/body/decoder/layer_1/self_attention/multihead_attention/output_transform/Tensordot/concat/axis:0\n}transformer/while/body/parallel_0/body/decoder/layer_1/self_attention/multihead_attention/output_transform/Tensordot/concat:0\n\204\001transformer/while/body/parallel_0/body/decoder/layer_1/self_attention/multihead_attention/output_transform/Tensordot/concat_1/axis:0\n\177transformer/while/body/parallel_0/body/decoder/layer_1/self_attention/multihead_attention/output_transform/Tensordot/concat_1:0\n\204\001transformer/while/body/parallel_0/body/decoder/layer_1/self_attention/multihead_attention/output_transform/Tensordot/concat_2/axis:0\n\177transformer/while/body/parallel_0/body/decoder/layer_1/self_attention/multihead_attention/output_transform/Tensordot/concat_2:0\nztransformer/while/body/parallel_0/body/decoder/layer_1/self_attention/multihead_attention/output_transform/Tensordot/mul:0\n|transformer/while/body/parallel_0/body/decoder/layer_1/self_attention/multihead_attention/output_transform/Tensordot/mul_1:0\n\202\001transformer/while/body/parallel_0/body/decoder/layer_1/self_attention/multihead_attention/output_transform/Tensordot/range/delta:0\n\202\001transformer/while/body/parallel_0/body/decoder/layer_1/self_attention/multihead_attention/output_transform/Tensordot/range/start:0\n|transformer/while/body/parallel_0/body/decoder/layer_1/self_attention/multihead_attention/output_transform/Tensordot/range:0\n|transformer/while/body/parallel_0/body/decoder/layer_1/self_attention/multihead_attention/output_transform/Tensordot/stack:0\n\200\001transformer/while/body/parallel_0/body/decoder/layer_1/self_attention/multihead_attention/output_transform/Tensordot/transpose:0\n\207\001transformer/while/body/parallel_0/body/decoder/layer_1/self_attention/multihead_attention/output_transform/Tensordot/transpose_1/perm:0\n\202\001transformer/while/body/parallel_0/body/decoder/layer_1/self_attention/multihead_attention/output_transform/Tensordot/transpose_1:0\nvtransformer/while/body/parallel_0/body/decoder/layer_1/self_attention/multihead_attention/output_transform/Tensordot:0\nltransformer/while/body/parallel_0/body/decoder/layer_1/self_attention/multihead_attention/q/Tensordot/Cast:0\nntransformer/while/body/parallel_0/body/decoder/layer_1/self_attention/multihead_attention/q/Tensordot/Cast_1:0\nmtransformer/while/body/parallel_0/body/decoder/layer_1/self_attention/multihead_attention/q/Tensordot/Const:0\notransformer/while/body/parallel_0/body/decoder/layer_1/self_attention/multihead_attention/q/Tensordot/Const_1:0\notransformer/while/body/parallel_0/body/decoder/layer_1/self_attention/multihead_attention/q/Tensordot/Const_2:0\nntransformer/while/body/parallel_0/body/decoder/layer_1/self_attention/multihead_attention/q/Tensordot/Gather:0\nptransformer/while/body/parallel_0/body/decoder/layer_1/self_attention/multihead_attention/q/Tensordot/Gather_1:0\nvtransformer/while/body/parallel_0/body/decoder/layer_1/self_attention/multihead_attention/q/Tensordot/GreaterEqual/y:0\nttransformer/while/body/parallel_0/body/decoder/layer_1/self_attention/multihead_attention/q/Tensordot/GreaterEqual:0\nntransformer/while/body/parallel_0/body/decoder/layer_1/self_attention/multihead_attention/q/Tensordot/Less/y:0\nltransformer/while/body/parallel_0/body/decoder/layer_1/self_attention/multihead_attention/q/Tensordot/Less:0\nptransformer/while/body/parallel_0/body/decoder/layer_1/self_attention/multihead_attention/q/Tensordot/ListDiff:0\nptransformer/while/body/parallel_0/body/decoder/layer_1/self_attention/multihead_attention/q/Tensordot/ListDiff:1\nntransformer/while/body/parallel_0/body/decoder/layer_1/self_attention/multihead_attention/q/Tensordot/MatMul:0\nltransformer/while/body/parallel_0/body/decoder/layer_1/self_attention/multihead_attention/q/Tensordot/Prod:0\nntransformer/while/body/parallel_0/body/decoder/layer_1/self_attention/multihead_attention/q/Tensordot/Prod_1:0\nltransformer/while/body/parallel_0/body/decoder/layer_1/self_attention/multihead_attention/q/Tensordot/Rank:0\notransformer/while/body/parallel_0/body/decoder/layer_1/self_attention/multihead_attention/q/Tensordot/Reshape:0\nwtransformer/while/body/parallel_0/body/decoder/layer_1/self_attention/multihead_attention/q/Tensordot/Reshape_1/shape:0\nqtransformer/while/body/parallel_0/body/decoder/layer_1/self_attention/multihead_attention/q/Tensordot/Reshape_1:0\nmtransformer/while/body/parallel_0/body/decoder/layer_1/self_attention/multihead_attention/q/Tensordot/Shape:0\nktransformer/while/body/parallel_0/body/decoder/layer_1/self_attention/multihead_attention/q/Tensordot/add:0\nmtransformer/while/body/parallel_0/body/decoder/layer_1/self_attention/multihead_attention/q/Tensordot/add_1:0\nltransformer/while/body/parallel_0/body/decoder/layer_1/self_attention/multihead_attention/q/Tensordot/axes:0\nstransformer/while/body/parallel_0/body/decoder/layer_1/self_attention/multihead_attention/q/Tensordot/concat/axis:0\nntransformer/while/body/parallel_0/body/decoder/layer_1/self_attention/multihead_attention/q/Tensordot/concat:0\nutransformer/while/body/parallel_0/body/decoder/layer_1/self_attention/multihead_attention/q/Tensordot/concat_1/axis:0\nptransformer/while/body/parallel_0/body/decoder/layer_1/self_attention/multihead_attention/q/Tensordot/concat_1:0\nutransformer/while/body/parallel_0/body/decoder/layer_1/self_attention/multihead_attention/q/Tensordot/concat_2/axis:0\nptransformer/while/body/parallel_0/body/decoder/layer_1/self_attention/multihead_attention/q/Tensordot/concat_2:0\nktransformer/while/body/parallel_0/body/decoder/layer_1/self_attention/multihead_attention/q/Tensordot/mul:0\nmtransformer/while/body/parallel_0/body/decoder/layer_1/self_attention/multihead_attention/q/Tensordot/mul_1:0\nstransformer/while/body/parallel_0/body/decoder/layer_1/self_attention/multihead_attention/q/Tensordot/range/delta:0\nstransformer/while/body/parallel_0/body/decoder/layer_1/self_attention/multihead_attention/q/Tensordot/range/start:0\nmtransformer/while/body/parallel_0/body/decoder/layer_1/self_attention/multihead_attention/q/Tensordot/range:0\nmtransformer/while/body/parallel_0/body/decoder/layer_1/self_attention/multihead_attention/q/Tensordot/stack:0\nqtransformer/while/body/parallel_0/body/decoder/layer_1/self_attention/multihead_attention/q/Tensordot/transpose:0\nxtransformer/while/body/parallel_0/body/decoder/layer_1/self_attention/multihead_attention/q/Tensordot/transpose_1/perm:0\nstransformer/while/body/parallel_0/body/decoder/layer_1/self_attention/multihead_attention/q/Tensordot/transpose_1:0\ngtransformer/while/body/parallel_0/body/decoder/layer_1/self_attention/multihead_attention/q/Tensordot:0\n\214\001transformer/while/body/parallel_0/body/decoder/layer_1/self_attention/multihead_attention/split_heads/split_last_dimension/Reshape/shape/2:0\n\214\001transformer/while/body/parallel_0/body/decoder/layer_1/self_attention/multihead_attention/split_heads/split_last_dimension/Reshape/shape/3:0\n\212\001transformer/while/body/parallel_0/body/decoder/layer_1/self_attention/multihead_attention/split_heads/split_last_dimension/Reshape/shape:0\n\204\001transformer/while/body/parallel_0/body/decoder/layer_1/self_attention/multihead_attention/split_heads/split_last_dimension/Reshape:0\n\202\001transformer/while/body/parallel_0/body/decoder/layer_1/self_attention/multihead_attention/split_heads/split_last_dimension/Shape:0\n\220\001transformer/while/body/parallel_0/body/decoder/layer_1/self_attention/multihead_attention/split_heads/split_last_dimension/strided_slice/stack:0\n\222\001transformer/while/body/parallel_0/body/decoder/layer_1/self_attention/multihead_attention/split_heads/split_last_dimension/strided_slice/stack_1:0\n\222\001transformer/while/body/parallel_0/body/decoder/layer_1/self_attention/multihead_attention/split_heads/split_last_dimension/strided_slice/stack_2:0\n\212\001transformer/while/body/parallel_0/body/decoder/layer_1/self_attention/multihead_attention/split_heads/split_last_dimension/strided_slice:0\n\222\001transformer/while/body/parallel_0/body/decoder/layer_1/self_attention/multihead_attention/split_heads/split_last_dimension/strided_slice_1/stack:0\n\224\001transformer/while/body/parallel_0/body/decoder/layer_1/self_attention/multihead_attention/split_heads/split_last_dimension/strided_slice_1/stack_1:0\n\224\001transformer/while/body/parallel_0/body/decoder/layer_1/self_attention/multihead_attention/split_heads/split_last_dimension/strided_slice_1/stack_2:0\n\214\001transformer/while/body/parallel_0/body/decoder/layer_1/self_attention/multihead_attention/split_heads/split_last_dimension/strided_slice_1:0\nvtransformer/while/body/parallel_0/body/decoder/layer_1/self_attention/multihead_attention/split_heads/transpose/perm:0\nqtransformer/while/body/parallel_0/body/decoder/layer_1/self_attention/multihead_attention/split_heads/transpose:0\n\216\001transformer/while/body/parallel_0/body/decoder/layer_1/self_attention/multihead_attention/split_heads_1/split_last_dimension/Reshape/shape/2:0\n\216\001transformer/while/body/parallel_0/body/decoder/layer_1/self_attention/multihead_attention/split_heads_1/split_last_dimension/Reshape/shape/3:0\n\214\001transformer/while/body/parallel_0/body/decoder/layer_1/self_attention/multihead_attention/split_heads_1/split_last_dimension/Reshape/shape:0\n\206\001transformer/while/body/parallel_0/body/decoder/layer_1/self_attention/multihead_attention/split_heads_1/split_last_dimension/Reshape:0\n\204\001transformer/while/body/parallel_0/body/decoder/layer_1/self_attention/multihead_attention/split_heads_1/split_last_dimension/Shape:0\n\222\001transformer/while/body/parallel_0/body/decoder/layer_1/self_attention/multihead_attention/split_heads_1/split_last_dimension/strided_slice/stack:0\n\224\001transformer/while/body/parallel_0/body/decoder/layer_1/self_attention/multihead_attention/split_heads_1/split_last_dimension/strided_slice/stack_1:0\n\224\001transformer/while/body/parallel_0/body/decoder/layer_1/self_attention/multihead_attention/split_heads_1/split_last_dimension/strided_slice/stack_2:0\n\214\001transformer/while/body/parallel_0/body/decoder/layer_1/self_attention/multihead_attention/split_heads_1/split_last_dimension/strided_slice:0\n\224\001transformer/while/body/parallel_0/body/decoder/layer_1/self_attention/multihead_attention/split_heads_1/split_last_dimension/strided_slice_1/stack:0\n\226\001transformer/while/body/parallel_0/body/decoder/layer_1/self_attention/multihead_attention/split_heads_1/split_last_dimension/strided_slice_1/stack_1:0\n\226\001transformer/while/body/parallel_0/body/decoder/layer_1/self_attention/multihead_attention/split_heads_1/split_last_dimension/strided_slice_1/stack_2:0\n\216\001transformer/while/body/parallel_0/body/decoder/layer_1/self_attention/multihead_attention/split_heads_1/split_last_dimension/strided_slice_1:0\nxtransformer/while/body/parallel_0/body/decoder/layer_1/self_attention/multihead_attention/split_heads_1/transpose/perm:0\nstransformer/while/body/parallel_0/body/decoder/layer_1/self_attention/multihead_attention/split_heads_1/transpose:0\n\216\001transformer/while/body/parallel_0/body/decoder/layer_1/self_attention/multihead_attention/split_heads_2/split_last_dimension/Reshape/shape/2:0\n\216\001transformer/while/body/parallel_0/body/decoder/layer_1/self_attention/multihead_attention/split_heads_2/split_last_dimension/Reshape/shape/3:0\n\214\001transformer/while/body/parallel_0/body/decoder/layer_1/self_attention/multihead_attention/split_heads_2/split_last_dimension/Reshape/shape:0\n\206\001transformer/while/body/parallel_0/body/decoder/layer_1/self_attention/multihead_attention/split_heads_2/split_last_dimension/Reshape:0\n\204\001transformer/while/body/parallel_0/body/decoder/layer_1/self_attention/multihead_attention/split_heads_2/split_last_dimension/Shape:0\n\222\001transformer/while/body/parallel_0/body/decoder/layer_1/self_attention/multihead_attention/split_heads_2/split_last_dimension/strided_slice/stack:0\n\224\001transformer/while/body/parallel_0/body/decoder/layer_1/self_attention/multihead_attention/split_heads_2/split_last_dimension/strided_slice/stack_1:0\n\224\001transformer/while/body/parallel_0/body/decoder/layer_1/self_attention/multihead_attention/split_heads_2/split_last_dimension/strided_slice/stack_2:0\n\214\001transformer/while/body/parallel_0/body/decoder/layer_1/self_attention/multihead_attention/split_heads_2/split_last_dimension/strided_slice:0\n\224\001transformer/while/body/parallel_0/body/decoder/layer_1/self_attention/multihead_attention/split_heads_2/split_last_dimension/strided_slice_1/stack:0\n\226\001transformer/while/body/parallel_0/body/decoder/layer_1/self_attention/multihead_attention/split_heads_2/split_last_dimension/strided_slice_1/stack_1:0\n\226\001transformer/while/body/parallel_0/body/decoder/layer_1/self_attention/multihead_attention/split_heads_2/split_last_dimension/strided_slice_1/stack_2:0\n\216\001transformer/while/body/parallel_0/body/decoder/layer_1/self_attention/multihead_attention/split_heads_2/split_last_dimension/strided_slice_1:0\nxtransformer/while/body/parallel_0/body/decoder/layer_1/self_attention/multihead_attention/split_heads_2/transpose/perm:0\nstransformer/while/body/parallel_0/body/decoder/layer_1/self_attention/multihead_attention/split_heads_2/transpose:0\nltransformer/while/body/parallel_0/body/decoder/layer_1/self_attention/multihead_attention/v/Tensordot/Cast:0\nntransformer/while/body/parallel_0/body/decoder/layer_1/self_attention/multihead_attention/v/Tensordot/Cast_1:0\nmtransformer/while/body/parallel_0/body/decoder/layer_1/self_attention/multihead_attention/v/Tensordot/Const:0\notransformer/while/body/parallel_0/body/decoder/layer_1/self_attention/multihead_attention/v/Tensordot/Const_1:0\notransformer/while/body/parallel_0/body/decoder/layer_1/self_attention/multihead_attention/v/Tensordot/Const_2:0\nntransformer/while/body/parallel_0/body/decoder/layer_1/self_attention/multihead_attention/v/Tensordot/Gather:0\nptransformer/while/body/parallel_0/body/decoder/layer_1/self_attention/multihead_attention/v/Tensordot/Gather_1:0\nvtransformer/while/body/parallel_0/body/decoder/layer_1/self_attention/multihead_attention/v/Tensordot/GreaterEqual/y:0\nttransformer/while/body/parallel_0/body/decoder/layer_1/self_attention/multihead_attention/v/Tensordot/GreaterEqual:0\nntransformer/while/body/parallel_0/body/decoder/layer_1/self_attention/multihead_attention/v/Tensordot/Less/y:0\nltransformer/while/body/parallel_0/body/decoder/layer_1/self_attention/multihead_attention/v/Tensordot/Less:0\nptransformer/while/body/parallel_0/body/decoder/layer_1/self_attention/multihead_attention/v/Tensordot/ListDiff:0\nptransformer/while/body/parallel_0/body/decoder/layer_1/self_attention/multihead_attention/v/Tensordot/ListDiff:1\nntransformer/while/body/parallel_0/body/decoder/layer_1/self_attention/multihead_attention/v/Tensordot/MatMul:0\nltransformer/while/body/parallel_0/body/decoder/layer_1/self_attention/multihead_attention/v/Tensordot/Prod:0\nntransformer/while/body/parallel_0/body/decoder/layer_1/self_attention/multihead_attention/v/Tensordot/Prod_1:0\nltransformer/while/body/parallel_0/body/decoder/layer_1/self_attention/multihead_attention/v/Tensordot/Rank:0\notransformer/while/body/parallel_0/body/decoder/layer_1/self_attention/multihead_attention/v/Tensordot/Reshape:0\nwtransformer/while/body/parallel_0/body/decoder/layer_1/self_attention/multihead_attention/v/Tensordot/Reshape_1/shape:0\nqtransformer/while/body/parallel_0/body/decoder/layer_1/self_attention/multihead_attention/v/Tensordot/Reshape_1:0\nmtransformer/while/body/parallel_0/body/decoder/layer_1/self_attention/multihead_attention/v/Tensordot/Shape:0\nktransformer/while/body/parallel_0/body/decoder/layer_1/self_attention/multihead_attention/v/Tensordot/add:0\nmtransformer/while/body/parallel_0/body/decoder/layer_1/self_attention/multihead_attention/v/Tensordot/add_1:0\nltransformer/while/body/parallel_0/body/decoder/layer_1/self_attention/multihead_attention/v/Tensordot/axes:0\nstransformer/while/body/parallel_0/body/decoder/layer_1/self_attention/multihead_attention/v/Tensordot/concat/axis:0\nntransformer/while/body/parallel_0/body/decoder/layer_1/self_attention/multihead_attention/v/Tensordot/concat:0\nutransformer/while/body/parallel_0/body/decoder/layer_1/self_attention/multihead_attention/v/Tensordot/concat_1/axis:0\nptransformer/while/body/parallel_0/body/decoder/layer_1/self_attention/multihead_attention/v/Tensordot/concat_1:0\nutransformer/while/body/parallel_0/body/decoder/layer_1/self_attention/multihead_attention/v/Tensordot/concat_2/axis:0\nptransformer/while/body/parallel_0/body/decoder/layer_1/self_attention/multihead_attention/v/Tensordot/concat_2:0\nktransformer/while/body/parallel_0/body/decoder/layer_1/self_attention/multihead_attention/v/Tensordot/mul:0\nmtransformer/while/body/parallel_0/body/decoder/layer_1/self_attention/multihead_attention/v/Tensordot/mul_1:0\nstransformer/while/body/parallel_0/body/decoder/layer_1/self_attention/multihead_attention/v/Tensordot/range/delta:0\nstransformer/while/body/parallel_0/body/decoder/layer_1/self_attention/multihead_attention/v/Tensordot/range/start:0\nmtransformer/while/body/parallel_0/body/decoder/layer_1/self_attention/multihead_attention/v/Tensordot/range:0\nmtransformer/while/body/parallel_0/body/decoder/layer_1/self_attention/multihead_attention/v/Tensordot/stack:0\nqtransformer/while/body/parallel_0/body/decoder/layer_1/self_attention/multihead_attention/v/Tensordot/transpose:0\nxtransformer/while/body/parallel_0/body/decoder/layer_1/self_attention/multihead_attention/v/Tensordot/transpose_1/perm:0\nstransformer/while/body/parallel_0/body/decoder/layer_1/self_attention/multihead_attention/v/Tensordot/transpose_1:0\ngtransformer/while/body/parallel_0/body/decoder/layer_1/self_attention/multihead_attention/v/Tensordot:0\nKtransformer/while/body/parallel_0/body/decoder/layer_prepostprocess/Shape:0\nWtransformer/while/body/parallel_0/body/decoder/layer_prepostprocess/layer_norm/Cast/x:0\ngtransformer/while/body/parallel_0/body/decoder/layer_prepostprocess/layer_norm/Mean/reduction_indices:0\nUtransformer/while/body/parallel_0/body/decoder/layer_prepostprocess/layer_norm/Mean:0\nitransformer/while/body/parallel_0/body/decoder/layer_prepostprocess/layer_norm/Mean_1/reduction_indices:0\nWtransformer/while/body/parallel_0/body/decoder/layer_prepostprocess/layer_norm/Mean_1:0\nVtransformer/while/body/parallel_0/body/decoder/layer_prepostprocess/layer_norm/Rsqrt:0\nWtransformer/while/body/parallel_0/body/decoder/layer_prepostprocess/layer_norm/Square:0\nTtransformer/while/body/parallel_0/body/decoder/layer_prepostprocess/layer_norm/add:0\nVtransformer/while/body/parallel_0/body/decoder/layer_prepostprocess/layer_norm/add_1:0\nTtransformer/while/body/parallel_0/body/decoder/layer_prepostprocess/layer_norm/mul:0\nVtransformer/while/body/parallel_0/body/decoder/layer_prepostprocess/layer_norm/mul_1:0\nTtransformer/while/body/parallel_0/body/decoder/layer_prepostprocess/layer_norm/sub:0\nVtransformer/while/body/parallel_0/body/decoder/layer_prepostprocess/layer_norm/sub_1:0\nYtransformer/while/body/parallel_0/body/decoder/layer_prepostprocess/strided_slice/stack:0\n[transformer/while/body/parallel_0/body/decoder/layer_prepostprocess/strided_slice/stack_1:0\n[transformer/while/body/parallel_0/body/decoder/layer_prepostprocess/strided_slice/stack_2:0\nStransformer/while/body/parallel_0/body/decoder/layer_prepostprocess/strided_slice:0\n[transformer/while/body/parallel_0/body/decoder/layer_prepostprocess/strided_slice_1/stack:0\n]transformer/while/body/parallel_0/body/decoder/layer_prepostprocess/strided_slice_1/stack_1:0\n]transformer/while/body/parallel_0/body/decoder/layer_prepostprocess/strided_slice_1/stack_2:0\nUtransformer/while/body/parallel_0/body/decoder/layer_prepostprocess/strided_slice_1:0\n:transformer/while/body/parallel_0/body/dropout/keep_prob:0\n\037transformer/while/concat/axis:0\n\032transformer/while/concat:0\n!transformer/while/concat_1/axis:0\n\034transformer/while/concat_1:0\n!transformer/while/concat_2/axis:0\n\034transformer/while/concat_2:0\n!transformer/while/concat_3/axis:0\n\034transformer/while/concat_3:0\n!transformer/while/concat_4/axis:0\n\034transformer/while/concat_4:0\n\036transformer/while/cond/Merge:0\n\036transformer/while/cond/Merge:1\n\037transformer/while/cond/Switch:0\n\037transformer/while/cond/Switch:1\n!transformer/while/cond/Switch_1:0\n transformer/while/cond/pred_id:0\n!transformer/while/cond/switch_f:0\n!transformer/while/cond/switch_t:0\n#transformer/while/cond/zeros_like:0\n\036transformer/while/floordiv/y:0\n\034transformer/while/floordiv:0\n transformer/while/floordiv_1/y:0\n\036transformer/while/floordiv_1:0\n transformer/while/floordiv_2/y:0\n\036transformer/while/floordiv_2:0\n transformer/while/floordiv_3/y:0\n\036transformer/while/floordiv_3:0\n)transformer/while/grow_alive_topk_flags:0\n*transformer/while/grow_alive_topk_scores:0\n\'transformer/while/grow_alive_topk_seq:0\n*transformer/while/grow_alive_topk_states:0\n,transformer/while/grow_alive_topk_states_1:0\n,transformer/while/grow_alive_topk_states_2:0\n,transformer/while/grow_alive_topk_states_3:0\n,transformer/while/grow_alive_topk_states_4:0\n,transformer/while/grow_alive_topk_states_5:0\n,transformer/while/grow_finished_topk_flags:0\n-transformer/while/grow_finished_topk_scores:0\n*transformer/while/grow_finished_topk_seq:0\n\031transformer/while/mod/y:0\n\027transformer/while/mod:0\n\027transformer/while/mul:0\n\033transformer/while/mul_1/y:0\n\032transformer/while/mul_10:0\n\034transformer/while/mul_11/y:0\n\032transformer/while/mul_11:0\n\034transformer/while/mul_12/y:0\n\032transformer/while/mul_12:0\n\034transformer/while/mul_13/y:0\n\032transformer/while/mul_13:0\n\034transformer/while/mul_14/y:0\n\032transformer/while/mul_14:0\n\034transformer/while/mul_15/y:0\n\032transformer/while/mul_15:0\n\031transformer/while/mul_1:0\n\037transformer/while/mul_2/Enter:0\n\033transformer/while/mul_2/y:0\n\031transformer/while/mul_2:0\n\031transformer/while/mul_3:0\n\031transformer/while/mul_4:0\n\031transformer/while/mul_5:0\n\031transformer/while/mul_6:0\n\031transformer/while/mul_7:0\n\031transformer/while/mul_8:0\n\033transformer/while/mul_9/y:0\n\031transformer/while/mul_9:0\n3transformer/while/parallel_0/transformer/Identity:0\n\037transformer/while/range/delta:0\n\037transformer/while/range/start:0\n\031transformer/while/range:0\n!transformer/while/range_1/delta:0\n!transformer/while/range_1/start:0\n\033transformer/while/range_1:0\n!transformer/while/range_2/delta:0\n!transformer/while/range_2/start:0\n\033transformer/while/range_2:0\n#transformer/while/split/split_dim:0\n\031transformer/while/split:0\n\031transformer/while/stack:0\n\033transformer/while/stack_1:0\n\033transformer/while/stack_2:0\n\'transformer/while/strided_slice/stack:0\n)transformer/while/strided_slice/stack_1:0\n)transformer/while/strided_slice/stack_2:0\n!transformer/while/strided_slice:0\n)transformer/while/strided_slice_1/stack:0\n+transformer/while/strided_slice_1/stack_1:0\n+transformer/while/strided_slice_1/stack_2:0\n*transformer/while/strided_slice_10/stack:0\n,transformer/while/strided_slice_10/stack_1:0\n,transformer/while/strided_slice_10/stack_2:0\n$transformer/while/strided_slice_10:0\n*transformer/while/strided_slice_11/stack:0\n,transformer/while/strided_slice_11/stack_1:0\n,transformer/while/strided_slice_11/stack_2:0\n$transformer/while/strided_slice_11:0\n*transformer/while/strided_slice_12/stack:0\n,transformer/while/strided_slice_12/stack_1:0\n,transformer/while/strided_slice_12/stack_2:0\n$transformer/while/strided_slice_12:0\n*transformer/while/strided_slice_13/stack:0\n,transformer/while/strided_slice_13/stack_1:0\n,transformer/while/strided_slice_13/stack_2:0\n$transformer/while/strided_slice_13:0\n*transformer/while/strided_slice_14/stack:0\n,transformer/while/strided_slice_14/stack_1:0\n,transformer/while/strided_slice_14/stack_2:0\n$transformer/while/strided_slice_14:0\n*transformer/while/strided_slice_15/stack:0\n,transformer/while/strided_slice_15/stack_1:0\n,transformer/while/strided_slice_15/stack_2:0\n$transformer/while/strided_slice_15:0\n*transformer/while/strided_slice_16/stack:0\n,transformer/while/strided_slice_16/stack_1:0\n,transformer/while/strided_slice_16/stack_2:0\n$transformer/while/strided_slice_16:0\n*transformer/while/strided_slice_17/stack:0\n,transformer/while/strided_slice_17/stack_1:0\n,transformer/while/strided_slice_17/stack_2:0\n$transformer/while/strided_slice_17:0\n*transformer/while/strided_slice_18/stack:0\n,transformer/while/strided_slice_18/stack_1:0\n,transformer/while/strided_slice_18/stack_2:0\n$transformer/while/strided_slice_18:0\n*transformer/while/strided_slice_19/stack:0\n,transformer/while/strided_slice_19/stack_1:0\n,transformer/while/strided_slice_19/stack_2:0\n$transformer/while/strided_slice_19:0\n#transformer/while/strided_slice_1:0\n)transformer/while/strided_slice_2/stack:0\n+transformer/while/strided_slice_2/stack_1:0\n+transformer/while/strided_slice_2/stack_2:0\n*transformer/while/strided_slice_20/stack:0\n,transformer/while/strided_slice_20/stack_1:0\n,transformer/while/strided_slice_20/stack_2:0\n$transformer/while/strided_slice_20:0\n*transformer/while/strided_slice_21/stack:0\n,transformer/while/strided_slice_21/stack_1:0\n,transformer/while/strided_slice_21/stack_2:0\n$transformer/while/strided_slice_21:0\n*transformer/while/strided_slice_22/stack:0\n,transformer/while/strided_slice_22/stack_1:0\n,transformer/while/strided_slice_22/stack_2:0\n$transformer/while/strided_slice_22:0\n*transformer/while/strided_slice_23/stack:0\n,transformer/while/strided_slice_23/stack_1:0\n,transformer/while/strided_slice_23/stack_2:0\n$transformer/while/strided_slice_23:0\n*transformer/while/strided_slice_24/stack:0\n,transformer/while/strided_slice_24/stack_1:0\n,transformer/while/strided_slice_24/stack_2:0\n$transformer/while/strided_slice_24:0\n*transformer/while/strided_slice_25/stack:0\n,transformer/while/strided_slice_25/stack_1:0\n,transformer/while/strided_slice_25/stack_2:0\n$transformer/while/strided_slice_25:0\n*transformer/while/strided_slice_26/Enter:0\n,transformer/while/strided_slice_26/stack/0:0\n*transformer/while/strided_slice_26/stack:0\n.transformer/while/strided_slice_26/stack_1/0:0\n,transformer/while/strided_slice_26/stack_1:0\n,transformer/while/strided_slice_26/stack_2:0\n$transformer/while/strided_slice_26:0\n*transformer/while/strided_slice_27/Enter:0\n,transformer/while/strided_slice_27/stack/0:0\n,transformer/while/strided_slice_27/stack/1:0\n,transformer/while/strided_slice_27/stack/3:0\n*transformer/while/strided_slice_27/stack:0\n.transformer/while/strided_slice_27/stack_1/0:0\n.transformer/while/strided_slice_27/stack_1/1:0\n,transformer/while/strided_slice_27/stack_1:0\n,transformer/while/strided_slice_27/stack_2:0\n$transformer/while/strided_slice_27:0\n*transformer/while/strided_slice_28/stack:0\n,transformer/while/strided_slice_28/stack_1:0\n,transformer/while/strided_slice_28/stack_2:0\n$transformer/while/strided_slice_28:0\n*transformer/while/strided_slice_29/stack:0\n,transformer/while/strided_slice_29/stack_1:0\n,transformer/while/strided_slice_29/stack_2:0\n$transformer/while/strided_slice_29:0\n#transformer/while/strided_slice_2:0\n)transformer/while/strided_slice_3/stack:0\n+transformer/while/strided_slice_3/stack_1:0\n+transformer/while/strided_slice_3/stack_2:0\n*transformer/while/strided_slice_30/stack:0\n,transformer/while/strided_slice_30/stack_1:0\n,transformer/while/strided_slice_30/stack_2:0\n$transformer/while/strided_slice_30:0\n*transformer/while/strided_slice_31/stack:0\n,transformer/while/strided_slice_31/stack_1:0\n,transformer/while/strided_slice_31/stack_2:0\n$transformer/while/strided_slice_31:0\n*transformer/while/strided_slice_32/stack:0\n,transformer/while/strided_slice_32/stack_1:0\n,transformer/while/strided_slice_32/stack_2:0\n$transformer/while/strided_slice_32:0\n*transformer/while/strided_slice_33/stack:0\n,transformer/while/strided_slice_33/stack_1:0\n,transformer/while/strided_slice_33/stack_2:0\n$transformer/while/strided_slice_33:0\n*transformer/while/strided_slice_34/stack:0\n,transformer/while/strided_slice_34/stack_1:0\n,transformer/while/strided_slice_34/stack_2:0\n$transformer/while/strided_slice_34:0\n*transformer/while/strided_slice_35/stack:0\n,transformer/while/strided_slice_35/stack_1:0\n,transformer/while/strided_slice_35/stack_2:0\n$transformer/while/strided_slice_35:0\n*transformer/while/strided_slice_36/stack:0\n,transformer/while/strided_slice_36/stack_1:0\n,transformer/while/strided_slice_36/stack_2:0\n$transformer/while/strided_slice_36:0\n*transformer/while/strided_slice_37/stack:0\n,transformer/while/strided_slice_37/stack_1:0\n,transformer/while/strided_slice_37/stack_2:0\n$transformer/while/strided_slice_37:0\n*transformer/while/strided_slice_38/stack:0\n,transformer/while/strided_slice_38/stack_1:0\n,transformer/while/strided_slice_38/stack_2:0\n$transformer/while/strided_slice_38:0\n*transformer/while/strided_slice_39/stack:0\n,transformer/while/strided_slice_39/stack_1:0\n,transformer/while/strided_slice_39/stack_2:0\n$transformer/while/strided_slice_39:0\n#transformer/while/strided_slice_3:0\n)transformer/while/strided_slice_4/stack:0\n+transformer/while/strided_slice_4/stack_1:0\n+transformer/while/strided_slice_4/stack_2:0\n*transformer/while/strided_slice_40/stack:0\n,transformer/while/strided_slice_40/stack_1:0\n,transformer/while/strided_slice_40/stack_2:0\n$transformer/while/strided_slice_40:0\n*transformer/while/strided_slice_41/stack:0\n,transformer/while/strided_slice_41/stack_1:0\n,transformer/while/strided_slice_41/stack_2:0\n$transformer/while/strided_slice_41:0\n#transformer/while/strided_slice_4:0\n)transformer/while/strided_slice_5/stack:0\n+transformer/while/strided_slice_5/stack_1:0\n+transformer/while/strided_slice_5/stack_2:0\n#transformer/while/strided_slice_5:0\n)transformer/while/strided_slice_6/stack:0\n+transformer/while/strided_slice_6/stack_1:0\n+transformer/while/strided_slice_6/stack_2:0\n#transformer/while/strided_slice_6:0\n)transformer/while/strided_slice_7/stack:0\n+transformer/while/strided_slice_7/stack_1:0\n+transformer/while/strided_slice_7/stack_2:0\n#transformer/while/strided_slice_7:0\n)transformer/while/strided_slice_8/stack:0\n+transformer/while/strided_slice_8/stack_1:0\n+transformer/while/strided_slice_8/stack_2:0\n#transformer/while/strided_slice_8:0\n)transformer/while/strided_slice_9/stack:0\n+transformer/while/strided_slice_9/stack_1:0\n+transformer/while/strided_slice_9/stack_2:0\n#transformer/while/strided_slice_9:0\n\031transformer/while/sub/x:0\n\027transformer/while/sub:0\n\031transformer/while/sub_1:0\n\033transformer/while/sub_2/x:0\n\031transformer/while/sub_2:0\nftransformer/while/symbol_modality_2857_256/parallel_0/symbol_modality_2857_256/shared/ExpandDims/dim:0\nbtransformer/while/symbol_modality_2857_256/parallel_0/symbol_modality_2857_256/shared/ExpandDims:0\n^transformer/while/symbol_modality_2857_256/parallel_0/symbol_modality_2857_256/shared/Gather:0\nbtransformer/while/symbol_modality_2857_256/parallel_0/symbol_modality_2857_256/shared/NotEqual/y:0\n`transformer/while/symbol_modality_2857_256/parallel_0/symbol_modality_2857_256/shared/NotEqual:0\n_transformer/while/symbol_modality_2857_256/parallel_0/symbol_modality_2857_256/shared/Squeeze:0\n_transformer/while/symbol_modality_2857_256/parallel_0/symbol_modality_2857_256/shared/ToFloat:0\nctransformer/while/symbol_modality_2857_256/parallel_0/symbol_modality_2857_256/shared/concat/axis:0\n^transformer/while/symbol_modality_2857_256/parallel_0/symbol_modality_2857_256/shared/concat:0\n{transformer/while/symbol_modality_2857_256/parallel_0/symbol_modality_2857_256/shared/convert_gradient_to_tensor_cc661786:0\n]transformer/while/symbol_modality_2857_256/parallel_0/symbol_modality_2857_256/shared/mul/y:0\n[transformer/while/symbol_modality_2857_256/parallel_0/symbol_modality_2857_256/shared/mul:0\n]transformer/while/symbol_modality_2857_256/parallel_0/symbol_modality_2857_256/shared/mul_1:0\n`transformer/while/symbol_modality_2857_256_1/parallel_0/symbol_modality_2857_256/shared/MatMul:0\ngtransformer/while/symbol_modality_2857_256_1/parallel_0/symbol_modality_2857_256/shared/Reshape/shape:0\natransformer/while/symbol_modality_2857_256_1/parallel_0/symbol_modality_2857_256/shared/Reshape:0\nktransformer/while/symbol_modality_2857_256_1/parallel_0/symbol_modality_2857_256/shared/Reshape_1/shape/2:0\nktransformer/while/symbol_modality_2857_256_1/parallel_0/symbol_modality_2857_256/shared/Reshape_1/shape/3:0\nktransformer/while/symbol_modality_2857_256_1/parallel_0/symbol_modality_2857_256/shared/Reshape_1/shape/4:0\nitransformer/while/symbol_modality_2857_256_1/parallel_0/symbol_modality_2857_256/shared/Reshape_1/shape:0\nctransformer/while/symbol_modality_2857_256_1/parallel_0/symbol_modality_2857_256/shared/Reshape_1:0\n_transformer/while/symbol_modality_2857_256_1/parallel_0/symbol_modality_2857_256/shared/Shape:0\netransformer/while/symbol_modality_2857_256_1/parallel_0/symbol_modality_2857_256/shared/concat/axis:0\n`transformer/while/symbol_modality_2857_256_1/parallel_0/symbol_modality_2857_256/shared/concat:0\n}transformer/while/symbol_modality_2857_256_1/parallel_0/symbol_modality_2857_256/shared/convert_gradient_to_tensor_cc661786:0\nmtransformer/while/symbol_modality_2857_256_1/parallel_0/symbol_modality_2857_256/shared/strided_slice/stack:0\notransformer/while/symbol_modality_2857_256_1/parallel_0/symbol_modality_2857_256/shared/strided_slice/stack_1:0\notransformer/while/symbol_modality_2857_256_1/parallel_0/symbol_modality_2857_256/shared/strided_slice/stack_2:0\ngtransformer/while/symbol_modality_2857_256_1/parallel_0/symbol_modality_2857_256/shared/strided_slice:0\notransformer/while/symbol_modality_2857_256_1/parallel_0/symbol_modality_2857_256/shared/strided_slice_1/stack:0\nqtransformer/while/symbol_modality_2857_256_1/parallel_0/symbol_modality_2857_256/shared/strided_slice_1/stack_1:0\nqtransformer/while/symbol_modality_2857_256_1/parallel_0/symbol_modality_2857_256/shared/strided_slice_1/stack_2:0\nitransformer/while/symbol_modality_2857_256_1/parallel_0/symbol_modality_2857_256/shared/strided_slice_1:0\n\035transformer/while/truediv/y:0\n\033transformer/while/truediv:0\n\035transformer/while/truediv_1:0\n\037transformer/while/truediv_2/y:0\n\035transformer/while/truediv_2:0\n\035transformer/while/truediv_3:0\n\037transformer/while/zeros/Const:0\n!transformer/while/zeros/shape/1:0\n!transformer/while/zeros/shape/2:0\n\037transformer/while/zeros/shape:0\n\031transformer/while/zeros:0\022e\nKtransformer/body/decoder/layer_prepostprocess/layer_norm/layer_norm_scale:0\022\026Identity_95/RefEnter:0\022Q\n7transformer/symbol_modality_2857_256/shared/weights_6:0\022\026Identity_49/RefEnter:0\022K\n1transformer/body/decoder/layer_0/ffn/conv2/bias:0\022\026Identity_76/RefEnter:0\022Q\n7transformer/symbol_modality_2857_256/shared/weights_1:0\022\026Identity_44/RefEnter:0\022y\n_transformer/body/decoder/layer_1/encdec_attention/multihead_attention/output_transform/kernel:0\022\026Identity_88/RefEnter:0\022h\nNtransformer/body/decoder/layer_0/self_attention/multihead_attention/k/kernel:0\022\026Identity_62/RefEnter:0\022R\n8transformer/symbol_modality_2857_256/shared/weights_11:0\022\026Identity_54/RefEnter:0\022M\n3transformer/body/decoder/layer_0/ffn/conv1/kernel:0\022\026Identity_73/RefEnter:0\022p\nVtransformer/body/decoder/layer_0/ffn/layer_prepostprocess/layer_norm/layer_norm_bias:0\022\026Identity_72/RefEnter:0\022r\nDtransformer/attention_bias_lower_triangle/attention_bias_local/mul:0\022*transformer/while/strided_slice_27/Enter:0\022j\nPtransformer/body/decoder/layer_0/encdec_attention/multihead_attention/k/kernel:0\022\026Identity_68/RefEnter:0\022Q\n7transformer/symbol_modality_2857_256/shared/weights_7:0\022\026Identity_50/RefEnter:0\022K\n1transformer/body/decoder/layer_1/ffn/conv1/bias:0\022\026Identity_92/RefEnter:0\022Q\n7transformer/symbol_modality_2857_256/shared/weights_2:0\022\026Identity_45/RefEnter:0\022R\n8transformer/symbol_modality_2857_256/shared/weights_12:0\022\026Identity_55/RefEnter:0\022}\nctransformer/body/decoder/layer_1/encdec_attention/layer_prepostprocess/layer_norm/layer_norm_bias:0\022\026Identity_84/RefEnter:0\022}\nctransformer/body/decoder/layer_0/encdec_attention/layer_prepostprocess/layer_norm/layer_norm_bias:0\022\026Identity_66/RefEnter:0\022|\nbtransformer/body/decoder/layer_0/self_attention/layer_prepostprocess/layer_norm/layer_norm_scale:0\022\026Identity_59/RefEnter:0\022q\nWtransformer/body/decoder/layer_1/ffn/layer_prepostprocess/layer_norm/layer_norm_scale:0\022\026Identity_89/RefEnter:0\022~\ndtransformer/body/decoder/layer_1/encdec_attention/layer_prepostprocess/layer_norm/layer_norm_scale:0\022\026Identity_83/RefEnter:0\022X\n*transformer/get_timing_signal_1d/Reshape:0\022*transformer/while/strided_slice_26/Enter:0\022M\n3transformer/body/decoder/layer_1/ffn/conv2/kernel:0\022\026Identity_93/RefEnter:0\022j\nPtransformer/body/decoder/layer_1/encdec_attention/multihead_attention/v/kernel:0\022\026Identity_87/RefEnter:0\022Q\n7transformer/symbol_modality_2857_256/shared/weights_8:0\022\026Identity_51/RefEnter:0\022j\nPtransformer/body/decoder/layer_1/encdec_attention/multihead_attention/q/kernel:0\022\026Identity_85/RefEnter:0\022Q\n7transformer/symbol_modality_2857_256/shared/weights_3:0\022\026Identity_46/RefEnter:0\022~\ndtransformer/body/decoder/layer_0/encdec_attention/layer_prepostprocess/layer_norm/layer_norm_scale:0\022\026Identity_65/RefEnter:0\022y\n_transformer/body/decoder/layer_0/encdec_attention/multihead_attention/output_transform/kernel:0\022\026Identity_70/RefEnter:0\022q\nWtransformer/body/decoder/layer_0/ffn/layer_prepostprocess/layer_norm/layer_norm_scale:0\022\026Identity_71/RefEnter:0\022R\n8transformer/symbol_modality_2857_256/shared/weights_13:0\022\026Identity_56/RefEnter:0\022w\n]transformer/body/decoder/layer_1/self_attention/multihead_attention/output_transform/kernel:0\022\026Identity_82/RefEnter:0\022|\nbtransformer/body/decoder/layer_1/self_attention/layer_prepostprocess/layer_norm/layer_norm_scale:0\022\026Identity_77/RefEnter:0\022h\nNtransformer/body/decoder/layer_1/self_attention/multihead_attention/v/kernel:0\022\026Identity_81/RefEnter:0\022K\n1transformer/body/decoder/layer_1/ffn/conv2/bias:0\022\026Identity_94/RefEnter:0\022@\n\035transformer/strided_slice_8:0\022\037transformer/while/mul_2/Enter:0\022M\n3transformer/body/decoder/layer_1/ffn/conv1/kernel:0\022\026Identity_91/RefEnter:0\022Q\n7transformer/symbol_modality_2857_256/shared/weights_9:0\022\026Identity_52/RefEnter:0\022h\nNtransformer/body/decoder/layer_1/self_attention/multihead_attention/q/kernel:0\022\026Identity_79/RefEnter:0\022d\nJtransformer/body/decoder/layer_prepostprocess/layer_norm/layer_norm_bias:0\022\026Identity_96/RefEnter:0\022Q\n7transformer/symbol_modality_2857_256/shared/weights_4:0\022\026Identity_47/RefEnter:0\022R\n8transformer/symbol_modality_2857_256/shared/weights_14:0\022\026Identity_57/RefEnter:0\022p\nVtransformer/body/decoder/layer_1/ffn/layer_prepostprocess/layer_norm/layer_norm_bias:0\022\026Identity_90/RefEnter:0\022K\n1transformer/body/decoder/layer_0/ffn/conv1/bias:0\022\026Identity_74/RefEnter:0\022{\natransformer/body/decoder/layer_0/self_attention/layer_prepostprocess/layer_norm/layer_norm_bias:0\022\026Identity_60/RefEnter:0\022j\nPtransformer/body/decoder/layer_1/encdec_attention/multihead_attention/k/kernel:0\022\026Identity_86/RefEnter:0\0226\n\021transformer/add:0\022!transformer/while/ToFloat/Enter:0\022{\natransformer/body/decoder/layer_1/self_attention/layer_prepostprocess/layer_norm/layer_norm_bias:0\022\026Identity_78/RefEnter:0\022h\nNtransformer/body/decoder/layer_0/self_attention/multihead_attention/v/kernel:0\022\026Identity_63/RefEnter:0\022h\nNtransformer/body/decoder/layer_0/self_attention/multihead_attention/q/kernel:0\022\026Identity_61/RefEnter:0\022w\n]transformer/body/decoder/layer_0/self_attention/multihead_attention/output_transform/kernel:0\022\026Identity_64/RefEnter:0\022Q\n7transformer/symbol_modality_2857_256/shared/weights_5:0\022\026Identity_48/RefEnter:0\022Q\n7transformer/symbol_modality_2857_256/shared/weights_0:0\022\026Identity_43/RefEnter:0\022j\nPtransformer/body/decoder/layer_0/encdec_attention/multihead_attention/v/kernel:0\022\026Identity_69/RefEnter:0\022R\n8transformer/symbol_modality_2857_256/shared/weights_15:0\022\026Identity_58/RefEnter:0\022h\nNtransformer/body/decoder/layer_1/self_attention/multihead_attention/k/kernel:0\022\026Identity_80/RefEnter:0\022R\n8transformer/symbol_modality_2857_256/shared/weights_10:0\022\026Identity_53/RefEnter:0\022M\n3transformer/body/decoder/layer_0/ffn/conv2/kernel:0\022\026Identity_75/RefEnter:0\022j\nPtransformer/body/decoder/layer_0/encdec_attention/multihead_attention/q/kernel:0\022\026Identity_67/RefEnter:0R\031transformer/while/Enter:0R\033transformer/while/Enter_1:0R\033transformer/while/Enter_2:0R\033transformer/while/Enter_3:0R\033transformer/while/Enter_4:0R\033transformer/while/Enter_5:0R\033transformer/while/Enter_6:0R\033transformer/while/Enter_7:0R\033transformer/while/Enter_8:0R\033transformer/while/Enter_9:0R\034transformer/while/Enter_10:0R\034transformer/while/Enter_11:0"
      }
    }
  }
  signature_def {
    key: "serving_default"
    value {
      inputs {
        key: "input"
        value {
          name: "serialized_example:0"
          dtype: DT_STRING
          tensor_shape {
            dim {
              size: -1
            }
          }
        }
      }
      outputs {
        key: "batch_prediction_key"
        value {
          name: "DatasetToSingleElement:0"
          dtype: DT_INT32
          tensor_shape {
            dim {
              size: -1
            }
            dim {
              size: 1
            }
          }
        }
      }
      outputs {
        key: "outputs"
        value {
          name: "transformer/strided_slice_10:0"
          dtype: DT_INT32
          tensor_shape {
            dim {
              size: -1
            }
            dim {
              size: -1
            }
          }
        }
      }
      outputs {
        key: "scores"
        value {
          name: "transformer/strided_slice_11:0"
          dtype: DT_FLOAT
          tensor_shape {
            dim {
              size: -1
            }
          }
        }
      }
      method_name: "tensorflow/serving/predict"
    }
  }
}
