saved_model_schema_version: 1
meta_graphs {
  meta_info_def {
    stripped_op_list {
      op {
        name: "Add"
        input_arg {
          name: "x"
          type_attr: "T"
        }
        input_arg {
          name: "y"
          type_attr: "T"
        }
        output_arg {
          name: "z"
          type_attr: "T"
        }
        attr {
          name: "T"
          type: "type"
          allowed_values {
            list {
              type: DT_HALF
              type: DT_BFLOAT16
              type: DT_FLOAT
              type: DT_DOUBLE
              type: DT_UINT8
              type: DT_INT8
              type: DT_INT16
              type: DT_INT32
              type: DT_INT64
              type: DT_COMPLEX64
              type: DT_COMPLEX128
              type: DT_STRING
            }
          }
        }
      }
      op {
        name: "All"
        input_arg {
          name: "input"
          type: DT_BOOL
        }
        input_arg {
          name: "reduction_indices"
          type_attr: "Tidx"
        }
        output_arg {
          name: "output"
          type: DT_BOOL
        }
        attr {
          name: "keep_dims"
          type: "bool"
          default_value {
            b: false
          }
        }
        attr {
          name: "Tidx"
          type: "type"
          default_value {
            type: DT_INT32
          }
          allowed_values {
            list {
              type: DT_INT32
              type: DT_INT64
            }
          }
        }
      }
      op {
        name: "Any"
        input_arg {
          name: "input"
          type: DT_BOOL
        }
        input_arg {
          name: "reduction_indices"
          type_attr: "Tidx"
        }
        output_arg {
          name: "output"
          type: DT_BOOL
        }
        attr {
          name: "keep_dims"
          type: "bool"
          default_value {
            b: false
          }
        }
        attr {
          name: "Tidx"
          type: "type"
          default_value {
            type: DT_INT32
          }
          allowed_values {
            list {
              type: DT_INT32
              type: DT_INT64
            }
          }
        }
      }
      op {
        name: "Assert"
        input_arg {
          name: "condition"
          type: DT_BOOL
        }
        input_arg {
          name: "data"
          type_list_attr: "T"
        }
        attr {
          name: "T"
          type: "list(type)"
          has_minimum: true
          minimum: 1
        }
        attr {
          name: "summarize"
          type: "int"
          default_value {
            i: 3
          }
        }
        is_stateful: true
      }
      op {
        name: "Assign"
        input_arg {
          name: "ref"
          type_attr: "T"
          is_ref: true
        }
        input_arg {
          name: "value"
          type_attr: "T"
        }
        output_arg {
          name: "output_ref"
          type_attr: "T"
          is_ref: true
        }
        attr {
          name: "T"
          type: "type"
        }
        attr {
          name: "validate_shape"
          type: "bool"
          default_value {
            b: true
          }
        }
        attr {
          name: "use_locking"
          type: "bool"
          default_value {
            b: true
          }
        }
        allows_uninitialized_input: true
      }
      op {
        name: "BatchMatMul"
        input_arg {
          name: "x"
          type_attr: "T"
        }
        input_arg {
          name: "y"
          type_attr: "T"
        }
        output_arg {
          name: "output"
          type_attr: "T"
        }
        attr {
          name: "T"
          type: "type"
          allowed_values {
            list {
              type: DT_HALF
              type: DT_BFLOAT16
              type: DT_FLOAT
              type: DT_DOUBLE
              type: DT_INT32
              type: DT_COMPLEX64
              type: DT_COMPLEX128
            }
          }
        }
        attr {
          name: "adj_x"
          type: "bool"
          default_value {
            b: false
          }
        }
        attr {
          name: "adj_y"
          type: "bool"
          default_value {
            b: false
          }
        }
      }
      op {
        name: "BiasAdd"
        input_arg {
          name: "value"
          type_attr: "T"
        }
        input_arg {
          name: "bias"
          type_attr: "T"
        }
        output_arg {
          name: "output"
          type_attr: "T"
        }
        attr {
          name: "T"
          type: "type"
          allowed_values {
            list {
              type: DT_FLOAT
              type: DT_DOUBLE
              type: DT_INT64
              type: DT_INT32
              type: DT_UINT8
              type: DT_UINT16
              type: DT_INT16
              type: DT_INT8
              type: DT_COMPLEX64
              type: DT_COMPLEX128
              type: DT_QINT8
              type: DT_QUINT8
              type: DT_QINT32
              type: DT_HALF
              type: DT_UINT32
              type: DT_UINT64
              type: DT_BFLOAT16
            }
          }
        }
        attr {
          name: "data_format"
          type: "string"
          default_value {
            s: "NHWC"
          }
          allowed_values {
            list {
              s: "NHWC"
              s: "NCHW"
            }
          }
        }
      }
      op {
        name: "Cast"
        input_arg {
          name: "x"
          type_attr: "SrcT"
        }
        output_arg {
          name: "y"
          type_attr: "DstT"
        }
        attr {
          name: "SrcT"
          type: "type"
        }
        attr {
          name: "DstT"
          type: "type"
        }
      }
      op {
        name: "ConcatV2"
        input_arg {
          name: "values"
          type_attr: "T"
          number_attr: "N"
        }
        input_arg {
          name: "axis"
          type_attr: "Tidx"
        }
        output_arg {
          name: "output"
          type_attr: "T"
        }
        attr {
          name: "N"
          type: "int"
          has_minimum: true
          minimum: 2
        }
        attr {
          name: "T"
          type: "type"
        }
        attr {
          name: "Tidx"
          type: "type"
          default_value {
            type: DT_INT32
          }
          allowed_values {
            list {
              type: DT_INT32
              type: DT_INT64
            }
          }
        }
      }
      op {
        name: "Const"
        output_arg {
          name: "output"
          type_attr: "dtype"
        }
        attr {
          name: "value"
          type: "tensor"
        }
        attr {
          name: "dtype"
          type: "type"
        }
      }
      op {
        name: "DatasetToSingleElement"
        input_arg {
          name: "dataset"
          type: DT_VARIANT
        }
        output_arg {
          name: "components"
          type_list_attr: "output_types"
        }
        attr {
          name: "output_types"
          type: "list(type)"
          has_minimum: true
          minimum: 1
        }
        attr {
          name: "output_shapes"
          type: "list(shape)"
          has_minimum: true
          minimum: 1
        }
      }
      op {
        name: "Enter"
        input_arg {
          name: "data"
          type_attr: "T"
        }
        output_arg {
          name: "output"
          type_attr: "T"
        }
        attr {
          name: "T"
          type: "type"
        }
        attr {
          name: "frame_name"
          type: "string"
        }
        attr {
          name: "is_constant"
          type: "bool"
          default_value {
            b: false
          }
        }
        attr {
          name: "parallel_iterations"
          type: "int"
          default_value {
            i: 10
          }
        }
      }
      op {
        name: "Equal"
        input_arg {
          name: "x"
          type_attr: "T"
        }
        input_arg {
          name: "y"
          type_attr: "T"
        }
        output_arg {
          name: "z"
          type: DT_BOOL
        }
        attr {
          name: "T"
          type: "type"
          allowed_values {
            list {
              type: DT_HALF
              type: DT_BFLOAT16
              type: DT_FLOAT
              type: DT_DOUBLE
              type: DT_UINT8
              type: DT_INT8
              type: DT_INT16
              type: DT_INT32
              type: DT_INT64
              type: DT_COMPLEX64
              type: DT_QUINT8
              type: DT_QINT8
              type: DT_QINT32
              type: DT_STRING
              type: DT_BOOL
              type: DT_COMPLEX128
            }
          }
        }
        is_commutative: true
      }
      op {
        name: "Exit"
        input_arg {
          name: "data"
          type_attr: "T"
        }
        output_arg {
          name: "output"
          type_attr: "T"
        }
        attr {
          name: "T"
          type: "type"
        }
      }
      op {
        name: "Exp"
        input_arg {
          name: "x"
          type_attr: "T"
        }
        output_arg {
          name: "y"
          type_attr: "T"
        }
        attr {
          name: "T"
          type: "type"
          allowed_values {
            list {
              type: DT_HALF
              type: DT_BFLOAT16
              type: DT_FLOAT
              type: DT_DOUBLE
              type: DT_COMPLEX64
              type: DT_COMPLEX128
            }
          }
        }
      }
      op {
        name: "ExpandDims"
        input_arg {
          name: "input"
          type_attr: "T"
        }
        input_arg {
          name: "dim"
          type_attr: "Tdim"
        }
        output_arg {
          name: "output"
          type_attr: "T"
        }
        attr {
          name: "T"
          type: "type"
        }
        attr {
          name: "Tdim"
          type: "type"
          default_value {
            type: DT_INT32
          }
          allowed_values {
            list {
              type: DT_INT32
              type: DT_INT64
            }
          }
        }
      }
      op {
        name: "Fill"
        input_arg {
          name: "dims"
          type: DT_INT32
        }
        input_arg {
          name: "value"
          type_attr: "T"
        }
        output_arg {
          name: "output"
          type_attr: "T"
        }
        attr {
          name: "T"
          type: "type"
        }
      }
      op {
        name: "Floor"
        input_arg {
          name: "x"
          type_attr: "T"
        }
        output_arg {
          name: "y"
          type_attr: "T"
        }
        attr {
          name: "T"
          type: "type"
          allowed_values {
            list {
              type: DT_HALF
              type: DT_BFLOAT16
              type: DT_FLOAT
              type: DT_DOUBLE
            }
          }
        }
      }
      op {
        name: "FloorDiv"
        input_arg {
          name: "x"
          type_attr: "T"
        }
        input_arg {
          name: "y"
          type_attr: "T"
        }
        output_arg {
          name: "z"
          type_attr: "T"
        }
        attr {
          name: "T"
          type: "type"
          allowed_values {
            list {
              type: DT_HALF
              type: DT_BFLOAT16
              type: DT_FLOAT
              type: DT_DOUBLE
              type: DT_UINT8
              type: DT_INT8
              type: DT_UINT16
              type: DT_INT16
              type: DT_INT32
              type: DT_INT64
              type: DT_COMPLEX64
              type: DT_COMPLEX128
            }
          }
        }
      }
      op {
        name: "FloorMod"
        input_arg {
          name: "x"
          type_attr: "T"
        }
        input_arg {
          name: "y"
          type_attr: "T"
        }
        output_arg {
          name: "z"
          type_attr: "T"
        }
        attr {
          name: "T"
          type: "type"
          allowed_values {
            list {
              type: DT_INT32
              type: DT_INT64
              type: DT_BFLOAT16
              type: DT_FLOAT
              type: DT_DOUBLE
            }
          }
        }
      }
      op {
        name: "Gather"
        input_arg {
          name: "params"
          type_attr: "Tparams"
        }
        input_arg {
          name: "indices"
          type_attr: "Tindices"
        }
        output_arg {
          name: "output"
          type_attr: "Tparams"
        }
        attr {
          name: "validate_indices"
          type: "bool"
          default_value {
            b: true
          }
        }
        attr {
          name: "Tparams"
          type: "type"
        }
        attr {
          name: "Tindices"
          type: "type"
          allowed_values {
            list {
              type: DT_INT32
              type: DT_INT64
            }
          }
        }
      }
      op {
        name: "GatherNd"
        input_arg {
          name: "params"
          type_attr: "Tparams"
        }
        input_arg {
          name: "indices"
          type_attr: "Tindices"
        }
        output_arg {
          name: "output"
          type_attr: "Tparams"
        }
        attr {
          name: "Tparams"
          type: "type"
        }
        attr {
          name: "Tindices"
          type: "type"
          allowed_values {
            list {
              type: DT_INT32
              type: DT_INT64
            }
          }
        }
      }
      op {
        name: "Greater"
        input_arg {
          name: "x"
          type_attr: "T"
        }
        input_arg {
          name: "y"
          type_attr: "T"
        }
        output_arg {
          name: "z"
          type: DT_BOOL
        }
        attr {
          name: "T"
          type: "type"
          allowed_values {
            list {
              type: DT_FLOAT
              type: DT_DOUBLE
              type: DT_INT32
              type: DT_INT64
              type: DT_UINT8
              type: DT_INT16
              type: DT_INT8
              type: DT_UINT16
              type: DT_HALF
              type: DT_UINT32
              type: DT_UINT64
              type: DT_BFLOAT16
            }
          }
        }
      }
      op {
        name: "GreaterEqual"
        input_arg {
          name: "x"
          type_attr: "T"
        }
        input_arg {
          name: "y"
          type_attr: "T"
        }
        output_arg {
          name: "z"
          type: DT_BOOL
        }
        attr {
          name: "T"
          type: "type"
          allowed_values {
            list {
              type: DT_FLOAT
              type: DT_DOUBLE
              type: DT_INT32
              type: DT_INT64
              type: DT_UINT8
              type: DT_INT16
              type: DT_INT8
              type: DT_UINT16
              type: DT_HALF
              type: DT_UINT32
              type: DT_UINT64
              type: DT_BFLOAT16
            }
          }
        }
      }
      op {
        name: "Identity"
        input_arg {
          name: "input"
          type_attr: "T"
        }
        output_arg {
          name: "output"
          type_attr: "T"
        }
        attr {
          name: "T"
          type: "type"
        }
      }
      op {
        name: "IsFinite"
        input_arg {
          name: "x"
          type_attr: "T"
        }
        output_arg {
          name: "y"
          type: DT_BOOL
        }
        attr {
          name: "T"
          type: "type"
          allowed_values {
            list {
              type: DT_HALF
              type: DT_BFLOAT16
              type: DT_FLOAT
              type: DT_DOUBLE
            }
          }
        }
      }
      op {
        name: "Less"
        input_arg {
          name: "x"
          type_attr: "T"
        }
        input_arg {
          name: "y"
          type_attr: "T"
        }
        output_arg {
          name: "z"
          type: DT_BOOL
        }
        attr {
          name: "T"
          type: "type"
          allowed_values {
            list {
              type: DT_FLOAT
              type: DT_DOUBLE
              type: DT_INT32
              type: DT_INT64
              type: DT_UINT8
              type: DT_INT16
              type: DT_INT8
              type: DT_UINT16
              type: DT_HALF
              type: DT_UINT32
              type: DT_UINT64
              type: DT_BFLOAT16
            }
          }
        }
      }
      op {
        name: "ListDiff"
        input_arg {
          name: "x"
          type_attr: "T"
        }
        input_arg {
          name: "y"
          type_attr: "T"
        }
        output_arg {
          name: "out"
          type_attr: "T"
        }
        output_arg {
          name: "idx"
          type_attr: "out_idx"
        }
        attr {
          name: "T"
          type: "type"
        }
        attr {
          name: "out_idx"
          type: "type"
          default_value {
            type: DT_INT32
          }
          allowed_values {
            list {
              type: DT_INT32
              type: DT_INT64
            }
          }
        }
      }
      op {
        name: "Log"
        input_arg {
          name: "x"
          type_attr: "T"
        }
        output_arg {
          name: "y"
          type_attr: "T"
        }
        attr {
          name: "T"
          type: "type"
          allowed_values {
            list {
              type: DT_HALF
              type: DT_BFLOAT16
              type: DT_FLOAT
              type: DT_DOUBLE
              type: DT_COMPLEX64
              type: DT_COMPLEX128
            }
          }
        }
      }
      op {
        name: "LogicalAnd"
        input_arg {
          name: "x"
          type: DT_BOOL
        }
        input_arg {
          name: "y"
          type: DT_BOOL
        }
        output_arg {
          name: "z"
          type: DT_BOOL
        }
        is_commutative: true
      }
      op {
        name: "LogicalNot"
        input_arg {
          name: "x"
          type: DT_BOOL
        }
        output_arg {
          name: "y"
          type: DT_BOOL
        }
      }
      op {
        name: "LoopCond"
        input_arg {
          name: "input"
          type: DT_BOOL
        }
        output_arg {
          name: "output"
          type: DT_BOOL
        }
      }
      op {
        name: "MapDataset"
        input_arg {
          name: "input_dataset"
          type: DT_VARIANT
        }
        input_arg {
          name: "other_arguments"
          type_list_attr: "Targuments"
        }
        output_arg {
          name: "handle"
          type: DT_VARIANT
        }
        attr {
          name: "f"
          type: "func"
        }
        attr {
          name: "Targuments"
          type: "list(type)"
          has_minimum: true
        }
        attr {
          name: "output_types"
          type: "list(type)"
          has_minimum: true
          minimum: 1
        }
        attr {
          name: "output_shapes"
          type: "list(shape)"
          has_minimum: true
          minimum: 1
        }
      }
      op {
        name: "MatMul"
        input_arg {
          name: "a"
          type_attr: "T"
        }
        input_arg {
          name: "b"
          type_attr: "T"
        }
        output_arg {
          name: "product"
          type_attr: "T"
        }
        attr {
          name: "transpose_a"
          type: "bool"
          default_value {
            b: false
          }
        }
        attr {
          name: "transpose_b"
          type: "bool"
          default_value {
            b: false
          }
        }
        attr {
          name: "T"
          type: "type"
          allowed_values {
            list {
              type: DT_HALF
              type: DT_BFLOAT16
              type: DT_FLOAT
              type: DT_DOUBLE
              type: DT_INT32
              type: DT_COMPLEX64
              type: DT_COMPLEX128
            }
          }
        }
      }
      op {
        name: "Max"
        input_arg {
          name: "input"
          type_attr: "T"
        }
        input_arg {
          name: "reduction_indices"
          type_attr: "Tidx"
        }
        output_arg {
          name: "output"
          type_attr: "T"
        }
        attr {
          name: "keep_dims"
          type: "bool"
          default_value {
            b: false
          }
        }
        attr {
          name: "T"
          type: "type"
          allowed_values {
            list {
              type: DT_FLOAT
              type: DT_DOUBLE
              type: DT_INT64
              type: DT_INT32
              type: DT_UINT8
              type: DT_UINT16
              type: DT_INT16
              type: DT_INT8
              type: DT_COMPLEX64
              type: DT_COMPLEX128
              type: DT_QINT8
              type: DT_QUINT8
              type: DT_QINT32
              type: DT_HALF
              type: DT_UINT32
              type: DT_UINT64
              type: DT_BFLOAT16
            }
          }
        }
        attr {
          name: "Tidx"
          type: "type"
          default_value {
            type: DT_INT32
          }
          allowed_values {
            list {
              type: DT_INT32
              type: DT_INT64
            }
          }
        }
      }
      op {
        name: "Maximum"
        input_arg {
          name: "x"
          type_attr: "T"
        }
        input_arg {
          name: "y"
          type_attr: "T"
        }
        output_arg {
          name: "z"
          type_attr: "T"
        }
        attr {
          name: "T"
          type: "type"
          allowed_values {
            list {
              type: DT_HALF
              type: DT_BFLOAT16
              type: DT_FLOAT
              type: DT_DOUBLE
              type: DT_INT32
              type: DT_INT64
            }
          }
        }
        is_commutative: true
      }
      op {
        name: "Mean"
        input_arg {
          name: "input"
          type_attr: "T"
        }
        input_arg {
          name: "reduction_indices"
          type_attr: "Tidx"
        }
        output_arg {
          name: "output"
          type_attr: "T"
        }
        attr {
          name: "keep_dims"
          type: "bool"
          default_value {
            b: false
          }
        }
        attr {
          name: "T"
          type: "type"
          allowed_values {
            list {
              type: DT_FLOAT
              type: DT_DOUBLE
              type: DT_INT64
              type: DT_INT32
              type: DT_UINT8
              type: DT_UINT16
              type: DT_INT16
              type: DT_INT8
              type: DT_COMPLEX64
              type: DT_COMPLEX128
              type: DT_QINT8
              type: DT_QUINT8
              type: DT_QINT32
              type: DT_HALF
              type: DT_UINT32
              type: DT_UINT64
              type: DT_BFLOAT16
            }
          }
        }
        attr {
          name: "Tidx"
          type: "type"
          default_value {
            type: DT_INT32
          }
          allowed_values {
            list {
              type: DT_INT32
              type: DT_INT64
            }
          }
        }
      }
      op {
        name: "Merge"
        input_arg {
          name: "inputs"
          type_attr: "T"
          number_attr: "N"
        }
        output_arg {
          name: "output"
          type_attr: "T"
        }
        output_arg {
          name: "value_index"
          type: DT_INT32
        }
        attr {
          name: "T"
          type: "type"
        }
        attr {
          name: "N"
          type: "int"
          has_minimum: true
          minimum: 1
        }
      }
      op {
        name: "MergeV2Checkpoints"
        input_arg {
          name: "checkpoint_prefixes"
          type: DT_STRING
        }
        input_arg {
          name: "destination_prefix"
          type: DT_STRING
        }
        attr {
          name: "delete_old_dirs"
          type: "bool"
          default_value {
            b: true
          }
        }
        is_stateful: true
      }
      op {
        name: "Min"
        input_arg {
          name: "input"
          type_attr: "T"
        }
        input_arg {
          name: "reduction_indices"
          type_attr: "Tidx"
        }
        output_arg {
          name: "output"
          type_attr: "T"
        }
        attr {
          name: "keep_dims"
          type: "bool"
          default_value {
            b: false
          }
        }
        attr {
          name: "T"
          type: "type"
          allowed_values {
            list {
              type: DT_FLOAT
              type: DT_DOUBLE
              type: DT_INT64
              type: DT_INT32
              type: DT_UINT8
              type: DT_UINT16
              type: DT_INT16
              type: DT_INT8
              type: DT_COMPLEX64
              type: DT_COMPLEX128
              type: DT_QINT8
              type: DT_QUINT8
              type: DT_QINT32
              type: DT_HALF
              type: DT_UINT32
              type: DT_UINT64
              type: DT_BFLOAT16
            }
          }
        }
        attr {
          name: "Tidx"
          type: "type"
          default_value {
            type: DT_INT32
          }
          allowed_values {
            list {
              type: DT_INT32
              type: DT_INT64
            }
          }
        }
      }
      op {
        name: "Mul"
        input_arg {
          name: "x"
          type_attr: "T"
        }
        input_arg {
          name: "y"
          type_attr: "T"
        }
        output_arg {
          name: "z"
          type_attr: "T"
        }
        attr {
          name: "T"
          type: "type"
          allowed_values {
            list {
              type: DT_HALF
              type: DT_BFLOAT16
              type: DT_FLOAT
              type: DT_DOUBLE
              type: DT_UINT8
              type: DT_INT8
              type: DT_UINT16
              type: DT_INT16
              type: DT_INT32
              type: DT_INT64
              type: DT_COMPLEX64
              type: DT_COMPLEX128
            }
          }
        }
        is_commutative: true
      }
      op {
        name: "Neg"
        input_arg {
          name: "x"
          type_attr: "T"
        }
        output_arg {
          name: "y"
          type_attr: "T"
        }
        attr {
          name: "T"
          type: "type"
          allowed_values {
            list {
              type: DT_HALF
              type: DT_BFLOAT16
              type: DT_FLOAT
              type: DT_DOUBLE
              type: DT_INT32
              type: DT_INT64
              type: DT_COMPLEX64
              type: DT_COMPLEX128
            }
          }
        }
      }
      op {
        name: "NextIteration"
        input_arg {
          name: "data"
          type_attr: "T"
        }
        output_arg {
          name: "output"
          type_attr: "T"
        }
        attr {
          name: "T"
          type: "type"
        }
      }
      op {
        name: "NoOp"
      }
      op {
        name: "NotEqual"
        input_arg {
          name: "x"
          type_attr: "T"
        }
        input_arg {
          name: "y"
          type_attr: "T"
        }
        output_arg {
          name: "z"
          type: DT_BOOL
        }
        attr {
          name: "T"
          type: "type"
          allowed_values {
            list {
              type: DT_HALF
              type: DT_BFLOAT16
              type: DT_FLOAT
              type: DT_DOUBLE
              type: DT_UINT8
              type: DT_INT8
              type: DT_INT16
              type: DT_INT32
              type: DT_INT64
              type: DT_COMPLEX64
              type: DT_QUINT8
              type: DT_QINT8
              type: DT_QINT32
              type: DT_STRING
              type: DT_BOOL
              type: DT_COMPLEX128
            }
          }
        }
        is_commutative: true
      }
      op {
        name: "OneHot"
        input_arg {
          name: "indices"
          type_attr: "TI"
        }
        input_arg {
          name: "depth"
          type: DT_INT32
        }
        input_arg {
          name: "on_value"
          type_attr: "T"
        }
        input_arg {
          name: "off_value"
          type_attr: "T"
        }
        output_arg {
          name: "output"
          type_attr: "T"
        }
        attr {
          name: "axis"
          type: "int"
          default_value {
            i: -1
          }
        }
        attr {
          name: "T"
          type: "type"
        }
        attr {
          name: "TI"
          type: "type"
          default_value {
            type: DT_INT64
          }
          allowed_values {
            list {
              type: DT_UINT8
              type: DT_INT32
              type: DT_INT64
            }
          }
        }
      }
      op {
        name: "Pack"
        input_arg {
          name: "values"
          type_attr: "T"
          number_attr: "N"
        }
        output_arg {
          name: "output"
          type_attr: "T"
        }
        attr {
          name: "N"
          type: "int"
          has_minimum: true
          minimum: 1
        }
        attr {
          name: "T"
          type: "type"
        }
        attr {
          name: "axis"
          type: "int"
          default_value {
            i: 0
          }
        }
      }
      op {
        name: "Pad"
        input_arg {
          name: "input"
          type_attr: "T"
        }
        input_arg {
          name: "paddings"
          type_attr: "Tpaddings"
        }
        output_arg {
          name: "output"
          type_attr: "T"
        }
        attr {
          name: "T"
          type: "type"
        }
        attr {
          name: "Tpaddings"
          type: "type"
          default_value {
            type: DT_INT32
          }
          allowed_values {
            list {
              type: DT_INT32
              type: DT_INT64
            }
          }
        }
      }
      op {
        name: "PaddedBatchDataset"
        input_arg {
          name: "input_dataset"
          type: DT_VARIANT
        }
        input_arg {
          name: "batch_size"
          type: DT_INT64
        }
        input_arg {
          name: "padded_shapes"
          type: DT_INT64
          number_attr: "N"
        }
        input_arg {
          name: "padding_values"
          type_list_attr: "Toutput_types"
        }
        output_arg {
          name: "handle"
          type: DT_VARIANT
        }
        attr {
          name: "Toutput_types"
          type: "list(type)"
          has_minimum: true
          minimum: 1
        }
        attr {
          name: "output_shapes"
          type: "list(shape)"
          has_minimum: true
          minimum: 1
        }
        attr {
          name: "N"
          type: "int"
          has_minimum: true
          minimum: 1
        }
      }
      op {
        name: "Placeholder"
        output_arg {
          name: "output"
          type_attr: "dtype"
        }
        attr {
          name: "dtype"
          type: "type"
        }
        attr {
          name: "shape"
          type: "shape"
          default_value {
            shape {
              unknown_rank: true
            }
          }
        }
      }
      op {
        name: "Pow"
        input_arg {
          name: "x"
          type_attr: "T"
        }
        input_arg {
          name: "y"
          type_attr: "T"
        }
        output_arg {
          name: "z"
          type_attr: "T"
        }
        attr {
          name: "T"
          type: "type"
          allowed_values {
            list {
              type: DT_HALF
              type: DT_BFLOAT16
              type: DT_FLOAT
              type: DT_DOUBLE
              type: DT_INT32
              type: DT_INT64
              type: DT_COMPLEX64
              type: DT_COMPLEX128
            }
          }
        }
      }
      op {
        name: "Prod"
        input_arg {
          name: "input"
          type_attr: "T"
        }
        input_arg {
          name: "reduction_indices"
          type_attr: "Tidx"
        }
        output_arg {
          name: "output"
          type_attr: "T"
        }
        attr {
          name: "keep_dims"
          type: "bool"
          default_value {
            b: false
          }
        }
        attr {
          name: "T"
          type: "type"
          allowed_values {
            list {
              type: DT_FLOAT
              type: DT_DOUBLE
              type: DT_INT64
              type: DT_INT32
              type: DT_UINT8
              type: DT_UINT16
              type: DT_INT16
              type: DT_INT8
              type: DT_COMPLEX64
              type: DT_COMPLEX128
              type: DT_QINT8
              type: DT_QUINT8
              type: DT_QINT32
              type: DT_HALF
              type: DT_UINT32
              type: DT_UINT64
              type: DT_BFLOAT16
            }
          }
        }
        attr {
          name: "Tidx"
          type: "type"
          default_value {
            type: DT_INT32
          }
          allowed_values {
            list {
              type: DT_INT32
              type: DT_INT64
            }
          }
        }
      }
      op {
        name: "RandomStandardNormal"
        input_arg {
          name: "shape"
          type_attr: "T"
        }
        output_arg {
          name: "output"
          type_attr: "dtype"
        }
        attr {
          name: "seed"
          type: "int"
          default_value {
            i: 0
          }
        }
        attr {
          name: "seed2"
          type: "int"
          default_value {
            i: 0
          }
        }
        attr {
          name: "dtype"
          type: "type"
          allowed_values {
            list {
              type: DT_HALF
              type: DT_BFLOAT16
              type: DT_FLOAT
              type: DT_DOUBLE
            }
          }
        }
        attr {
          name: "T"
          type: "type"
          allowed_values {
            list {
              type: DT_INT32
              type: DT_INT64
            }
          }
        }
        is_stateful: true
      }
      op {
        name: "RandomUniform"
        input_arg {
          name: "shape"
          type_attr: "T"
        }
        output_arg {
          name: "output"
          type_attr: "dtype"
        }
        attr {
          name: "seed"
          type: "int"
          default_value {
            i: 0
          }
        }
        attr {
          name: "seed2"
          type: "int"
          default_value {
            i: 0
          }
        }
        attr {
          name: "dtype"
          type: "type"
          allowed_values {
            list {
              type: DT_HALF
              type: DT_BFLOAT16
              type: DT_FLOAT
              type: DT_DOUBLE
            }
          }
        }
        attr {
          name: "T"
          type: "type"
          allowed_values {
            list {
              type: DT_INT32
              type: DT_INT64
            }
          }
        }
        is_stateful: true
      }
      op {
        name: "Range"
        input_arg {
          name: "start"
          type_attr: "Tidx"
        }
        input_arg {
          name: "limit"
          type_attr: "Tidx"
        }
        input_arg {
          name: "delta"
          type_attr: "Tidx"
        }
        output_arg {
          name: "output"
          type_attr: "Tidx"
        }
        attr {
          name: "Tidx"
          type: "type"
          default_value {
            type: DT_INT32
          }
          allowed_values {
            list {
              type: DT_BFLOAT16
              type: DT_FLOAT
              type: DT_DOUBLE
              type: DT_INT32
              type: DT_INT64
            }
          }
        }
      }
      op {
        name: "RealDiv"
        input_arg {
          name: "x"
          type_attr: "T"
        }
        input_arg {
          name: "y"
          type_attr: "T"
        }
        output_arg {
          name: "z"
          type_attr: "T"
        }
        attr {
          name: "T"
          type: "type"
          allowed_values {
            list {
              type: DT_HALF
              type: DT_BFLOAT16
              type: DT_FLOAT
              type: DT_DOUBLE
              type: DT_UINT8
              type: DT_INT8
              type: DT_UINT16
              type: DT_INT16
              type: DT_INT32
              type: DT_INT64
              type: DT_COMPLEX64
              type: DT_COMPLEX128
            }
          }
        }
      }
      op {
        name: "Reshape"
        input_arg {
          name: "tensor"
          type_attr: "T"
        }
        input_arg {
          name: "shape"
          type_attr: "Tshape"
        }
        output_arg {
          name: "output"
          type_attr: "T"
        }
        attr {
          name: "T"
          type: "type"
        }
        attr {
          name: "Tshape"
          type: "type"
          default_value {
            type: DT_INT32
          }
          allowed_values {
            list {
              type: DT_INT32
              type: DT_INT64
            }
          }
        }
      }
      op {
        name: "RestoreV2"
        input_arg {
          name: "prefix"
          type: DT_STRING
        }
        input_arg {
          name: "tensor_names"
          type: DT_STRING
        }
        input_arg {
          name: "shape_and_slices"
          type: DT_STRING
        }
        output_arg {
          name: "tensors"
          type_list_attr: "dtypes"
        }
        attr {
          name: "dtypes"
          type: "list(type)"
          has_minimum: true
          minimum: 1
        }
        is_stateful: true
      }
      op {
        name: "ReverseV2"
        input_arg {
          name: "tensor"
          type_attr: "T"
        }
        input_arg {
          name: "axis"
          type_attr: "Tidx"
        }
        output_arg {
          name: "output"
          type_attr: "T"
        }
        attr {
          name: "Tidx"
          type: "type"
          default_value {
            type: DT_INT32
          }
          allowed_values {
            list {
              type: DT_INT32
              type: DT_INT64
            }
          }
        }
        attr {
          name: "T"
          type: "type"
          allowed_values {
            list {
              type: DT_UINT8
              type: DT_INT8
              type: DT_UINT16
              type: DT_INT16
              type: DT_INT32
              type: DT_INT64
              type: DT_BOOL
              type: DT_HALF
              type: DT_BFLOAT16
              type: DT_FLOAT
              type: DT_DOUBLE
              type: DT_COMPLEX64
              type: DT_COMPLEX128
              type: DT_STRING
            }
          }
        }
      }
      op {
        name: "SaveV2"
        input_arg {
          name: "prefix"
          type: DT_STRING
        }
        input_arg {
          name: "tensor_names"
          type: DT_STRING
        }
        input_arg {
          name: "shape_and_slices"
          type: DT_STRING
        }
        input_arg {
          name: "tensors"
          type_list_attr: "dtypes"
        }
        attr {
          name: "dtypes"
          type: "list(type)"
          has_minimum: true
          minimum: 1
        }
        is_stateful: true
      }
      op {
        name: "Select"
        input_arg {
          name: "condition"
          type: DT_BOOL
        }
        input_arg {
          name: "t"
          type_attr: "T"
        }
        input_arg {
          name: "e"
          type_attr: "T"
        }
        output_arg {
          name: "output"
          type_attr: "T"
        }
        attr {
          name: "T"
          type: "type"
        }
      }
      op {
        name: "Shape"
        input_arg {
          name: "input"
          type_attr: "T"
        }
        output_arg {
          name: "output"
          type_attr: "out_type"
        }
        attr {
          name: "T"
          type: "type"
        }
        attr {
          name: "out_type"
          type: "type"
          default_value {
            type: DT_INT32
          }
          allowed_values {
            list {
              type: DT_INT32
              type: DT_INT64
            }
          }
        }
      }
      op {
        name: "ShardedFilename"
        input_arg {
          name: "basename"
          type: DT_STRING
        }
        input_arg {
          name: "shard"
          type: DT_INT32
        }
        input_arg {
          name: "num_shards"
          type: DT_INT32
        }
        output_arg {
          name: "filename"
          type: DT_STRING
        }
      }
      op {
        name: "Sigmoid"
        input_arg {
          name: "x"
          type_attr: "T"
        }
        output_arg {
          name: "y"
          type_attr: "T"
        }
        attr {
          name: "T"
          type: "type"
          allowed_values {
            list {
              type: DT_HALF
              type: DT_BFLOAT16
              type: DT_FLOAT
              type: DT_DOUBLE
              type: DT_COMPLEX64
              type: DT_COMPLEX128
            }
          }
        }
      }
      op {
        name: "Slice"
        input_arg {
          name: "input"
          type_attr: "T"
        }
        input_arg {
          name: "begin"
          type_attr: "Index"
        }
        input_arg {
          name: "size"
          type_attr: "Index"
        }
        output_arg {
          name: "output"
          type_attr: "T"
        }
        attr {
          name: "T"
          type: "type"
        }
        attr {
          name: "Index"
          type: "type"
          allowed_values {
            list {
              type: DT_INT32
              type: DT_INT64
            }
          }
        }
      }
      op {
        name: "Softmax"
        input_arg {
          name: "logits"
          type_attr: "T"
        }
        output_arg {
          name: "softmax"
          type_attr: "T"
        }
        attr {
          name: "T"
          type: "type"
          allowed_values {
            list {
              type: DT_HALF
              type: DT_BFLOAT16
              type: DT_FLOAT
              type: DT_DOUBLE
            }
          }
        }
      }
      op {
        name: "SoftmaxCrossEntropyWithLogits"
        input_arg {
          name: "features"
          type_attr: "T"
        }
        input_arg {
          name: "labels"
          type_attr: "T"
        }
        output_arg {
          name: "loss"
          type_attr: "T"
        }
        output_arg {
          name: "backprop"
          type_attr: "T"
        }
        attr {
          name: "T"
          type: "type"
          allowed_values {
            list {
              type: DT_HALF
              type: DT_BFLOAT16
              type: DT_FLOAT
              type: DT_DOUBLE
            }
          }
        }
      }
      op {
        name: "Split"
        input_arg {
          name: "split_dim"
          type: DT_INT32
        }
        input_arg {
          name: "value"
          type_attr: "T"
        }
        output_arg {
          name: "output"
          type_attr: "T"
          number_attr: "num_split"
        }
        attr {
          name: "num_split"
          type: "int"
          has_minimum: true
          minimum: 1
        }
        attr {
          name: "T"
          type: "type"
        }
      }
      op {
        name: "Squeeze"
        input_arg {
          name: "input"
          type_attr: "T"
        }
        output_arg {
          name: "output"
          type_attr: "T"
        }
        attr {
          name: "T"
          type: "type"
        }
        attr {
          name: "squeeze_dims"
          type: "list(int)"
          default_value {
            list {
            }
          }
          has_minimum: true
        }
      }
      op {
        name: "StopGradient"
        input_arg {
          name: "input"
          type_attr: "T"
        }
        output_arg {
          name: "output"
          type_attr: "T"
        }
        attr {
          name: "T"
          type: "type"
        }
      }
      op {
        name: "StridedSlice"
        input_arg {
          name: "input"
          type_attr: "T"
        }
        input_arg {
          name: "begin"
          type_attr: "Index"
        }
        input_arg {
          name: "end"
          type_attr: "Index"
        }
        input_arg {
          name: "strides"
          type_attr: "Index"
        }
        output_arg {
          name: "output"
          type_attr: "T"
        }
        attr {
          name: "T"
          type: "type"
        }
        attr {
          name: "Index"
          type: "type"
          allowed_values {
            list {
              type: DT_INT32
              type: DT_INT64
            }
          }
        }
        attr {
          name: "begin_mask"
          type: "int"
          default_value {
            i: 0
          }
        }
        attr {
          name: "end_mask"
          type: "int"
          default_value {
            i: 0
          }
        }
        attr {
          name: "ellipsis_mask"
          type: "int"
          default_value {
            i: 0
          }
        }
        attr {
          name: "new_axis_mask"
          type: "int"
          default_value {
            i: 0
          }
        }
        attr {
          name: "shrink_axis_mask"
          type: "int"
          default_value {
            i: 0
          }
        }
      }
      op {
        name: "StringJoin"
        input_arg {
          name: "inputs"
          type: DT_STRING
          number_attr: "N"
        }
        output_arg {
          name: "output"
          type: DT_STRING
        }
        attr {
          name: "N"
          type: "int"
          has_minimum: true
          minimum: 1
        }
        attr {
          name: "separator"
          type: "string"
          default_value {
            s: ""
          }
        }
      }
      op {
        name: "Sub"
        input_arg {
          name: "x"
          type_attr: "T"
        }
        input_arg {
          name: "y"
          type_attr: "T"
        }
        output_arg {
          name: "z"
          type_attr: "T"
        }
        attr {
          name: "T"
          type: "type"
          allowed_values {
            list {
              type: DT_HALF
              type: DT_BFLOAT16
              type: DT_FLOAT
              type: DT_DOUBLE
              type: DT_UINT8
              type: DT_INT8
              type: DT_UINT16
              type: DT_INT16
              type: DT_INT32
              type: DT_INT64
              type: DT_COMPLEX64
              type: DT_COMPLEX128
            }
          }
        }
      }
      op {
        name: "Sum"
        input_arg {
          name: "input"
          type_attr: "T"
        }
        input_arg {
          name: "reduction_indices"
          type_attr: "Tidx"
        }
        output_arg {
          name: "output"
          type_attr: "T"
        }
        attr {
          name: "keep_dims"
          type: "bool"
          default_value {
            b: false
          }
        }
        attr {
          name: "T"
          type: "type"
          allowed_values {
            list {
              type: DT_FLOAT
              type: DT_DOUBLE
              type: DT_INT64
              type: DT_INT32
              type: DT_UINT8
              type: DT_UINT16
              type: DT_INT16
              type: DT_INT8
              type: DT_COMPLEX64
              type: DT_COMPLEX128
              type: DT_QINT8
              type: DT_QUINT8
              type: DT_QINT32
              type: DT_HALF
              type: DT_UINT32
              type: DT_UINT64
              type: DT_BFLOAT16
            }
          }
        }
        attr {
          name: "Tidx"
          type: "type"
          default_value {
            type: DT_INT32
          }
          allowed_values {
            list {
              type: DT_INT32
              type: DT_INT64
            }
          }
        }
      }
      op {
        name: "Switch"
        input_arg {
          name: "data"
          type_attr: "T"
        }
        input_arg {
          name: "pred"
          type: DT_BOOL
        }
        output_arg {
          name: "output_false"
          type_attr: "T"
        }
        output_arg {
          name: "output_true"
          type_attr: "T"
        }
        attr {
          name: "T"
          type: "type"
        }
      }
      op {
        name: "Tanh"
        input_arg {
          name: "x"
          type_attr: "T"
        }
        output_arg {
          name: "y"
          type_attr: "T"
        }
        attr {
          name: "T"
          type: "type"
          allowed_values {
            list {
              type: DT_HALF
              type: DT_BFLOAT16
              type: DT_FLOAT
              type: DT_DOUBLE
              type: DT_COMPLEX64
              type: DT_COMPLEX128
            }
          }
        }
      }
      op {
        name: "TensorArrayGatherV3"
        input_arg {
          name: "handle"
          type: DT_RESOURCE
        }
        input_arg {
          name: "indices"
          type: DT_INT32
        }
        input_arg {
          name: "flow_in"
          type: DT_FLOAT
        }
        output_arg {
          name: "value"
          type_attr: "dtype"
        }
        attr {
          name: "dtype"
          type: "type"
        }
        attr {
          name: "element_shape"
          type: "shape"
          default_value {
            shape {
              unknown_rank: true
            }
          }
        }
        is_stateful: true
      }
      op {
        name: "TensorArrayReadV3"
        input_arg {
          name: "handle"
          type: DT_RESOURCE
        }
        input_arg {
          name: "index"
          type: DT_INT32
        }
        input_arg {
          name: "flow_in"
          type: DT_FLOAT
        }
        output_arg {
          name: "value"
          type_attr: "dtype"
        }
        attr {
          name: "dtype"
          type: "type"
        }
        is_stateful: true
      }
      op {
        name: "TensorArrayScatterV3"
        input_arg {
          name: "handle"
          type: DT_RESOURCE
        }
        input_arg {
          name: "indices"
          type: DT_INT32
        }
        input_arg {
          name: "value"
          type_attr: "T"
        }
        input_arg {
          name: "flow_in"
          type: DT_FLOAT
        }
        output_arg {
          name: "flow_out"
          type: DT_FLOAT
        }
        attr {
          name: "T"
          type: "type"
        }
        is_stateful: true
      }
      op {
        name: "TensorArraySizeV3"
        input_arg {
          name: "handle"
          type: DT_RESOURCE
        }
        input_arg {
          name: "flow_in"
          type: DT_FLOAT
        }
        output_arg {
          name: "size"
          type: DT_INT32
        }
        is_stateful: true
      }
      op {
        name: "TensorArrayV3"
        input_arg {
          name: "size"
          type: DT_INT32
        }
        output_arg {
          name: "handle"
          type: DT_RESOURCE
        }
        output_arg {
          name: "flow"
          type: DT_FLOAT
        }
        attr {
          name: "dtype"
          type: "type"
        }
        attr {
          name: "element_shape"
          type: "shape"
          default_value {
            shape {
              unknown_rank: true
            }
          }
        }
        attr {
          name: "dynamic_size"
          type: "bool"
          default_value {
            b: false
          }
        }
        attr {
          name: "clear_after_read"
          type: "bool"
          default_value {
            b: true
          }
        }
        attr {
          name: "identical_element_shapes"
          type: "bool"
          default_value {
            b: false
          }
        }
        attr {
          name: "tensor_array_name"
          type: "string"
          default_value {
            s: ""
          }
        }
        is_stateful: true
      }
      op {
        name: "TensorArrayWriteV3"
        input_arg {
          name: "handle"
          type: DT_RESOURCE
        }
        input_arg {
          name: "index"
          type: DT_INT32
        }
        input_arg {
          name: "value"
          type_attr: "T"
        }
        input_arg {
          name: "flow_in"
          type: DT_FLOAT
        }
        output_arg {
          name: "flow_out"
          type: DT_FLOAT
        }
        attr {
          name: "T"
          type: "type"
        }
        is_stateful: true
      }
      op {
        name: "TensorSliceDataset"
        input_arg {
          name: "components"
          type_list_attr: "Toutput_types"
        }
        output_arg {
          name: "handle"
          type: DT_VARIANT
        }
        attr {
          name: "Toutput_types"
          type: "list(type)"
          has_minimum: true
          minimum: 1
        }
        attr {
          name: "output_shapes"
          type: "list(shape)"
          has_minimum: true
          minimum: 1
        }
        is_stateful: true
      }
      op {
        name: "Tile"
        input_arg {
          name: "input"
          type_attr: "T"
        }
        input_arg {
          name: "multiples"
          type_attr: "Tmultiples"
        }
        output_arg {
          name: "output"
          type_attr: "T"
        }
        attr {
          name: "T"
          type: "type"
        }
        attr {
          name: "Tmultiples"
          type: "type"
          default_value {
            type: DT_INT32
          }
          allowed_values {
            list {
              type: DT_INT32
              type: DT_INT64
            }
          }
        }
      }
      op {
        name: "TopKV2"
        input_arg {
          name: "input"
          type_attr: "T"
        }
        input_arg {
          name: "k"
          type: DT_INT32
        }
        output_arg {
          name: "values"
          type_attr: "T"
        }
        output_arg {
          name: "indices"
          type: DT_INT32
        }
        attr {
          name: "sorted"
          type: "bool"
          default_value {
            b: true
          }
        }
        attr {
          name: "T"
          type: "type"
          allowed_values {
            list {
              type: DT_FLOAT
              type: DT_DOUBLE
              type: DT_INT32
              type: DT_INT64
              type: DT_UINT8
              type: DT_INT16
              type: DT_INT8
              type: DT_UINT16
              type: DT_HALF
              type: DT_UINT32
              type: DT_UINT64
              type: DT_BFLOAT16
            }
          }
        }
      }
      op {
        name: "Transpose"
        input_arg {
          name: "x"
          type_attr: "T"
        }
        input_arg {
          name: "perm"
          type_attr: "Tperm"
        }
        output_arg {
          name: "y"
          type_attr: "T"
        }
        attr {
          name: "T"
          type: "type"
        }
        attr {
          name: "Tperm"
          type: "type"
          default_value {
            type: DT_INT32
          }
          allowed_values {
            list {
              type: DT_INT32
              type: DT_INT64
            }
          }
        }
      }
      op {
        name: "VariableV2"
        output_arg {
          name: "ref"
          type_attr: "dtype"
          is_ref: true
        }
        attr {
          name: "shape"
          type: "shape"
        }
        attr {
          name: "dtype"
          type: "type"
        }
        attr {
          name: "container"
          type: "string"
          default_value {
            s: ""
          }
        }
        attr {
          name: "shared_name"
          type: "string"
          default_value {
            s: ""
          }
        }
        is_stateful: true
      }
      op {
        name: "ZerosLike"
        input_arg {
          name: "x"
          type_attr: "T"
        }
        output_arg {
          name: "y"
          type_attr: "T"
        }
        attr {
          name: "T"
          type: "type"
        }
      }
    }
    tags: "serve"
    tensorflow_version: "1.5.0"
    tensorflow_git_version: "v1.5.0-0-g37aa430d84"
  }
  graph_def {
    node {
      name: "global_step/Initializer/zeros"
      op: "Const"
      attr {
        key: "_class"
        value {
          list {
            s: "loc:@global_step"
          }
        }
      }
      attr {
        key: "_output_shapes"
        value {
          list {
            shape {
            }
          }
        }
      }
      attr {
        key: "dtype"
        value {
          type: DT_INT64
        }
      }
      attr {
        key: "value"
        value {
          tensor {
            dtype: DT_INT64
            tensor_shape {
            }
            int64_val: 0
          }
        }
      }
    }
    node {
      name: "global_step"
      op: "VariableV2"
      attr {
        key: "_class"
        value {
          list {
            s: "loc:@global_step"
          }
        }
      }
      attr {
        key: "_output_shapes"
        value {
          list {
            shape {
            }
          }
        }
      }
      attr {
        key: "container"
        value {
          s: ""
        }
      }
      attr {
        key: "dtype"
        value {
          type: DT_INT64
        }
      }
      attr {
        key: "shape"
        value {
          shape {
          }
        }
      }
      attr {
        key: "shared_name"
        value {
          s: ""
        }
      }
    }
    node {
      name: "global_step/Assign"
      op: "Assign"
      input: "global_step"
      input: "global_step/Initializer/zeros"
      attr {
        key: "T"
        value {
          type: DT_INT64
        }
      }
      attr {
        key: "_class"
        value {
          list {
            s: "loc:@global_step"
          }
        }
      }
      attr {
        key: "_output_shapes"
        value {
          list {
            shape {
            }
          }
        }
      }
      attr {
        key: "use_locking"
        value {
          b: true
        }
      }
      attr {
        key: "validate_shape"
        value {
          b: true
        }
      }
    }
    node {
      name: "global_step/read"
      op: "Identity"
      input: "global_step"
      attr {
        key: "T"
        value {
          type: DT_INT64
        }
      }
      attr {
        key: "_class"
        value {
          list {
            s: "loc:@global_step"
          }
        }
      }
      attr {
        key: "_output_shapes"
        value {
          list {
            shape {
            }
          }
        }
      }
    }
    node {
      name: "serialized_example"
      op: "Placeholder"
      attr {
        key: "_output_shapes"
        value {
          list {
            shape {
              dim {
                size: -1
              }
            }
          }
        }
      }
      attr {
        key: "dtype"
        value {
          type: DT_STRING
        }
      }
      attr {
        key: "shape"
        value {
          shape {
            dim {
              size: -1
            }
          }
        }
      }
    }
    node {
      name: "batch_size"
      op: "Const"
      attr {
        key: "_output_shapes"
        value {
          list {
            shape {
            }
          }
        }
      }
      attr {
        key: "dtype"
        value {
          type: DT_INT64
        }
      }
      attr {
        key: "value"
        value {
          tensor {
            dtype: DT_INT64
            tensor_shape {
            }
            int64_val: 1000
          }
        }
      }
    }
    node {
      name: "Const"
      op: "Const"
      attr {
        key: "_output_shapes"
        value {
          list {
            shape {
              dim {
                size: 1
              }
            }
          }
        }
      }
      attr {
        key: "dtype"
        value {
          type: DT_INT64
        }
      }
      attr {
        key: "value"
        value {
          tensor {
            dtype: DT_INT64
            tensor_shape {
              dim {
                size: 1
              }
            }
            int64_val: 1
          }
        }
      }
    }
    node {
      name: "Const_1"
      op: "Const"
      attr {
        key: "_output_shapes"
        value {
          list {
            shape {
              dim {
                size: 1
              }
            }
          }
        }
      }
      attr {
        key: "dtype"
        value {
          type: DT_INT64
        }
      }
      attr {
        key: "value"
        value {
          tensor {
            dtype: DT_INT64
            tensor_shape {
              dim {
                size: 1
              }
            }
            int64_val: -1
          }
        }
      }
    }
    node {
      name: "Const_2"
      op: "Const"
      attr {
        key: "_output_shapes"
        value {
          list {
            shape {
              dim {
                size: 1
              }
            }
          }
        }
      }
      attr {
        key: "dtype"
        value {
          type: DT_INT64
        }
      }
      attr {
        key: "value"
        value {
          tensor {
            dtype: DT_INT64
            tensor_shape {
              dim {
                size: 1
              }
            }
            int64_val: -1
          }
        }
      }
    }
    node {
      name: "padding_value"
      op: "Const"
      attr {
        key: "_output_shapes"
        value {
          list {
            shape {
            }
          }
        }
      }
      attr {
        key: "dtype"
        value {
          type: DT_INT32
        }
      }
      attr {
        key: "value"
        value {
          tensor {
            dtype: DT_INT32
            tensor_shape {
            }
            int_val: 0
          }
        }
      }
    }
    node {
      name: "padding_value_1"
      op: "Const"
      attr {
        key: "_output_shapes"
        value {
          list {
            shape {
            }
          }
        }
      }
      attr {
        key: "dtype"
        value {
          type: DT_INT32
        }
      }
      attr {
        key: "value"
        value {
          tensor {
            dtype: DT_INT32
            tensor_shape {
            }
            int_val: 0
          }
        }
      }
    }
    node {
      name: "padding_value_2"
      op: "Const"
      attr {
        key: "_output_shapes"
        value {
          list {
            shape {
            }
          }
        }
      }
      attr {
        key: "dtype"
        value {
          type: DT_INT32
        }
      }
      attr {
        key: "value"
        value {
          tensor {
            dtype: DT_INT32
            tensor_shape {
            }
            int_val: 0
          }
        }
      }
    }
    node {
      name: "TensorSliceDataset"
      op: "TensorSliceDataset"
      input: "serialized_example"
      attr {
        key: "Toutput_types"
        value {
          list {
            type: DT_STRING
          }
        }
      }
      attr {
        key: "_output_shapes"
        value {
          list {
            shape {
            }
          }
        }
      }
      attr {
        key: "output_shapes"
        value {
          list {
            shape {
            }
          }
        }
      }
    }
    node {
      name: "MapDataset"
      op: "MapDataset"
      input: "TensorSliceDataset"
      attr {
        key: "Targuments"
        value {
          list {
          }
        }
      }
      attr {
        key: "_output_shapes"
        value {
          list {
            shape {
            }
          }
        }
      }
      attr {
        key: "f"
        value {
          func {
            name: "tf_map_func_231990f7"
          }
        }
      }
      attr {
        key: "output_shapes"
        value {
          list {
            shape {
              dim {
                size: 1
              }
            }
            shape {
              dim {
                size: -1
              }
            }
            shape {
              dim {
                size: -1
              }
            }
          }
        }
      }
      attr {
        key: "output_types"
        value {
          list {
            type: DT_INT64
            type: DT_INT64
            type: DT_INT64
          }
        }
      }
    }
    node {
      name: "MapDataset_1"
      op: "MapDataset"
      input: "MapDataset"
      attr {
        key: "Targuments"
        value {
          list {
          }
        }
      }
      attr {
        key: "_output_shapes"
        value {
          list {
            shape {
            }
          }
        }
      }
      attr {
        key: "f"
        value {
          func {
            name: "tf_map_func_f2064ac4"
          }
        }
      }
      attr {
        key: "output_shapes"
        value {
          list {
            shape {
              dim {
                size: 1
              }
            }
            shape {
              dim {
                size: -1
              }
            }
            shape {
              dim {
                size: -1
              }
            }
          }
        }
      }
      attr {
        key: "output_types"
        value {
          list {
            type: DT_INT64
            type: DT_INT64
            type: DT_INT64
          }
        }
      }
    }
    node {
      name: "MapDataset_2"
      op: "MapDataset"
      input: "MapDataset_1"
      attr {
        key: "Targuments"
        value {
          list {
          }
        }
      }
      attr {
        key: "_output_shapes"
        value {
          list {
            shape {
            }
          }
        }
      }
      attr {
        key: "f"
        value {
          func {
            name: "tf_map_func_f2064ac4"
          }
        }
      }
      attr {
        key: "output_shapes"
        value {
          list {
            shape {
              dim {
                size: 1
              }
            }
            shape {
              dim {
                size: -1
              }
            }
            shape {
              dim {
                size: -1
              }
            }
          }
        }
      }
      attr {
        key: "output_types"
        value {
          list {
            type: DT_INT64
            type: DT_INT64
            type: DT_INT64
          }
        }
      }
    }
    node {
      name: "MapDataset_3"
      op: "MapDataset"
      input: "MapDataset_2"
      attr {
        key: "Targuments"
        value {
          list {
          }
        }
      }
      attr {
        key: "_output_shapes"
        value {
          list {
            shape {
            }
          }
        }
      }
      attr {
        key: "f"
        value {
          func {
            name: "tf_map_func_4e317ed0"
          }
        }
      }
      attr {
        key: "output_shapes"
        value {
          list {
            shape {
              dim {
                size: 1
              }
            }
            shape {
              dim {
                size: -1
              }
            }
            shape {
              dim {
                size: -1
              }
            }
          }
        }
      }
      attr {
        key: "output_types"
        value {
          list {
            type: DT_INT32
            type: DT_INT32
            type: DT_INT32
          }
        }
      }
    }
    node {
      name: "PaddedBatchDataset"
      op: "PaddedBatchDataset"
      input: "MapDataset_3"
      input: "batch_size"
      input: "Const"
      input: "Const_1"
      input: "Const_2"
      input: "padding_value"
      input: "padding_value_1"
      input: "padding_value_2"
      attr {
        key: "N"
        value {
          i: 3
        }
      }
      attr {
        key: "Toutput_types"
        value {
          list {
            type: DT_INT32
            type: DT_INT32
            type: DT_INT32
          }
        }
      }
      attr {
        key: "_output_shapes"
        value {
          list {
            shape {
            }
          }
        }
      }
      attr {
        key: "output_shapes"
        value {
          list {
            shape {
              dim {
                size: -1
              }
              dim {
                size: 1
              }
            }
            shape {
              dim {
                size: -1
              }
              dim {
                size: -1
              }
            }
            shape {
              dim {
                size: -1
              }
              dim {
                size: -1
              }
            }
          }
        }
      }
    }
    node {
      name: "MapDataset_4"
      op: "MapDataset"
      input: "PaddedBatchDataset"
      attr {
        key: "Targuments"
        value {
          list {
          }
        }
      }
      attr {
        key: "_output_shapes"
        value {
          list {
            shape {
            }
          }
        }
      }
      attr {
        key: "f"
        value {
          func {
            name: "tf_map_func_13841386"
          }
        }
      }
      attr {
        key: "output_shapes"
        value {
          list {
            shape {
              dim {
                size: -1
              }
              dim {
                size: 1
              }
            }
            shape {
              dim {
                size: -1
              }
              dim {
                size: -1
              }
              dim {
                size: 1
              }
              dim {
                size: 1
              }
            }
            shape {
              dim {
                size: -1
              }
              dim {
                size: -1
              }
              dim {
                size: 1
              }
              dim {
                size: 1
              }
            }
          }
        }
      }
      attr {
        key: "output_types"
        value {
          list {
            type: DT_INT32
            type: DT_INT32
            type: DT_INT32
          }
        }
      }
    }
    node {
      name: "DatasetToSingleElement"
      op: "DatasetToSingleElement"
      input: "MapDataset_4"
      attr {
        key: "_output_shapes"
        value {
          list {
            shape {
              dim {
                size: -1
              }
              dim {
                size: 1
              }
            }
            shape {
              dim {
                size: -1
              }
              dim {
                size: -1
              }
              dim {
                size: 1
              }
              dim {
                size: 1
              }
            }
            shape {
              dim {
                size: -1
              }
              dim {
                size: -1
              }
              dim {
                size: 1
              }
              dim {
                size: 1
              }
            }
          }
        }
      }
      attr {
        key: "output_shapes"
        value {
          list {
            shape {
              dim {
                size: -1
              }
              dim {
                size: 1
              }
            }
            shape {
              dim {
                size: -1
              }
              dim {
                size: -1
              }
              dim {
                size: 1
              }
              dim {
                size: 1
              }
            }
            shape {
              dim {
                size: -1
              }
              dim {
                size: -1
              }
              dim {
                size: 1
              }
              dim {
                size: 1
              }
            }
          }
        }
      }
      attr {
        key: "output_types"
        value {
          list {
            type: DT_INT32
            type: DT_INT32
            type: DT_INT32
          }
        }
      }
    }
    node {
      name: "losses_avg/problem_0/total_loss/initial_value"
      op: "Const"
      attr {
        key: "_output_shapes"
        value {
          list {
            shape {
            }
          }
        }
      }
      attr {
        key: "dtype"
        value {
          type: DT_FLOAT
        }
      }
      attr {
        key: "value"
        value {
          tensor {
            dtype: DT_FLOAT
            tensor_shape {
            }
            float_val: 100.0
          }
        }
      }
    }
    node {
      name: "losses_avg/problem_0/total_loss"
      op: "VariableV2"
      attr {
        key: "_output_shapes"
        value {
          list {
            shape {
            }
          }
        }
      }
      attr {
        key: "container"
        value {
          s: ""
        }
      }
      attr {
        key: "dtype"
        value {
          type: DT_FLOAT
        }
      }
      attr {
        key: "shape"
        value {
          shape {
          }
        }
      }
      attr {
        key: "shared_name"
        value {
          s: ""
        }
      }
    }
    node {
      name: "losses_avg/problem_0/total_loss/Assign"
      op: "Assign"
      input: "losses_avg/problem_0/total_loss"
      input: "losses_avg/problem_0/total_loss/initial_value"
      attr {
        key: "T"
        value {
          type: DT_FLOAT
        }
      }
      attr {
        key: "_class"
        value {
          list {
            s: "loc:@losses_avg/problem_0/total_loss"
          }
        }
      }
      attr {
        key: "_output_shapes"
        value {
          list {
            shape {
            }
          }
        }
      }
      attr {
        key: "use_locking"
        value {
          b: true
        }
      }
      attr {
        key: "validate_shape"
        value {
          b: true
        }
      }
    }
    node {
      name: "losses_avg/problem_0/total_loss/read"
      op: "Identity"
      input: "losses_avg/problem_0/total_loss"
      attr {
        key: "T"
        value {
          type: DT_FLOAT
        }
      }
      attr {
        key: "_class"
        value {
          list {
            s: "loc:@losses_avg/problem_0/total_loss"
          }
        }
      }
      attr {
        key: "_output_shapes"
        value {
          list {
            shape {
            }
          }
        }
      }
    }
    node {
      name: "losses_avg/problem_0/extra_loss/initial_value"
      op: "Const"
      attr {
        key: "_output_shapes"
        value {
          list {
            shape {
            }
          }
        }
      }
      attr {
        key: "dtype"
        value {
          type: DT_FLOAT
        }
      }
      attr {
        key: "value"
        value {
          tensor {
            dtype: DT_FLOAT
            tensor_shape {
            }
            float_val: 100.0
          }
        }
      }
    }
    node {
      name: "losses_avg/problem_0/extra_loss"
      op: "VariableV2"
      attr {
        key: "_output_shapes"
        value {
          list {
            shape {
            }
          }
        }
      }
      attr {
        key: "container"
        value {
          s: ""
        }
      }
      attr {
        key: "dtype"
        value {
          type: DT_FLOAT
        }
      }
      attr {
        key: "shape"
        value {
          shape {
          }
        }
      }
      attr {
        key: "shared_name"
        value {
          s: ""
        }
      }
    }
    node {
      name: "losses_avg/problem_0/extra_loss/Assign"
      op: "Assign"
      input: "losses_avg/problem_0/extra_loss"
      input: "losses_avg/problem_0/extra_loss/initial_value"
      attr {
        key: "T"
        value {
          type: DT_FLOAT
        }
      }
      attr {
        key: "_class"
        value {
          list {
            s: "loc:@losses_avg/problem_0/extra_loss"
          }
        }
      }
      attr {
        key: "_output_shapes"
        value {
          list {
            shape {
            }
          }
        }
      }
      attr {
        key: "use_locking"
        value {
          b: true
        }
      }
      attr {
        key: "validate_shape"
        value {
          b: true
        }
      }
    }
    node {
      name: "losses_avg/problem_0/extra_loss/read"
      op: "Identity"
      input: "losses_avg/problem_0/extra_loss"
      attr {
        key: "T"
        value {
          type: DT_FLOAT
        }
      }
      attr {
        key: "_class"
        value {
          list {
            s: "loc:@losses_avg/problem_0/extra_loss"
          }
        }
      }
      attr {
        key: "_output_shapes"
        value {
          list {
            shape {
            }
          }
        }
      }
    }
    node {
      name: "losses_avg/problem_0/training_loss/initial_value"
      op: "Const"
      attr {
        key: "_output_shapes"
        value {
          list {
            shape {
            }
          }
        }
      }
      attr {
        key: "dtype"
        value {
          type: DT_FLOAT
        }
      }
      attr {
        key: "value"
        value {
          tensor {
            dtype: DT_FLOAT
            tensor_shape {
            }
            float_val: 100.0
          }
        }
      }
    }
    node {
      name: "losses_avg/problem_0/training_loss"
      op: "VariableV2"
      attr {
        key: "_output_shapes"
        value {
          list {
            shape {
            }
          }
        }
      }
      attr {
        key: "container"
        value {
          s: ""
        }
      }
      attr {
        key: "dtype"
        value {
          type: DT_FLOAT
        }
      }
      attr {
        key: "shape"
        value {
          shape {
          }
        }
      }
      attr {
        key: "shared_name"
        value {
          s: ""
        }
      }
    }
    node {
      name: "losses_avg/problem_0/training_loss/Assign"
      op: "Assign"
      input: "losses_avg/problem_0/training_loss"
      input: "losses_avg/problem_0/training_loss/initial_value"
      attr {
        key: "T"
        value {
          type: DT_FLOAT
        }
      }
      attr {
        key: "_class"
        value {
          list {
            s: "loc:@losses_avg/problem_0/training_loss"
          }
        }
      }
      attr {
        key: "_output_shapes"
        value {
          list {
            shape {
            }
          }
        }
      }
      attr {
        key: "use_locking"
        value {
          b: true
        }
      }
      attr {
        key: "validate_shape"
        value {
          b: true
        }
      }
    }
    node {
      name: "losses_avg/problem_0/training_loss/read"
      op: "Identity"
      input: "losses_avg/problem_0/training_loss"
      attr {
        key: "T"
        value {
          type: DT_FLOAT
        }
      }
      attr {
        key: "_class"
        value {
          list {
            s: "loc:@losses_avg/problem_0/training_loss"
          }
        }
      }
      attr {
        key: "_output_shapes"
        value {
          list {
            shape {
            }
          }
        }
      }
    }
    node {
      name: "train_stats/problem_0_steps/initial_value"
      op: "Const"
      attr {
        key: "_output_shapes"
        value {
          list {
            shape {
            }
          }
        }
      }
      attr {
        key: "dtype"
        value {
          type: DT_INT32
        }
      }
      attr {
        key: "value"
        value {
          tensor {
            dtype: DT_INT32
            tensor_shape {
            }
            int_val: 0
          }
        }
      }
    }
    node {
      name: "train_stats/problem_0_steps"
      op: "VariableV2"
      attr {
        key: "_output_shapes"
        value {
          list {
            shape {
            }
          }
        }
      }
      attr {
        key: "container"
        value {
          s: ""
        }
      }
      attr {
        key: "dtype"
        value {
          type: DT_INT32
        }
      }
      attr {
        key: "shape"
        value {
          shape {
          }
        }
      }
      attr {
        key: "shared_name"
        value {
          s: ""
        }
      }
    }
    node {
      name: "train_stats/problem_0_steps/Assign"
      op: "Assign"
      input: "train_stats/problem_0_steps"
      input: "train_stats/problem_0_steps/initial_value"
      attr {
        key: "T"
        value {
          type: DT_INT32
        }
      }
      attr {
        key: "_class"
        value {
          list {
            s: "loc:@train_stats/problem_0_steps"
          }
        }
      }
      attr {
        key: "_output_shapes"
        value {
          list {
            shape {
            }
          }
        }
      }
      attr {
        key: "use_locking"
        value {
          b: true
        }
      }
      attr {
        key: "validate_shape"
        value {
          b: true
        }
      }
    }
    node {
      name: "train_stats/problem_0_steps/read"
      op: "Identity"
      input: "train_stats/problem_0_steps"
      attr {
        key: "T"
        value {
          type: DT_INT32
        }
      }
      attr {
        key: "_class"
        value {
          list {
            s: "loc:@train_stats/problem_0_steps"
          }
        }
      }
      attr {
        key: "_output_shapes"
        value {
          list {
            shape {
            }
          }
        }
      }
    }
    node {
      name: "target_space_id"
      op: "Const"
      attr {
        key: "_output_shapes"
        value {
          list {
            shape {
            }
          }
        }
      }
      attr {
        key: "dtype"
        value {
          type: DT_INT32
        }
      }
      attr {
        key: "value"
        value {
          tensor {
            dtype: DT_INT32
            tensor_shape {
            }
            int_val: 0
          }
        }
      }
    }
    node {
      name: "input_space_id"
      op: "Const"
      attr {
        key: "_output_shapes"
        value {
          list {
            shape {
            }
          }
        }
      }
      attr {
        key: "dtype"
        value {
          type: DT_INT32
        }
      }
      attr {
        key: "value"
        value {
          tensor {
            dtype: DT_INT32
            tensor_shape {
            }
            int_val: 0
          }
        }
      }
    }
    node {
      name: "problem_choice"
      op: "Const"
      attr {
        key: "_output_shapes"
        value {
          list {
            shape {
            }
          }
        }
      }
      attr {
        key: "dtype"
        value {
          type: DT_INT32
        }
      }
      attr {
        key: "value"
        value {
          tensor {
            dtype: DT_INT32
            tensor_shape {
            }
            int_val: 0
          }
        }
      }
    }
    node {
      name: "Shape"
      op: "Shape"
      input: "DatasetToSingleElement:1"
      attr {
        key: "T"
        value {
          type: DT_INT32
        }
      }
      attr {
        key: "_output_shapes"
        value {
          list {
            shape {
              dim {
                size: 4
              }
            }
          }
        }
      }
      attr {
        key: "out_type"
        value {
          type: DT_INT32
        }
      }
    }
    node {
      name: "strided_slice/stack"
      op: "Const"
      attr {
        key: "_output_shapes"
        value {
          list {
            shape {
              dim {
                size: 1
              }
            }
          }
        }
      }
      attr {
        key: "dtype"
        value {
          type: DT_INT32
        }
      }
      attr {
        key: "value"
        value {
          tensor {
            dtype: DT_INT32
            tensor_shape {
              dim {
                size: 1
              }
            }
            int_val: 0
          }
        }
      }
    }
    node {
      name: "strided_slice/stack_1"
      op: "Const"
      attr {
        key: "_output_shapes"
        value {
          list {
            shape {
              dim {
                size: 1
              }
            }
          }
        }
      }
      attr {
        key: "dtype"
        value {
          type: DT_INT32
        }
      }
      attr {
        key: "value"
        value {
          tensor {
            dtype: DT_INT32
            tensor_shape {
              dim {
                size: 1
              }
            }
            int_val: 1
          }
        }
      }
    }
    node {
      name: "strided_slice/stack_2"
      op: "Const"
      attr {
        key: "_output_shapes"
        value {
          list {
            shape {
              dim {
                size: 1
              }
            }
          }
        }
      }
      attr {
        key: "dtype"
        value {
          type: DT_INT32
        }
      }
      attr {
        key: "value"
        value {
          tensor {
            dtype: DT_INT32
            tensor_shape {
              dim {
                size: 1
              }
            }
            int_val: 1
          }
        }
      }
    }
    node {
      name: "strided_slice"
      op: "StridedSlice"
      input: "Shape"
      input: "strided_slice/stack"
      input: "strided_slice/stack_1"
      input: "strided_slice/stack_2"
      attr {
        key: "Index"
        value {
          type: DT_INT32
        }
      }
      attr {
        key: "T"
        value {
          type: DT_INT32
        }
      }
      attr {
        key: "_output_shapes"
        value {
          list {
            shape {
            }
          }
        }
      }
      attr {
        key: "begin_mask"
        value {
          i: 0
        }
      }
      attr {
        key: "ellipsis_mask"
        value {
          i: 0
        }
      }
      attr {
        key: "end_mask"
        value {
          i: 0
        }
      }
      attr {
        key: "new_axis_mask"
        value {
          i: 0
        }
      }
      attr {
        key: "shrink_axis_mask"
        value {
          i: 1
        }
      }
    }
    node {
      name: "strided_slice_1/stack"
      op: "Const"
      attr {
        key: "_output_shapes"
        value {
          list {
            shape {
              dim {
                size: 1
              }
            }
          }
        }
      }
      attr {
        key: "dtype"
        value {
          type: DT_INT32
        }
      }
      attr {
        key: "value"
        value {
          tensor {
            dtype: DT_INT32
            tensor_shape {
              dim {
                size: 1
              }
            }
            int_val: 1
          }
        }
      }
    }
    node {
      name: "strided_slice_1/stack_1"
      op: "Const"
      attr {
        key: "_output_shapes"
        value {
          list {
            shape {
              dim {
                size: 1
              }
            }
          }
        }
      }
      attr {
        key: "dtype"
        value {
          type: DT_INT32
        }
      }
      attr {
        key: "value"
        value {
          tensor {
            dtype: DT_INT32
            tensor_shape {
              dim {
                size: 1
              }
            }
            int_val: 2
          }
        }
      }
    }
    node {
      name: "strided_slice_1/stack_2"
      op: "Const"
      attr {
        key: "_output_shapes"
        value {
          list {
            shape {
              dim {
                size: 1
              }
            }
          }
        }
      }
      attr {
        key: "dtype"
        value {
          type: DT_INT32
        }
      }
      attr {
        key: "value"
        value {
          tensor {
            dtype: DT_INT32
            tensor_shape {
              dim {
                size: 1
              }
            }
            int_val: 1
          }
        }
      }
    }
    node {
      name: "strided_slice_1"
      op: "StridedSlice"
      input: "Shape"
      input: "strided_slice_1/stack"
      input: "strided_slice_1/stack_1"
      input: "strided_slice_1/stack_2"
      attr {
        key: "Index"
        value {
          type: DT_INT32
        }
      }
      attr {
        key: "T"
        value {
          type: DT_INT32
        }
      }
      attr {
        key: "_output_shapes"
        value {
          list {
            shape {
            }
          }
        }
      }
      attr {
        key: "begin_mask"
        value {
          i: 0
        }
      }
      attr {
        key: "ellipsis_mask"
        value {
          i: 0
        }
      }
      attr {
        key: "end_mask"
        value {
          i: 0
        }
      }
      attr {
        key: "new_axis_mask"
        value {
          i: 0
        }
      }
      attr {
        key: "shrink_axis_mask"
        value {
          i: 1
        }
      }
    }
    node {
      name: "zeros/shape"
      op: "Pack"
      input: "strided_slice"
      attr {
        key: "N"
        value {
          i: 1
        }
      }
      attr {
        key: "T"
        value {
          type: DT_INT32
        }
      }
      attr {
        key: "_output_shapes"
        value {
          list {
            shape {
              dim {
                size: 1
              }
            }
          }
        }
      }
      attr {
        key: "axis"
        value {
          i: 0
        }
      }
    }
    node {
      name: "zeros/Const"
      op: "Const"
      attr {
        key: "_output_shapes"
        value {
          list {
            shape {
            }
          }
        }
      }
      attr {
        key: "dtype"
        value {
          type: DT_INT32
        }
      }
      attr {
        key: "value"
        value {
          tensor {
            dtype: DT_INT32
            tensor_shape {
            }
            int_val: 0
          }
        }
      }
    }
    node {
      name: "zeros"
      op: "Fill"
      input: "zeros/shape"
      input: "zeros/Const"
      attr {
        key: "T"
        value {
          type: DT_INT32
        }
      }
      attr {
        key: "_output_shapes"
        value {
          list {
            shape {
              dim {
                size: -1
              }
            }
          }
        }
      }
    }
    node {
      name: "ExpandDims/dim"
      op: "Const"
      attr {
        key: "_output_shapes"
        value {
          list {
            shape {
            }
          }
        }
      }
      attr {
        key: "dtype"
        value {
          type: DT_INT32
        }
      }
      attr {
        key: "value"
        value {
          tensor {
            dtype: DT_INT32
            tensor_shape {
            }
            int_val: 1
          }
        }
      }
    }
    node {
      name: "ExpandDims"
      op: "ExpandDims"
      input: "DatasetToSingleElement:1"
      input: "ExpandDims/dim"
      attr {
        key: "T"
        value {
          type: DT_INT32
        }
      }
      attr {
        key: "Tdim"
        value {
          type: DT_INT32
        }
      }
      attr {
        key: "_output_shapes"
        value {
          list {
            shape {
              dim {
                size: -1
              }
              dim {
                size: 1
              }
              dim {
                size: -1
              }
              dim {
                size: 1
              }
              dim {
                size: 1
              }
            }
          }
        }
      }
    }
    node {
      name: "Tile/multiples"
      op: "Const"
      attr {
        key: "_output_shapes"
        value {
          list {
            shape {
              dim {
                size: 5
              }
            }
          }
        }
      }
      attr {
        key: "dtype"
        value {
          type: DT_INT32
        }
      }
      attr {
        key: "value"
        value {
          tensor {
            dtype: DT_INT32
            tensor_shape {
              dim {
                size: 5
              }
            }
            tensor_content: "\001\000\000\000\004\000\000\000\001\000\000\000\001\000\000\000\001\000\000\000"
          }
        }
      }
    }
    node {
      name: "Tile"
      op: "Tile"
      input: "ExpandDims"
      input: "Tile/multiples"
      attr {
        key: "T"
        value {
          type: DT_INT32
        }
      }
      attr {
        key: "Tmultiples"
        value {
          type: DT_INT32
        }
      }
      attr {
        key: "_output_shapes"
        value {
          list {
            shape {
              dim {
                size: -1
              }
              dim {
                size: 4
              }
              dim {
                size: -1
              }
              dim {
                size: 1
              }
              dim {
                size: 1
              }
            }
          }
        }
      }
    }
    node {
      name: "Shape_1"
      op: "Shape"
      input: "Tile"
      attr {
        key: "T"
        value {
          type: DT_INT32
        }
      }
      attr {
        key: "_output_shapes"
        value {
          list {
            shape {
              dim {
                size: 5
              }
            }
          }
        }
      }
      attr {
        key: "out_type"
        value {
          type: DT_INT32
        }
      }
    }
    node {
      name: "strided_slice_2/stack"
      op: "Const"
      attr {
        key: "_output_shapes"
        value {
          list {
            shape {
              dim {
                size: 1
              }
            }
          }
        }
      }
      attr {
        key: "dtype"
        value {
          type: DT_INT32
        }
      }
      attr {
        key: "value"
        value {
          tensor {
            dtype: DT_INT32
            tensor_shape {
              dim {
                size: 1
              }
            }
            int_val: 0
          }
        }
      }
    }
    node {
      name: "strided_slice_2/stack_1"
      op: "Const"
      attr {
        key: "_output_shapes"
        value {
          list {
            shape {
              dim {
                size: 1
              }
            }
          }
        }
      }
      attr {
        key: "dtype"
        value {
          type: DT_INT32
        }
      }
      attr {
        key: "value"
        value {
          tensor {
            dtype: DT_INT32
            tensor_shape {
              dim {
                size: 1
              }
            }
            int_val: 1
          }
        }
      }
    }
    node {
      name: "strided_slice_2/stack_2"
      op: "Const"
      attr {
        key: "_output_shapes"
        value {
          list {
            shape {
              dim {
                size: 1
              }
            }
          }
        }
      }
      attr {
        key: "dtype"
        value {
          type: DT_INT32
        }
      }
      attr {
        key: "value"
        value {
          tensor {
            dtype: DT_INT32
            tensor_shape {
              dim {
                size: 1
              }
            }
            int_val: 1
          }
        }
      }
    }
    node {
      name: "strided_slice_2"
      op: "StridedSlice"
      input: "Shape_1"
      input: "strided_slice_2/stack"
      input: "strided_slice_2/stack_1"
      input: "strided_slice_2/stack_2"
      attr {
        key: "Index"
        value {
          type: DT_INT32
        }
      }
      attr {
        key: "T"
        value {
          type: DT_INT32
        }
      }
      attr {
        key: "_output_shapes"
        value {
          list {
            shape {
            }
          }
        }
      }
      attr {
        key: "begin_mask"
        value {
          i: 0
        }
      }
      attr {
        key: "ellipsis_mask"
        value {
          i: 0
        }
      }
      attr {
        key: "end_mask"
        value {
          i: 0
        }
      }
      attr {
        key: "new_axis_mask"
        value {
          i: 0
        }
      }
      attr {
        key: "shrink_axis_mask"
        value {
          i: 1
        }
      }
    }
    node {
      name: "strided_slice_3/stack"
      op: "Const"
      attr {
        key: "_output_shapes"
        value {
          list {
            shape {
              dim {
                size: 1
              }
            }
          }
        }
      }
      attr {
        key: "dtype"
        value {
          type: DT_INT32
        }
      }
      attr {
        key: "value"
        value {
          tensor {
            dtype: DT_INT32
            tensor_shape {
              dim {
                size: 1
              }
            }
            int_val: 2
          }
        }
      }
    }
    node {
      name: "strided_slice_3/stack_1"
      op: "Const"
      attr {
        key: "_output_shapes"
        value {
          list {
            shape {
              dim {
                size: 1
              }
            }
          }
        }
      }
      attr {
        key: "dtype"
        value {
          type: DT_INT32
        }
      }
      attr {
        key: "value"
        value {
          tensor {
            dtype: DT_INT32
            tensor_shape {
              dim {
                size: 1
              }
            }
            int_val: 3
          }
        }
      }
    }
    node {
      name: "strided_slice_3/stack_2"
      op: "Const"
      attr {
        key: "_output_shapes"
        value {
          list {
            shape {
              dim {
                size: 1
              }
            }
          }
        }
      }
      attr {
        key: "dtype"
        value {
          type: DT_INT32
        }
      }
      attr {
        key: "value"
        value {
          tensor {
            dtype: DT_INT32
            tensor_shape {
              dim {
                size: 1
              }
            }
            int_val: 1
          }
        }
      }
    }
    node {
      name: "strided_slice_3"
      op: "StridedSlice"
      input: "Shape_1"
      input: "strided_slice_3/stack"
      input: "strided_slice_3/stack_1"
      input: "strided_slice_3/stack_2"
      attr {
        key: "Index"
        value {
          type: DT_INT32
        }
      }
      attr {
        key: "T"
        value {
          type: DT_INT32
        }
      }
      attr {
        key: "_output_shapes"
        value {
          list {
            shape {
            }
          }
        }
      }
      attr {
        key: "begin_mask"
        value {
          i: 0
        }
      }
      attr {
        key: "ellipsis_mask"
        value {
          i: 0
        }
      }
      attr {
        key: "end_mask"
        value {
          i: 0
        }
      }
      attr {
        key: "new_axis_mask"
        value {
          i: 0
        }
      }
      attr {
        key: "shrink_axis_mask"
        value {
          i: 1
        }
      }
    }
    node {
      name: "mul/y"
      op: "Const"
      attr {
        key: "_output_shapes"
        value {
          list {
            shape {
            }
          }
        }
      }
      attr {
        key: "dtype"
        value {
          type: DT_INT32
        }
      }
      attr {
        key: "value"
        value {
          tensor {
            dtype: DT_INT32
            tensor_shape {
            }
            int_val: 4
          }
        }
      }
    }
    node {
      name: "mul"
      op: "Mul"
      input: "strided_slice_2"
      input: "mul/y"
      attr {
        key: "T"
        value {
          type: DT_INT32
        }
      }
      attr {
        key: "_output_shapes"
        value {
          list {
            shape {
            }
          }
        }
      }
    }
    node {
      name: "Reshape/shape/2"
      op: "Const"
      attr {
        key: "_output_shapes"
        value {
          list {
            shape {
            }
          }
        }
      }
      attr {
        key: "dtype"
        value {
          type: DT_INT32
        }
      }
      attr {
        key: "value"
        value {
          tensor {
            dtype: DT_INT32
            tensor_shape {
            }
            int_val: 1
          }
        }
      }
    }
    node {
      name: "Reshape/shape/3"
      op: "Const"
      attr {
        key: "_output_shapes"
        value {
          list {
            shape {
            }
          }
        }
      }
      attr {
        key: "dtype"
        value {
          type: DT_INT32
        }
      }
      attr {
        key: "value"
        value {
          tensor {
            dtype: DT_INT32
            tensor_shape {
            }
            int_val: 1
          }
        }
      }
    }
    node {
      name: "Reshape/shape"
      op: "Pack"
      input: "mul"
      input: "strided_slice_3"
      input: "Reshape/shape/2"
      input: "Reshape/shape/3"
      attr {
        key: "N"
        value {
          i: 4
        }
      }
      attr {
        key: "T"
        value {
          type: DT_INT32
        }
      }
      attr {
        key: "_output_shapes"
        value {
          list {
            shape {
              dim {
                size: 4
              }
            }
          }
        }
      }
      attr {
        key: "axis"
        value {
          i: 0
        }
      }
    }
    node {
      name: "Reshape"
      op: "Reshape"
      input: "Tile"
      input: "Reshape/shape"
      attr {
        key: "T"
        value {
          type: DT_INT32
        }
      }
      attr {
        key: "Tshape"
        value {
          type: DT_INT32
        }
      }
      attr {
        key: "_output_shapes"
        value {
          list {
            shape {
              dim {
                size: -1
              }
              dim {
                size: -1
              }
              dim {
                size: 1
              }
              dim {
                size: 1
              }
            }
          }
        }
      }
    }
    node {
      name: "Const_3"
      op: "Const"
      attr {
        key: "_output_shapes"
        value {
          list {
            shape {
            }
          }
        }
      }
      attr {
        key: "dtype"
        value {
          type: DT_INT32
        }
      }
      attr {
        key: "value"
        value {
          tensor {
            dtype: DT_INT32
            tensor_shape {
            }
            int_val: 100
          }
        }
      }
    }
    node {
      name: "Shape_2"
      op: "Shape"
      input: "Reshape"
      attr {
        key: "T"
        value {
          type: DT_INT32
        }
      }
      attr {
        key: "_output_shapes"
        value {
          list {
            shape {
              dim {
                size: 4
              }
            }
          }
        }
      }
      attr {
        key: "out_type"
        value {
          type: DT_INT32
        }
      }
    }
    node {
      name: "strided_slice_4/stack"
      op: "Const"
      attr {
        key: "_output_shapes"
        value {
          list {
            shape {
              dim {
                size: 1
              }
            }
          }
        }
      }
      attr {
        key: "dtype"
        value {
          type: DT_INT32
        }
      }
      attr {
        key: "value"
        value {
          tensor {
            dtype: DT_INT32
            tensor_shape {
              dim {
                size: 1
              }
            }
            int_val: 0
          }
        }
      }
    }
    node {
      name: "strided_slice_4/stack_1"
      op: "Const"
      attr {
        key: "_output_shapes"
        value {
          list {
            shape {
              dim {
                size: 1
              }
            }
          }
        }
      }
      attr {
        key: "dtype"
        value {
          type: DT_INT32
        }
      }
      attr {
        key: "value"
        value {
          tensor {
            dtype: DT_INT32
            tensor_shape {
              dim {
                size: 1
              }
            }
            int_val: 1
          }
        }
      }
    }
    node {
      name: "strided_slice_4/stack_2"
      op: "Const"
      attr {
        key: "_output_shapes"
        value {
          list {
            shape {
              dim {
                size: 1
              }
            }
          }
        }
      }
      attr {
        key: "dtype"
        value {
          type: DT_INT32
        }
      }
      attr {
        key: "value"
        value {
          tensor {
            dtype: DT_INT32
            tensor_shape {
              dim {
                size: 1
              }
            }
            int_val: 1
          }
        }
      }
    }
    node {
      name: "strided_slice_4"
      op: "StridedSlice"
      input: "Shape_2"
      input: "strided_slice_4/stack"
      input: "strided_slice_4/stack_1"
      input: "strided_slice_4/stack_2"
      attr {
        key: "Index"
        value {
          type: DT_INT32
        }
      }
      attr {
        key: "T"
        value {
          type: DT_INT32
        }
      }
      attr {
        key: "_output_shapes"
        value {
          list {
            shape {
            }
          }
        }
      }
      attr {
        key: "begin_mask"
        value {
          i: 0
        }
      }
      attr {
        key: "ellipsis_mask"
        value {
          i: 0
        }
      }
      attr {
        key: "end_mask"
        value {
          i: 0
        }
      }
      attr {
        key: "new_axis_mask"
        value {
          i: 0
        }
      }
      attr {
        key: "shrink_axis_mask"
        value {
          i: 1
        }
      }
    }
    node {
      name: "strided_slice_5/stack"
      op: "Const"
      attr {
        key: "_output_shapes"
        value {
          list {
            shape {
              dim {
                size: 1
              }
            }
          }
        }
      }
      attr {
        key: "dtype"
        value {
          type: DT_INT32
        }
      }
      attr {
        key: "value"
        value {
          tensor {
            dtype: DT_INT32
            tensor_shape {
              dim {
                size: 1
              }
            }
            int_val: 1
          }
        }
      }
    }
    node {
      name: "strided_slice_5/stack_1"
      op: "Const"
      attr {
        key: "_output_shapes"
        value {
          list {
            shape {
              dim {
                size: 1
              }
            }
          }
        }
      }
      attr {
        key: "dtype"
        value {
          type: DT_INT32
        }
      }
      attr {
        key: "value"
        value {
          tensor {
            dtype: DT_INT32
            tensor_shape {
              dim {
                size: 1
              }
            }
            int_val: 2
          }
        }
      }
    }
    node {
      name: "strided_slice_5/stack_2"
      op: "Const"
      attr {
        key: "_output_shapes"
        value {
          list {
            shape {
              dim {
                size: 1
              }
            }
          }
        }
      }
      attr {
        key: "dtype"
        value {
          type: DT_INT32
        }
      }
      attr {
        key: "value"
        value {
          tensor {
            dtype: DT_INT32
            tensor_shape {
              dim {
                size: 1
              }
            }
            int_val: 1
          }
        }
      }
    }
    node {
      name: "strided_slice_5"
      op: "StridedSlice"
      input: "Shape_2"
      input: "strided_slice_5/stack"
      input: "strided_slice_5/stack_1"
      input: "strided_slice_5/stack_2"
      attr {
        key: "Index"
        value {
          type: DT_INT32
        }
      }
      attr {
        key: "T"
        value {
          type: DT_INT32
        }
      }
      attr {
        key: "_output_shapes"
        value {
          list {
            shape {
            }
          }
        }
      }
      attr {
        key: "begin_mask"
        value {
          i: 0
        }
      }
      attr {
        key: "ellipsis_mask"
        value {
          i: 0
        }
      }
      attr {
        key: "end_mask"
        value {
          i: 0
        }
      }
      attr {
        key: "new_axis_mask"
        value {
          i: 0
        }
      }
      attr {
        key: "shrink_axis_mask"
        value {
          i: 1
        }
      }
    }
    node {
      name: "add"
      op: "Add"
      input: "Const_3"
      input: "strided_slice_5"
      attr {
        key: "T"
        value {
          type: DT_INT32
        }
      }
      attr {
        key: "_output_shapes"
        value {
          list {
            shape {
            }
          }
        }
      }
    }
    node {
      name: "Shape_3"
      op: "Shape"
      input: "zeros"
      attr {
        key: "T"
        value {
          type: DT_INT32
        }
      }
      attr {
        key: "_output_shapes"
        value {
          list {
            shape {
              dim {
                size: 1
              }
            }
          }
        }
      }
      attr {
        key: "out_type"
        value {
          type: DT_INT32
        }
      }
    }
    node {
      name: "strided_slice_6/stack"
      op: "Const"
      attr {
        key: "_output_shapes"
        value {
          list {
            shape {
              dim {
                size: 1
              }
            }
          }
        }
      }
      attr {
        key: "dtype"
        value {
          type: DT_INT32
        }
      }
      attr {
        key: "value"
        value {
          tensor {
            dtype: DT_INT32
            tensor_shape {
              dim {
                size: 1
              }
            }
            int_val: 0
          }
        }
      }
    }
    node {
      name: "strided_slice_6/stack_1"
      op: "Const"
      attr {
        key: "_output_shapes"
        value {
          list {
            shape {
              dim {
                size: 1
              }
            }
          }
        }
      }
      attr {
        key: "dtype"
        value {
          type: DT_INT32
        }
      }
      attr {
        key: "value"
        value {
          tensor {
            dtype: DT_INT32
            tensor_shape {
              dim {
                size: 1
              }
            }
            int_val: 1
          }
        }
      }
    }
    node {
      name: "strided_slice_6/stack_2"
      op: "Const"
      attr {
        key: "_output_shapes"
        value {
          list {
            shape {
              dim {
                size: 1
              }
            }
          }
        }
      }
      attr {
        key: "dtype"
        value {
          type: DT_INT32
        }
      }
      attr {
        key: "value"
        value {
          tensor {
            dtype: DT_INT32
            tensor_shape {
              dim {
                size: 1
              }
            }
            int_val: 1
          }
        }
      }
    }
    node {
      name: "strided_slice_6"
      op: "StridedSlice"
      input: "Shape_3"
      input: "strided_slice_6/stack"
      input: "strided_slice_6/stack_1"
      input: "strided_slice_6/stack_2"
      attr {
        key: "Index"
        value {
          type: DT_INT32
        }
      }
      attr {
        key: "T"
        value {
          type: DT_INT32
        }
      }
      attr {
        key: "_output_shapes"
        value {
          list {
            shape {
            }
          }
        }
      }
      attr {
        key: "begin_mask"
        value {
          i: 0
        }
      }
      attr {
        key: "ellipsis_mask"
        value {
          i: 0
        }
      }
      attr {
        key: "end_mask"
        value {
          i: 0
        }
      }
      attr {
        key: "new_axis_mask"
        value {
          i: 0
        }
      }
      attr {
        key: "shrink_axis_mask"
        value {
          i: 1
        }
      }
    }
    node {
      name: "Const_4"
      op: "Const"
      attr {
        key: "_output_shapes"
        value {
          list {
            shape {
              dim {
                size: 1
              }
              dim {
                size: 4
              }
            }
          }
        }
      }
      attr {
        key: "dtype"
        value {
          type: DT_FLOAT
        }
      }
      attr {
        key: "value"
        value {
          tensor {
            dtype: DT_FLOAT
            tensor_shape {
              dim {
                size: 1
              }
              dim {
                size: 4
              }
            }
            tensor_content: "\000\000\000\000\000\000\200\377\000\000\200\377\000\000\200\377"
          }
        }
      }
    }
    node {
      name: "Tile_1/multiples/1"
      op: "Const"
      attr {
        key: "_output_shapes"
        value {
          list {
            shape {
            }
          }
        }
      }
      attr {
        key: "dtype"
        value {
          type: DT_INT32
        }
      }
      attr {
        key: "value"
        value {
          tensor {
            dtype: DT_INT32
            tensor_shape {
            }
            int_val: 1
          }
        }
      }
    }
    node {
      name: "Tile_1/multiples"
      op: "Pack"
      input: "strided_slice_6"
      input: "Tile_1/multiples/1"
      attr {
        key: "N"
        value {
          i: 2
        }
      }
      attr {
        key: "T"
        value {
          type: DT_INT32
        }
      }
      attr {
        key: "_output_shapes"
        value {
          list {
            shape {
              dim {
                size: 2
              }
            }
          }
        }
      }
      attr {
        key: "axis"
        value {
          i: 0
        }
      }
    }
    node {
      name: "Tile_1"
      op: "Tile"
      input: "Const_4"
      input: "Tile_1/multiples"
      attr {
        key: "T"
        value {
          type: DT_FLOAT
        }
      }
      attr {
        key: "Tmultiples"
        value {
          type: DT_INT32
        }
      }
      attr {
        key: "_output_shapes"
        value {
          list {
            shape {
              dim {
                size: -1
              }
              dim {
                size: 4
              }
            }
          }
        }
      }
    }
    node {
      name: "ExpandDims_1/dim"
      op: "Const"
      attr {
        key: "_output_shapes"
        value {
          list {
            shape {
            }
          }
        }
      }
      attr {
        key: "dtype"
        value {
          type: DT_INT32
        }
      }
      attr {
        key: "value"
        value {
          tensor {
            dtype: DT_INT32
            tensor_shape {
            }
            int_val: 1
          }
        }
      }
    }
    node {
      name: "ExpandDims_1"
      op: "ExpandDims"
      input: "zeros"
      input: "ExpandDims_1/dim"
      attr {
        key: "T"
        value {
          type: DT_INT32
        }
      }
      attr {
        key: "Tdim"
        value {
          type: DT_INT32
        }
      }
      attr {
        key: "_output_shapes"
        value {
          list {
            shape {
              dim {
                size: -1
              }
              dim {
                size: 1
              }
            }
          }
        }
      }
    }
    node {
      name: "Tile_2/multiples"
      op: "Const"
      attr {
        key: "_output_shapes"
        value {
          list {
            shape {
              dim {
                size: 2
              }
            }
          }
        }
      }
      attr {
        key: "dtype"
        value {
          type: DT_INT32
        }
      }
      attr {
        key: "value"
        value {
          tensor {
            dtype: DT_INT32
            tensor_shape {
              dim {
                size: 2
              }
            }
            tensor_content: "\001\000\000\000\004\000\000\000"
          }
        }
      }
    }
    node {
      name: "Tile_2"
      op: "Tile"
      input: "ExpandDims_1"
      input: "Tile_2/multiples"
      attr {
        key: "T"
        value {
          type: DT_INT32
        }
      }
      attr {
        key: "Tmultiples"
        value {
          type: DT_INT32
        }
      }
      attr {
        key: "_output_shapes"
        value {
          list {
            shape {
              dim {
                size: -1
              }
              dim {
                size: 4
              }
            }
          }
        }
      }
    }
    node {
      name: "ExpandDims_2/dim"
      op: "Const"
      attr {
        key: "_output_shapes"
        value {
          list {
            shape {
            }
          }
        }
      }
      attr {
        key: "dtype"
        value {
          type: DT_INT32
        }
      }
      attr {
        key: "value"
        value {
          tensor {
            dtype: DT_INT32
            tensor_shape {
            }
            int_val: 2
          }
        }
      }
    }
    node {
      name: "ExpandDims_2"
      op: "ExpandDims"
      input: "Tile_2"
      input: "ExpandDims_2/dim"
      attr {
        key: "T"
        value {
          type: DT_INT32
        }
      }
      attr {
        key: "Tdim"
        value {
          type: DT_INT32
        }
      }
      attr {
        key: "_output_shapes"
        value {
          list {
            shape {
              dim {
                size: -1
              }
              dim {
                size: 4
              }
              dim {
                size: 1
              }
            }
          }
        }
      }
    }
    node {
      name: "Shape_4"
      op: "Shape"
      input: "ExpandDims_2"
      attr {
        key: "T"
        value {
          type: DT_INT32
        }
      }
      attr {
        key: "_output_shapes"
        value {
          list {
            shape {
              dim {
                size: 3
              }
            }
          }
        }
      }
      attr {
        key: "out_type"
        value {
          type: DT_INT32
        }
      }
    }
    node {
      name: "strided_slice_7/stack"
      op: "Const"
      attr {
        key: "_output_shapes"
        value {
          list {
            shape {
              dim {
                size: 1
              }
            }
          }
        }
      }
      attr {
        key: "dtype"
        value {
          type: DT_INT32
        }
      }
      attr {
        key: "value"
        value {
          tensor {
            dtype: DT_INT32
            tensor_shape {
              dim {
                size: 1
              }
            }
            int_val: 0
          }
        }
      }
    }
    node {
      name: "strided_slice_7/stack_1"
      op: "Const"
      attr {
        key: "_output_shapes"
        value {
          list {
            shape {
              dim {
                size: 1
              }
            }
          }
        }
      }
      attr {
        key: "dtype"
        value {
          type: DT_INT32
        }
      }
      attr {
        key: "value"
        value {
          tensor {
            dtype: DT_INT32
            tensor_shape {
              dim {
                size: 1
              }
            }
            int_val: 1
          }
        }
      }
    }
    node {
      name: "strided_slice_7/stack_2"
      op: "Const"
      attr {
        key: "_output_shapes"
        value {
          list {
            shape {
              dim {
                size: 1
              }
            }
          }
        }
      }
      attr {
        key: "dtype"
        value {
          type: DT_INT32
        }
      }
      attr {
        key: "value"
        value {
          tensor {
            dtype: DT_INT32
            tensor_shape {
              dim {
                size: 1
              }
            }
            int_val: 1
          }
        }
      }
    }
    node {
      name: "strided_slice_7"
      op: "StridedSlice"
      input: "Shape_4"
      input: "strided_slice_7/stack"
      input: "strided_slice_7/stack_1"
      input: "strided_slice_7/stack_2"
      attr {
        key: "Index"
        value {
          type: DT_INT32
        }
      }
      attr {
        key: "T"
        value {
          type: DT_INT32
        }
      }
      attr {
        key: "_output_shapes"
        value {
          list {
            shape {
            }
          }
        }
      }
      attr {
        key: "begin_mask"
        value {
          i: 0
        }
      }
      attr {
        key: "ellipsis_mask"
        value {
          i: 0
        }
      }
      attr {
        key: "end_mask"
        value {
          i: 0
        }
      }
      attr {
        key: "new_axis_mask"
        value {
          i: 0
        }
      }
      attr {
        key: "shrink_axis_mask"
        value {
          i: 1
        }
      }
    }
    node {
      name: "zeros_1/shape/1"
      op: "Const"
      attr {
        key: "_output_shapes"
        value {
          list {
            shape {
            }
          }
        }
      }
      attr {
        key: "dtype"
        value {
          type: DT_INT32
        }
      }
      attr {
        key: "value"
        value {
          tensor {
            dtype: DT_INT32
            tensor_shape {
            }
            int_val: 4
          }
        }
      }
    }
    node {
      name: "zeros_1/shape/2"
      op: "Const"
      attr {
        key: "_output_shapes"
        value {
          list {
            shape {
            }
          }
        }
      }
      attr {
        key: "dtype"
        value {
          type: DT_INT32
        }
      }
      attr {
        key: "value"
        value {
          tensor {
            dtype: DT_INT32
            tensor_shape {
            }
            int_val: 1
          }
        }
      }
    }
    node {
      name: "zeros_1/shape"
      op: "Pack"
      input: "strided_slice_7"
      input: "zeros_1/shape/1"
      input: "zeros_1/shape/2"
      attr {
        key: "N"
        value {
          i: 3
        }
      }
      attr {
        key: "T"
        value {
          type: DT_INT32
        }
      }
      attr {
        key: "_output_shapes"
        value {
          list {
            shape {
              dim {
                size: 3
              }
            }
          }
        }
      }
      attr {
        key: "axis"
        value {
          i: 0
        }
      }
    }
    node {
      name: "zeros_1/Const"
      op: "Const"
      attr {
        key: "_output_shapes"
        value {
          list {
            shape {
            }
          }
        }
      }
      attr {
        key: "dtype"
        value {
          type: DT_INT32
        }
      }
      attr {
        key: "value"
        value {
          tensor {
            dtype: DT_INT32
            tensor_shape {
            }
            int_val: 0
          }
        }
      }
    }
    node {
      name: "zeros_1"
      op: "Fill"
      input: "zeros_1/shape"
      input: "zeros_1/Const"
      attr {
        key: "T"
        value {
          type: DT_INT32
        }
      }
      attr {
        key: "_output_shapes"
        value {
          list {
            shape {
              dim {
                size: -1
              }
              dim {
                size: 4
              }
              dim {
                size: 1
              }
            }
          }
        }
      }
    }
    node {
      name: "ones/shape/1"
      op: "Const"
      attr {
        key: "_output_shapes"
        value {
          list {
            shape {
            }
          }
        }
      }
      attr {
        key: "dtype"
        value {
          type: DT_INT32
        }
      }
      attr {
        key: "value"
        value {
          tensor {
            dtype: DT_INT32
            tensor_shape {
            }
            int_val: 4
          }
        }
      }
    }
    node {
      name: "ones/shape"
      op: "Pack"
      input: "strided_slice_6"
      input: "ones/shape/1"
      attr {
        key: "N"
        value {
          i: 2
        }
      }
      attr {
        key: "T"
        value {
          type: DT_INT32
        }
      }
      attr {
        key: "_output_shapes"
        value {
          list {
            shape {
              dim {
                size: 2
              }
            }
          }
        }
      }
      attr {
        key: "axis"
        value {
          i: 0
        }
      }
    }
    node {
      name: "ones/Const"
      op: "Const"
      attr {
        key: "_output_shapes"
        value {
          list {
            shape {
            }
          }
        }
      }
      attr {
        key: "dtype"
        value {
          type: DT_FLOAT
        }
      }
      attr {
        key: "value"
        value {
          tensor {
            dtype: DT_FLOAT
            tensor_shape {
            }
            float_val: 1.0
          }
        }
      }
    }
    node {
      name: "ones"
      op: "Fill"
      input: "ones/shape"
      input: "ones/Const"
      attr {
        key: "T"
        value {
          type: DT_FLOAT
        }
      }
      attr {
        key: "_output_shapes"
        value {
          list {
            shape {
              dim {
                size: -1
              }
              dim {
                size: 4
              }
            }
          }
        }
      }
    }
    node {
      name: "mul_1/y"
      op: "Const"
      attr {
        key: "_output_shapes"
        value {
          list {
            shape {
            }
          }
        }
      }
      attr {
        key: "dtype"
        value {
          type: DT_FLOAT
        }
      }
      attr {
        key: "value"
        value {
          tensor {
            dtype: DT_FLOAT
            tensor_shape {
            }
            float_val: -10000000.0
          }
        }
      }
    }
    node {
      name: "mul_1"
      op: "Mul"
      input: "ones"
      input: "mul_1/y"
      attr {
        key: "T"
        value {
          type: DT_FLOAT
        }
      }
      attr {
        key: "_output_shapes"
        value {
          list {
            shape {
              dim {
                size: -1
              }
              dim {
                size: 4
              }
            }
          }
        }
      }
    }
    node {
      name: "zeros_2/shape/1"
      op: "Const"
      attr {
        key: "_output_shapes"
        value {
          list {
            shape {
            }
          }
        }
      }
      attr {
        key: "dtype"
        value {
          type: DT_INT32
        }
      }
      attr {
        key: "value"
        value {
          tensor {
            dtype: DT_INT32
            tensor_shape {
            }
            int_val: 4
          }
        }
      }
    }
    node {
      name: "zeros_2/shape"
      op: "Pack"
      input: "strided_slice_6"
      input: "zeros_2/shape/1"
      attr {
        key: "N"
        value {
          i: 2
        }
      }
      attr {
        key: "T"
        value {
          type: DT_INT32
        }
      }
      attr {
        key: "_output_shapes"
        value {
          list {
            shape {
              dim {
                size: 2
              }
            }
          }
        }
      }
      attr {
        key: "axis"
        value {
          i: 0
        }
      }
    }
    node {
      name: "zeros_2/Const"
      op: "Const"
      attr {
        key: "_output_shapes"
        value {
          list {
            shape {
            }
          }
        }
      }
      attr {
        key: "dtype"
        value {
          type: DT_BOOL
        }
      }
      attr {
        key: "value"
        value {
          tensor {
            dtype: DT_BOOL
            tensor_shape {
            }
            bool_val: false
          }
        }
      }
    }
    node {
      name: "zeros_2"
      op: "Fill"
      input: "zeros_2/shape"
      input: "zeros_2/Const"
      attr {
        key: "T"
        value {
          type: DT_BOOL
        }
      }
      attr {
        key: "_output_shapes"
        value {
          list {
            shape {
              dim {
                size: -1
              }
              dim {
                size: 4
              }
            }
          }
        }
      }
    }
    node {
      name: "Const_5"
      op: "Const"
      attr {
        key: "_output_shapes"
        value {
          list {
            shape {
            }
          }
        }
      }
      attr {
        key: "dtype"
        value {
          type: DT_INT32
        }
      }
      attr {
        key: "value"
        value {
          tensor {
            dtype: DT_INT32
            tensor_shape {
            }
            int_val: 0
          }
        }
      }
    }
    node {
      name: "while/Enter"
      op: "Enter"
      input: "Const_5"
      attr {
        key: "T"
        value {
          type: DT_INT32
        }
      }
      attr {
        key: "_output_shapes"
        value {
          list {
            shape {
            }
          }
        }
      }
      attr {
        key: "frame_name"
        value {
          s: "while/while_context"
        }
      }
      attr {
        key: "is_constant"
        value {
          b: false
        }
      }
      attr {
        key: "parallel_iterations"
        value {
          i: 1
        }
      }
    }
    node {
      name: "while/Enter_1"
      op: "Enter"
      input: "ExpandDims_2"
      attr {
        key: "T"
        value {
          type: DT_INT32
        }
      }
      attr {
        key: "_output_shapes"
        value {
          list {
            shape {
              dim {
                size: -1
              }
              dim {
                size: -1
              }
              dim {
                size: -1
              }
            }
          }
        }
      }
      attr {
        key: "frame_name"
        value {
          s: "while/while_context"
        }
      }
      attr {
        key: "is_constant"
        value {
          b: false
        }
      }
      attr {
        key: "parallel_iterations"
        value {
          i: 1
        }
      }
    }
    node {
      name: "while/Enter_2"
      op: "Enter"
      input: "Tile_1"
      attr {
        key: "T"
        value {
          type: DT_FLOAT
        }
      }
      attr {
        key: "_output_shapes"
        value {
          list {
            shape {
              dim {
                size: -1
              }
              dim {
                size: 4
              }
            }
          }
        }
      }
      attr {
        key: "frame_name"
        value {
          s: "while/while_context"
        }
      }
      attr {
        key: "is_constant"
        value {
          b: false
        }
      }
      attr {
        key: "parallel_iterations"
        value {
          i: 1
        }
      }
    }
    node {
      name: "while/Enter_3"
      op: "Enter"
      input: "zeros_1"
      attr {
        key: "T"
        value {
          type: DT_INT32
        }
      }
      attr {
        key: "_output_shapes"
        value {
          list {
            shape {
              dim {
                size: -1
              }
              dim {
                size: -1
              }
              dim {
                size: -1
              }
            }
          }
        }
      }
      attr {
        key: "frame_name"
        value {
          s: "while/while_context"
        }
      }
      attr {
        key: "is_constant"
        value {
          b: false
        }
      }
      attr {
        key: "parallel_iterations"
        value {
          i: 1
        }
      }
    }
    node {
      name: "while/Enter_4"
      op: "Enter"
      input: "mul_1"
      attr {
        key: "T"
        value {
          type: DT_FLOAT
        }
      }
      attr {
        key: "_output_shapes"
        value {
          list {
            shape {
              dim {
                size: -1
              }
              dim {
                size: 4
              }
            }
          }
        }
      }
      attr {
        key: "frame_name"
        value {
          s: "while/while_context"
        }
      }
      attr {
        key: "is_constant"
        value {
          b: false
        }
      }
      attr {
        key: "parallel_iterations"
        value {
          i: 1
        }
      }
    }
    node {
      name: "while/Enter_5"
      op: "Enter"
      input: "zeros_2"
      attr {
        key: "T"
        value {
          type: DT_BOOL
        }
      }
      attr {
        key: "_output_shapes"
        value {
          list {
            shape {
              dim {
                size: -1
              }
              dim {
                size: 4
              }
            }
          }
        }
      }
      attr {
        key: "frame_name"
        value {
          s: "while/while_context"
        }
      }
      attr {
        key: "is_constant"
        value {
          b: false
        }
      }
      attr {
        key: "parallel_iterations"
        value {
          i: 1
        }
      }
    }
    node {
      name: "while/Merge"
      op: "Merge"
      input: "while/Enter"
      input: "while/NextIteration"
      attr {
        key: "N"
        value {
          i: 2
        }
      }
      attr {
        key: "T"
        value {
          type: DT_INT32
        }
      }
      attr {
        key: "_output_shapes"
        value {
          list {
            shape {
            }
            shape {
            }
          }
        }
      }
    }
    node {
      name: "while/Merge_1"
      op: "Merge"
      input: "while/Enter_1"
      input: "while/NextIteration_1"
      attr {
        key: "N"
        value {
          i: 2
        }
      }
      attr {
        key: "T"
        value {
          type: DT_INT32
        }
      }
      attr {
        key: "_output_shapes"
        value {
          list {
            shape {
              dim {
                size: -1
              }
              dim {
                size: -1
              }
              dim {
                size: -1
              }
            }
            shape {
            }
          }
        }
      }
    }
    node {
      name: "while/Merge_2"
      op: "Merge"
      input: "while/Enter_2"
      input: "while/NextIteration_2"
      attr {
        key: "N"
        value {
          i: 2
        }
      }
      attr {
        key: "T"
        value {
          type: DT_FLOAT
        }
      }
      attr {
        key: "_output_shapes"
        value {
          list {
            shape {
              dim {
                size: -1
              }
              dim {
                size: 4
              }
            }
            shape {
            }
          }
        }
      }
    }
    node {
      name: "while/Merge_3"
      op: "Merge"
      input: "while/Enter_3"
      input: "while/NextIteration_3"
      attr {
        key: "N"
        value {
          i: 2
        }
      }
      attr {
        key: "T"
        value {
          type: DT_INT32
        }
      }
      attr {
        key: "_output_shapes"
        value {
          list {
            shape {
              dim {
                size: -1
              }
              dim {
                size: -1
              }
              dim {
                size: -1
              }
            }
            shape {
            }
          }
        }
      }
    }
    node {
      name: "while/Merge_4"
      op: "Merge"
      input: "while/Enter_4"
      input: "while/NextIteration_4"
      attr {
        key: "N"
        value {
          i: 2
        }
      }
      attr {
        key: "T"
        value {
          type: DT_FLOAT
        }
      }
      attr {
        key: "_output_shapes"
        value {
          list {
            shape {
              dim {
                size: -1
              }
              dim {
                size: 4
              }
            }
            shape {
            }
          }
        }
      }
    }
    node {
      name: "while/Merge_5"
      op: "Merge"
      input: "while/Enter_5"
      input: "while/NextIteration_5"
      attr {
        key: "N"
        value {
          i: 2
        }
      }
      attr {
        key: "T"
        value {
          type: DT_BOOL
        }
      }
      attr {
        key: "_output_shapes"
        value {
          list {
            shape {
              dim {
                size: -1
              }
              dim {
                size: 4
              }
            }
            shape {
            }
          }
        }
      }
    }
    node {
      name: "while/ToFloat"
      op: "Cast"
      input: "while/ToFloat/Enter"
      input: "^while/Merge"
      attr {
        key: "DstT"
        value {
          type: DT_FLOAT
        }
      }
      attr {
        key: "SrcT"
        value {
          type: DT_INT32
        }
      }
      attr {
        key: "_output_shapes"
        value {
          list {
            shape {
            }
          }
        }
      }
    }
    node {
      name: "while/ToFloat/Enter"
      op: "Enter"
      input: "add"
      attr {
        key: "T"
        value {
          type: DT_INT32
        }
      }
      attr {
        key: "_output_shapes"
        value {
          list {
            shape {
            }
          }
        }
      }
      attr {
        key: "frame_name"
        value {
          s: "while/while_context"
        }
      }
      attr {
        key: "is_constant"
        value {
          b: true
        }
      }
      attr {
        key: "parallel_iterations"
        value {
          i: 1
        }
      }
    }
    node {
      name: "while/add/x"
      op: "Const"
      input: "^while/Merge"
      attr {
        key: "_output_shapes"
        value {
          list {
            shape {
            }
          }
        }
      }
      attr {
        key: "dtype"
        value {
          type: DT_FLOAT
        }
      }
      attr {
        key: "value"
        value {
          tensor {
            dtype: DT_FLOAT
            tensor_shape {
            }
            float_val: 5.0
          }
        }
      }
    }
    node {
      name: "while/add"
      op: "Add"
      input: "while/add/x"
      input: "while/ToFloat"
      attr {
        key: "T"
        value {
          type: DT_FLOAT
        }
      }
      attr {
        key: "_output_shapes"
        value {
          list {
            shape {
            }
          }
        }
      }
    }
    node {
      name: "while/truediv/y"
      op: "Const"
      input: "^while/Merge"
      attr {
        key: "_output_shapes"
        value {
          list {
            shape {
            }
          }
        }
      }
      attr {
        key: "dtype"
        value {
          type: DT_FLOAT
        }
      }
      attr {
        key: "value"
        value {
          tensor {
            dtype: DT_FLOAT
            tensor_shape {
            }
            float_val: 6.0
          }
        }
      }
    }
    node {
      name: "while/truediv"
      op: "RealDiv"
      input: "while/add"
      input: "while/truediv/y"
      attr {
        key: "T"
        value {
          type: DT_FLOAT
        }
      }
      attr {
        key: "_output_shapes"
        value {
          list {
            shape {
            }
          }
        }
      }
    }
    node {
      name: "while/Pow/y"
      op: "Const"
      input: "^while/Merge"
      attr {
        key: "_output_shapes"
        value {
          list {
            shape {
            }
          }
        }
      }
      attr {
        key: "dtype"
        value {
          type: DT_FLOAT
        }
      }
      attr {
        key: "value"
        value {
          tensor {
            dtype: DT_FLOAT
            tensor_shape {
            }
            float_val: 0.6000000238418579
          }
        }
      }
    }
    node {
      name: "while/Pow"
      op: "Pow"
      input: "while/truediv"
      input: "while/Pow/y"
      attr {
        key: "T"
        value {
          type: DT_FLOAT
        }
      }
      attr {
        key: "_output_shapes"
        value {
          list {
            shape {
            }
          }
        }
      }
    }
    node {
      name: "while/strided_slice/stack"
      op: "Const"
      input: "^while/Merge"
      attr {
        key: "_output_shapes"
        value {
          list {
            shape {
              dim {
                size: 2
              }
            }
          }
        }
      }
      attr {
        key: "dtype"
        value {
          type: DT_INT32
        }
      }
      attr {
        key: "value"
        value {
          tensor {
            dtype: DT_INT32
            tensor_shape {
              dim {
                size: 2
              }
            }
            tensor_content: "\000\000\000\000\000\000\000\000"
          }
        }
      }
    }
    node {
      name: "while/strided_slice/stack_1"
      op: "Const"
      input: "^while/Merge"
      attr {
        key: "_output_shapes"
        value {
          list {
            shape {
              dim {
                size: 2
              }
            }
          }
        }
      }
      attr {
        key: "dtype"
        value {
          type: DT_INT32
        }
      }
      attr {
        key: "value"
        value {
          tensor {
            dtype: DT_INT32
            tensor_shape {
              dim {
                size: 2
              }
            }
            tensor_content: "\000\000\000\000\001\000\000\000"
          }
        }
      }
    }
    node {
      name: "while/strided_slice/stack_2"
      op: "Const"
      input: "^while/Merge"
      attr {
        key: "_output_shapes"
        value {
          list {
            shape {
              dim {
                size: 2
              }
            }
          }
        }
      }
      attr {
        key: "dtype"
        value {
          type: DT_INT32
        }
      }
      attr {
        key: "value"
        value {
          tensor {
            dtype: DT_INT32
            tensor_shape {
              dim {
                size: 2
              }
            }
            tensor_content: "\001\000\000\000\001\000\000\000"
          }
        }
      }
    }
    node {
      name: "while/strided_slice"
      op: "StridedSlice"
      input: "while/Merge_2"
      input: "while/strided_slice/stack"
      input: "while/strided_slice/stack_1"
      input: "while/strided_slice/stack_2"
      attr {
        key: "Index"
        value {
          type: DT_INT32
        }
      }
      attr {
        key: "T"
        value {
          type: DT_FLOAT
        }
      }
      attr {
        key: "_output_shapes"
        value {
          list {
            shape {
              dim {
                size: -1
              }
            }
          }
        }
      }
      attr {
        key: "begin_mask"
        value {
          i: 1
        }
      }
      attr {
        key: "ellipsis_mask"
        value {
          i: 0
        }
      }
      attr {
        key: "end_mask"
        value {
          i: 1
        }
      }
      attr {
        key: "new_axis_mask"
        value {
          i: 0
        }
      }
      attr {
        key: "shrink_axis_mask"
        value {
          i: 2
        }
      }
    }
    node {
      name: "while/truediv_1"
      op: "RealDiv"
      input: "while/strided_slice"
      input: "while/Pow"
      attr {
        key: "T"
        value {
          type: DT_FLOAT
        }
      }
      attr {
        key: "_output_shapes"
        value {
          list {
            shape {
              dim {
                size: -1
              }
            }
          }
        }
      }
    }
    node {
      name: "while/ToFloat_1"
      op: "Cast"
      input: "while/Merge_5"
      attr {
        key: "DstT"
        value {
          type: DT_FLOAT
        }
      }
      attr {
        key: "SrcT"
        value {
          type: DT_BOOL
        }
      }
      attr {
        key: "_output_shapes"
        value {
          list {
            shape {
              dim {
                size: -1
              }
              dim {
                size: 4
              }
            }
          }
        }
      }
    }
    node {
      name: "while/mul"
      op: "Mul"
      input: "while/Merge_4"
      input: "while/ToFloat_1"
      attr {
        key: "T"
        value {
          type: DT_FLOAT
        }
      }
      attr {
        key: "_output_shapes"
        value {
          list {
            shape {
              dim {
                size: -1
              }
              dim {
                size: 4
              }
            }
          }
        }
      }
    }
    node {
      name: "while/Min/reduction_indices"
      op: "Const"
      input: "^while/Merge"
      attr {
        key: "_output_shapes"
        value {
          list {
            shape {
            }
          }
        }
      }
      attr {
        key: "dtype"
        value {
          type: DT_INT32
        }
      }
      attr {
        key: "value"
        value {
          tensor {
            dtype: DT_INT32
            tensor_shape {
            }
            int_val: 1
          }
        }
      }
    }
    node {
      name: "while/Min"
      op: "Min"
      input: "while/mul"
      input: "while/Min/reduction_indices"
      attr {
        key: "T"
        value {
          type: DT_FLOAT
        }
      }
      attr {
        key: "Tidx"
        value {
          type: DT_INT32
        }
      }
      attr {
        key: "_output_shapes"
        value {
          list {
            shape {
              dim {
                size: -1
              }
            }
          }
        }
      }
      attr {
        key: "keep_dims"
        value {
          b: false
        }
      }
    }
    node {
      name: "while/Any/reduction_indices"
      op: "Const"
      input: "^while/Merge"
      attr {
        key: "_output_shapes"
        value {
          list {
            shape {
            }
          }
        }
      }
      attr {
        key: "dtype"
        value {
          type: DT_INT32
        }
      }
      attr {
        key: "value"
        value {
          tensor {
            dtype: DT_INT32
            tensor_shape {
            }
            int_val: 1
          }
        }
      }
    }
    node {
      name: "while/Any"
      op: "Any"
      input: "while/Merge_5"
      input: "while/Any/reduction_indices"
      attr {
        key: "Tidx"
        value {
          type: DT_INT32
        }
      }
      attr {
        key: "_output_shapes"
        value {
          list {
            shape {
              dim {
                size: -1
              }
            }
          }
        }
      }
      attr {
        key: "keep_dims"
        value {
          b: false
        }
      }
    }
    node {
      name: "while/ToFloat_2"
      op: "Cast"
      input: "while/Any"
      attr {
        key: "DstT"
        value {
          type: DT_FLOAT
        }
      }
      attr {
        key: "SrcT"
        value {
…
_6/lstm_seq2seq_attention_bidirectional_encoder/body/lstm_seq2seq_attention_bid_encoder/decoder/rnn/while/rnn/attention_wrapper/attention_wrapper/multi_rnn_cell/cell_0/dropout/Floor:0\n\364\001while/lstm_seq2seq_attention_bidirectional_encoder/parallel_0_6/lstm_seq2seq_attention_bidirectional_encoder/body/lstm_seq2seq_attention_bid_encoder/decoder/rnn/while/rnn/attention_wrapper/attention_wrapper/multi_rnn_cell/cell_0/dropout/Shape:0\n\370\001while/lstm_seq2seq_attention_bidirectional_encoder/parallel_0_6/lstm_seq2seq_attention_bidirectional_encoder/body/lstm_seq2seq_attention_bid_encoder/decoder/rnn/while/rnn/attention_wrapper/attention_wrapper/multi_rnn_cell/cell_0/dropout/add/Enter:0\n\362\001while/lstm_seq2seq_attention_bidirectional_encoder/parallel_0_6/lstm_seq2seq_attention_bidirectional_encoder/body/lstm_seq2seq_attention_bid_encoder/decoder/rnn/while/rnn/attention_wrapper/attention_wrapper/multi_rnn_cell/cell_0/dropout/add:0\n\362\001while/lstm_seq2seq_attention_bidirectional_encoder/parallel_0_6/lstm_seq2seq_attention_bidirectional_encoder/body/lstm_seq2seq_attention_bid_encoder/decoder/rnn/while/rnn/attention_wrapper/attention_wrapper/multi_rnn_cell/cell_0/dropout/div:0\n\362\001while/lstm_seq2seq_attention_bidirectional_encoder/parallel_0_6/lstm_seq2seq_attention_bidirectional_encoder/body/lstm_seq2seq_attention_bid_encoder/decoder/rnn/while/rnn/attention_wrapper/attention_wrapper/multi_rnn_cell/cell_0/dropout/mul:0\n\213\002while/lstm_seq2seq_attention_bidirectional_encoder/parallel_0_6/lstm_seq2seq_attention_bidirectional_encoder/body/lstm_seq2seq_attention_bid_encoder/decoder/rnn/while/rnn/attention_wrapper/attention_wrapper/multi_rnn_cell/cell_0/dropout/random_uniform/RandomUniform:0\n\201\002while/lstm_seq2seq_attention_bidirectional_encoder/parallel_0_6/lstm_seq2seq_attention_bidirectional_encoder/body/lstm_seq2seq_attention_bid_encoder/decoder/rnn/while/rnn/attention_wrapper/attention_wrapper/multi_rnn_cell/cell_0/dropout/random_uniform/max:0\n\201\002while/lstm_seq2seq_attention_bidirectional_encoder/parallel_0_6/lstm_seq2seq_attention_bidirectional_encoder/body/lstm_seq2seq_attention_bid_encoder/decoder/rnn/while/rnn/attention_wrapper/attention_wrapper/multi_rnn_cell/cell_0/dropout/random_uniform/min:0\n\201\002while/lstm_seq2seq_attention_bidirectional_encoder/parallel_0_6/lstm_seq2seq_attention_bidirectional_encoder/body/lstm_seq2seq_attention_bid_encoder/decoder/rnn/while/rnn/attention_wrapper/attention_wrapper/multi_rnn_cell/cell_0/dropout/random_uniform/mul:0\n\201\002while/lstm_seq2seq_attention_bidirectional_encoder/parallel_0_6/lstm_seq2seq_attention_bidirectional_encoder/body/lstm_seq2seq_attention_bid_encoder/decoder/rnn/while/rnn/attention_wrapper/attention_wrapper/multi_rnn_cell/cell_0/dropout/random_uniform/sub:0\n\375\001while/lstm_seq2seq_attention_bidirectional_encoder/parallel_0_6/lstm_seq2seq_attention_bidirectional_encoder/body/lstm_seq2seq_attention_bid_encoder/decoder/rnn/while/rnn/attention_wrapper/attention_wrapper/multi_rnn_cell/cell_0/dropout/random_uniform:0\n\372\001while/lstm_seq2seq_attention_bidirectional_encoder/parallel_0_6/lstm_seq2seq_attention_bidirectional_encoder/body/lstm_seq2seq_attention_bid_encoder/decoder/rnn/while/rnn/attention_wrapper/attention_wrapper/multi_rnn_cell/cell_1/basic_lstm_cell/Add:0\n\374\001while/lstm_seq2seq_attention_bidirectional_encoder/parallel_0_6/lstm_seq2seq_attention_bidirectional_encoder/body/lstm_seq2seq_attention_bid_encoder/decoder/rnn/while/rnn/attention_wrapper/attention_wrapper/multi_rnn_cell/cell_1/basic_lstm_cell/Add_1:0\n\206\002while/lstm_seq2seq_attention_bidirectional_encoder/parallel_0_6/lstm_seq2seq_attention_bidirectional_encoder/body/lstm_seq2seq_attention_bid_encoder/decoder/rnn/while/rnn/attention_wrapper/attention_wrapper/multi_rnn_cell/cell_1/basic_lstm_cell/BiasAdd/Enter_1:0\n\376\001while/lstm_seq2seq_attention_bidirectional_encoder/parallel_0_6/lstm_seq2seq_attention_bidirectional_encoder/body/lstm_seq2seq_attention_bid_encoder/decoder/rnn/while/rnn/attention_wrapper/attention_wrapper/multi_rnn_cell/cell_1/basic_lstm_cell/BiasAdd:0\n\374\001while/lstm_seq2seq_attention_bidirectional_encoder/parallel_0_6/lstm_seq2seq_attention_bidirectional_encoder/body/lstm_seq2seq_attention_bid_encoder/decoder/rnn/while/rnn/attention_wrapper/attention_wrapper/multi_rnn_cell/cell_1/basic_lstm_cell/Const:0\n\376\001while/lstm_seq2seq_attention_bidirectional_encoder/parallel_0_6/lstm_seq2seq_attention_bidirectional_encoder/body/lstm_seq2seq_attention_bid_encoder/decoder/rnn/while/rnn/attention_wrapper/attention_wrapper/multi_rnn_cell/cell_1/basic_lstm_cell/Const_1:0\n\376\001while/lstm_seq2seq_attention_bidirectional_encoder/parallel_0_6/lstm_seq2seq_attention_bidirectional_encoder/body/lstm_seq2seq_attention_bid_encoder/decoder/rnn/while/rnn/attention_wrapper/attention_wrapper/multi_rnn_cell/cell_1/basic_lstm_cell/Const_2:0\n\205\002while/lstm_seq2seq_attention_bidirectional_encoder/parallel_0_6/lstm_seq2seq_attention_bidirectional_encoder/body/lstm_seq2seq_attention_bid_encoder/decoder/rnn/while/rnn/attention_wrapper/attention_wrapper/multi_rnn_cell/cell_1/basic_lstm_cell/MatMul/Enter_1:0\n\375\001while/lstm_seq2seq_attention_bidirectional_encoder/parallel_0_6/lstm_seq2seq_attention_bidirectional_encoder/body/lstm_seq2seq_attention_bid_encoder/decoder/rnn/while/rnn/attention_wrapper/attention_wrapper/multi_rnn_cell/cell_1/basic_lstm_cell/MatMul:0\n\372\001while/lstm_seq2seq_attention_bidirectional_encoder/parallel_0_6/lstm_seq2seq_attention_bidirectional_encoder/body/lstm_seq2seq_attention_bid_encoder/decoder/rnn/while/rnn/attention_wrapper/attention_wrapper/multi_rnn_cell/cell_1/basic_lstm_cell/Mul:0\n\374\001while/lstm_seq2seq_attention_bidirectional_encoder/parallel_0_6/lstm_seq2seq_attention_bidirectional_encoder/body/lstm_seq2seq_attention_bid_encoder/decoder/rnn/while/rnn/attention_wrapper/attention_wrapper/multi_rnn_cell/cell_1/basic_lstm_cell/Mul_1:0\n\374\001while/lstm_seq2seq_attention_bidirectional_encoder/parallel_0_6/lstm_seq2seq_attention_bidirectional_encoder/body/lstm_seq2seq_attention_bid_encoder/decoder/rnn/while/rnn/attention_wrapper/attention_wrapper/multi_rnn_cell/cell_1/basic_lstm_cell/Mul_2:0\n\376\001while/lstm_seq2seq_attention_bidirectional_encoder/parallel_0_6/lstm_seq2seq_attention_bidirectional_encoder/body/lstm_seq2seq_attention_bid_encoder/decoder/rnn/while/rnn/attention_wrapper/attention_wrapper/multi_rnn_cell/cell_1/basic_lstm_cell/Sigmoid:0\n\200\002while/lstm_seq2seq_attention_bidirectional_encoder/parallel_0_6/lstm_seq2seq_attention_bidirectional_encoder/body/lstm_seq2seq_attention_bid_encoder/decoder/rnn/while/rnn/attention_wrapper/attention_wrapper/multi_rnn_cell/cell_1/basic_lstm_cell/Sigmoid_1:0\n\200\002while/lstm_seq2seq_attention_bidirectional_encoder/parallel_0_6/lstm_seq2seq_attention_bidirectional_encoder/body/lstm_seq2seq_attention_bid_encoder/decoder/rnn/while/rnn/attention_wrapper/attention_wrapper/multi_rnn_cell/cell_1/basic_lstm_cell/Sigmoid_2:0\n\373\001while/lstm_seq2seq_attention_bidirectional_encoder/parallel_0_6/lstm_seq2seq_attention_bidirectional_encoder/body/lstm_seq2seq_attention_bid_encoder/decoder/rnn/while/rnn/attention_wrapper/attention_wrapper/multi_rnn_cell/cell_1/basic_lstm_cell/Tanh:0\n\375\001while/lstm_seq2seq_attention_bidirectional_encoder/parallel_0_6/lstm_seq2seq_attention_bidirectional_encoder/body/lstm_seq2seq_attention_bid_encoder/decoder/rnn/while/rnn/attention_wrapper/attention_wrapper/multi_rnn_cell/cell_1/basic_lstm_cell/Tanh_1:0\n\202\002while/lstm_seq2seq_attention_bidirectional_encoder/parallel_0_6/lstm_seq2seq_attention_bidirectional_encoder/body/lstm_seq2seq_attention_bid_encoder/decoder/rnn/while/rnn/attention_wrapper/attention_wrapper/multi_rnn_cell/cell_1/basic_lstm_cell/concat/axis:0\n\375\001while/lstm_seq2seq_attention_bidirectional_encoder/parallel_0_6/lstm_seq2seq_attention_bidirectional_encoder/body/lstm_seq2seq_attention_bid_encoder/decoder/rnn/while/rnn/attention_wrapper/attention_wrapper/multi_rnn_cell/cell_1/basic_lstm_cell/concat:0\n\374\001while/lstm_seq2seq_attention_bidirectional_encoder/parallel_0_6/lstm_seq2seq_attention_bidirectional_encoder/body/lstm_seq2seq_attention_bid_encoder/decoder/rnn/while/rnn/attention_wrapper/attention_wrapper/multi_rnn_cell/cell_1/basic_lstm_cell/split:0\n\374\001while/lstm_seq2seq_attention_bidirectional_encoder/parallel_0_6/lstm_seq2seq_attention_bidirectional_encoder/body/lstm_seq2seq_attention_bid_encoder/decoder/rnn/while/rnn/attention_wrapper/attention_wrapper/multi_rnn_cell/cell_1/basic_lstm_cell/split:1\n\374\001while/lstm_seq2seq_attention_bidirectional_encoder/parallel_0_6/lstm_seq2seq_attention_bidirectional_encoder/body/lstm_seq2seq_attention_bid_encoder/decoder/rnn/while/rnn/attention_wrapper/attention_wrapper/multi_rnn_cell/cell_1/basic_lstm_cell/split:2\n\374\001while/lstm_seq2seq_attention_bidirectional_encoder/parallel_0_6/lstm_seq2seq_attention_bidirectional_encoder/body/lstm_seq2seq_attention_bid_encoder/decoder/rnn/while/rnn/attention_wrapper/attention_wrapper/multi_rnn_cell/cell_1/basic_lstm_cell/split:3\n\364\001while/lstm_seq2seq_attention_bidirectional_encoder/parallel_0_6/lstm_seq2seq_attention_bidirectional_encoder/body/lstm_seq2seq_attention_bid_encoder/decoder/rnn/while/rnn/attention_wrapper/attention_wrapper/multi_rnn_cell/cell_1/dropout/Floor:0\n\364\001while/lstm_seq2seq_attention_bidirectional_encoder/parallel_0_6/lstm_seq2seq_attention_bidirectional_encoder/body/lstm_seq2seq_attention_bid_encoder/decoder/rnn/while/rnn/attention_wrapper/attention_wrapper/multi_rnn_cell/cell_1/dropout/Shape:0\n\370\001while/lstm_seq2seq_attention_bidirectional_encoder/parallel_0_6/lstm_seq2seq_attention_bidirectional_encoder/body/lstm_seq2seq_attention_bid_encoder/decoder/rnn/while/rnn/attention_wrapper/attention_wrapper/multi_rnn_cell/cell_1/dropout/add/Enter:0\n\362\001while/lstm_seq2seq_attention_bidirectional_encoder/parallel_0_6/lstm_seq2seq_attention_bidirectional_encoder/body/lstm_seq2seq_attention_bid_encoder/decoder/rnn/while/rnn/attention_wrapper/attention_wrapper/multi_rnn_cell/cell_1/dropout/add:0\n\362\001while/lstm_seq2seq_attention_bidirectional_encoder/parallel_0_6/lstm_seq2seq_attention_bidirectional_encoder/body/lstm_seq2seq_attention_bid_encoder/decoder/rnn/while/rnn/attention_wrapper/attention_wrapper/multi_rnn_cell/cell_1/dropout/div:0\n\362\001while/lstm_seq2seq_attention_bidirectional_encoder/parallel_0_6/lstm_seq2seq_attention_bidirectional_encoder/body/lstm_seq2seq_attention_bid_encoder/decoder/rnn/while/rnn/attention_wrapper/attention_wrapper/multi_rnn_cell/cell_1/dropout/mul:0\n\213\002while/lstm_seq2seq_attention_bidirectional_encoder/parallel_0_6/lstm_seq2seq_attention_bidirectional_encoder/body/lstm_seq2seq_attention_bid_encoder/decoder/rnn/while/rnn/attention_wrapper/attention_wrapper/multi_rnn_cell/cell_1/dropout/random_uniform/RandomUniform:0\n\201\002while/lstm_seq2seq_attention_bidirectional_encoder/parallel_0_6/lstm_seq2seq_attention_bidirectional_encoder/body/lstm_seq2seq_attention_bid_encoder/decoder/rnn/while/rnn/attention_wrapper/attention_wrapper/multi_rnn_cell/cell_1/dropout/random_uniform/max:0\n\201\002while/lstm_seq2seq_attention_bidirectional_encoder/parallel_0_6/lstm_seq2seq_attention_bidirectional_encoder/body/lstm_seq2seq_attention_bid_encoder/decoder/rnn/while/rnn/attention_wrapper/attention_wrapper/multi_rnn_cell/cell_1/dropout/random_uniform/min:0\n\201\002while/lstm_seq2seq_attention_bidirectional_encoder/parallel_0_6/lstm_seq2seq_attention_bidirectional_encoder/body/lstm_seq2seq_attention_bid_encoder/decoder/rnn/while/rnn/attention_wrapper/attention_wrapper/multi_rnn_cell/cell_1/dropout/random_uniform/mul:0\n\201\002while/lstm_seq2seq_attention_bidirectional_encoder/parallel_0_6/lstm_seq2seq_attention_bidirectional_encoder/body/lstm_seq2seq_attention_bid_encoder/decoder/rnn/while/rnn/attention_wrapper/attention_wrapper/multi_rnn_cell/cell_1/dropout/random_uniform/sub:0\n\375\001while/lstm_seq2seq_attention_bidirectional_encoder/parallel_0_6/lstm_seq2seq_attention_bidirectional_encoder/body/lstm_seq2seq_attention_bid_encoder/decoder/rnn/while/rnn/attention_wrapper/attention_wrapper/multi_rnn_cell/cell_1/dropout/random_uniform:0\n\372\001while/lstm_seq2seq_attention_bidirectional_encoder/parallel_0_6/lstm_seq2seq_attention_bidirectional_encoder/body/lstm_seq2seq_attention_bid_encoder/decoder/rnn/while/rnn/attention_wrapper/attention_wrapper/multi_rnn_cell/cell_2/basic_lstm_cell/Add:0\n\374\001while/lstm_seq2seq_attention_bidirectional_encoder/parallel_0_6/lstm_seq2seq_attention_bidirectional_encoder/body/lstm_seq2seq_attention_bid_encoder/decoder/rnn/while/rnn/attention_wrapper/attention_wrapper/multi_rnn_cell/cell_2/basic_lstm_cell/Add_1:0\n\206\002while/lstm_seq2seq_attention_bidirectional_encoder/parallel_0_6/lstm_seq2seq_attention_bidirectional_encoder/body/lstm_seq2seq_attention_bid_encoder/decoder/rnn/while/rnn/attention_wrapper/attention_wrapper/multi_rnn_cell/cell_2/basic_lstm_cell/BiasAdd/Enter_1:0\n\376\001while/lstm_seq2seq_attention_bidirectional_encoder/parallel_0_6/lstm_seq2seq_attention_bidirectional_encoder/body/lstm_seq2seq_attention_bid_encoder/decoder/rnn/while/rnn/attention_wrapper/attention_wrapper/multi_rnn_cell/cell_2/basic_lstm_cell/BiasAdd:0\n\374\001while/lstm_seq2seq_attention_bidirectional_encoder/parallel_0_6/lstm_seq2seq_attention_bidirectional_encoder/body/lstm_seq2seq_attention_bid_encoder/decoder/rnn/while/rnn/attention_wrapper/attention_wrapper/multi_rnn_cell/cell_2/basic_lstm_cell/Const:0\n\376\001while/lstm_seq2seq_attention_bidirectional_encoder/parallel_0_6/lstm_seq2seq_attention_bidirectional_encoder/body/lstm_seq2seq_attention_bid_encoder/decoder/rnn/while/rnn/attention_wrapper/attention_wrapper/multi_rnn_cell/cell_2/basic_lstm_cell/Const_1:0\n\376\001while/lstm_seq2seq_attention_bidirectional_encoder/parallel_0_6/lstm_seq2seq_attention_bidirectional_encoder/body/lstm_seq2seq_attention_bid_encoder/decoder/rnn/while/rnn/attention_wrapper/attention_wrapper/multi_rnn_cell/cell_2/basic_lstm_cell/Const_2:0\n\205\002while/lstm_seq2seq_attention_bidirectional_encoder/parallel_0_6/lstm_seq2seq_attention_bidirectional_encoder/body/lstm_seq2seq_attention_bid_encoder/decoder/rnn/while/rnn/attention_wrapper/attention_wrapper/multi_rnn_cell/cell_2/basic_lstm_cell/MatMul/Enter_1:0\n\375\001while/lstm_seq2seq_attention_bidirectional_encoder/parallel_0_6/lstm_seq2seq_attention_bidirectional_encoder/body/lstm_seq2seq_attention_bid_encoder/decoder/rnn/while/rnn/attention_wrapper/attention_wrapper/multi_rnn_cell/cell_2/basic_lstm_cell/MatMul:0\n\372\001while/lstm_seq2seq_attention_bidirectional_encoder/parallel_0_6/lstm_seq2seq_attention_bidirectional_encoder/body/lstm_seq2seq_attention_bid_encoder/decoder/rnn/while/rnn/attention_wrapper/attention_wrapper/multi_rnn_cell/cell_2/basic_lstm_cell/Mul:0\n\374\001while/lstm_seq2seq_attention_bidirectional_encoder/parallel_0_6/lstm_seq2seq_attention_bidirectional_encoder/body/lstm_seq2seq_attention_bid_encoder/decoder/rnn/while/rnn/attention_wrapper/attention_wrapper/multi_rnn_cell/cell_2/basic_lstm_cell/Mul_1:0\n\374\001while/lstm_seq2seq_attention_bidirectional_encoder/parallel_0_6/lstm_seq2seq_attention_bidirectional_encoder/body/lstm_seq2seq_attention_bid_encoder/decoder/rnn/while/rnn/attention_wrapper/attention_wrapper/multi_rnn_cell/cell_2/basic_lstm_cell/Mul_2:0\n\376\001while/lstm_seq2seq_attention_bidirectional_encoder/parallel_0_6/lstm_seq2seq_attention_bidirectional_encoder/body/lstm_seq2seq_attention_bid_encoder/decoder/rnn/while/rnn/attention_wrapper/attention_wrapper/multi_rnn_cell/cell_2/basic_lstm_cell/Sigmoid:0\n\200\002while/lstm_seq2seq_attention_bidirectional_encoder/parallel_0_6/lstm_seq2seq_attention_bidirectional_encoder/body/lstm_seq2seq_attention_bid_encoder/decoder/rnn/while/rnn/attention_wrapper/attention_wrapper/multi_rnn_cell/cell_2/basic_lstm_cell/Sigmoid_1:0\n\200\002while/lstm_seq2seq_attention_bidirectional_encoder/parallel_0_6/lstm_seq2seq_attention_bidirectional_encoder/body/lstm_seq2seq_attention_bid_encoder/decoder/rnn/while/rnn/attention_wrapper/attention_wrapper/multi_rnn_cell/cell_2/basic_lstm_cell/Sigmoid_2:0\n\373\001while/lstm_seq2seq_attention_bidirectional_encoder/parallel_0_6/lstm_seq2seq_attention_bidirectional_encoder/body/lstm_seq2seq_attention_bid_encoder/decoder/rnn/while/rnn/attention_wrapper/attention_wrapper/multi_rnn_cell/cell_2/basic_lstm_cell/Tanh:0\n\375\001while/lstm_seq2seq_attention_bidirectional_encoder/parallel_0_6/lstm_seq2seq_attention_bidirectional_encoder/body/lstm_seq2seq_attention_bid_encoder/decoder/rnn/while/rnn/attention_wrapper/attention_wrapper/multi_rnn_cell/cell_2/basic_lstm_cell/Tanh_1:0\n\202\002while/lstm_seq2seq_attention_bidirectional_encoder/parallel_0_6/lstm_seq2seq_attention_bidirectional_encoder/body/lstm_seq2seq_attention_bid_encoder/decoder/rnn/while/rnn/attention_wrapper/attention_wrapper/multi_rnn_cell/cell_2/basic_lstm_cell/concat/axis:0\n\375\001while/lstm_seq2seq_attention_bidirectional_encoder/parallel_0_6/lstm_seq2seq_attention_bidirectional_encoder/body/lstm_seq2seq_attention_bid_encoder/decoder/rnn/while/rnn/attention_wrapper/attention_wrapper/multi_rnn_cell/cell_2/basic_lstm_cell/concat:0\n\374\001while/lstm_seq2seq_attention_bidirectional_encoder/parallel_0_6/lstm_seq2seq_attention_bidirectional_encoder/body/lstm_seq2seq_attention_bid_encoder/decoder/rnn/while/rnn/attention_wrapper/attention_wrapper/multi_rnn_cell/cell_2/basic_lstm_cell/split:0\n\374\001while/lstm_seq2seq_attention_bidirectional_encoder/parallel_0_6/lstm_seq2seq_attention_bidirectional_encoder/body/lstm_seq2seq_attention_bid_encoder/decoder/rnn/while/rnn/attention_wrapper/attention_wrapper/multi_rnn_cell/cell_2/basic_lstm_cell/split:1\n\374\001while/lstm_seq2seq_attention_bidirectional_encoder/parallel_0_6/lstm_seq2seq_attention_bidirectional_encoder/body/lstm_seq2seq_attention_bid_encoder/decoder/rnn/while/rnn/attention_wrapper/attention_wrapper/multi_rnn_cell/cell_2/basic_lstm_cell/split:2\n\374\001while/lstm_seq2seq_attention_bidirectional_encoder/parallel_0_6/lstm_seq2seq_attention_bidirectional_encoder/body/lstm_seq2seq_attention_bid_encoder/decoder/rnn/while/rnn/attention_wrapper/attention_wrapper/multi_rnn_cell/cell_2/basic_lstm_cell/split:3\n\364\001while/lstm_seq2seq_attention_bidirectional_encoder/parallel_0_6/lstm_seq2seq_attention_bidirectional_encoder/body/lstm_seq2seq_attention_bid_encoder/decoder/rnn/while/rnn/attention_wrapper/attention_wrapper/multi_rnn_cell/cell_2/dropout/Floor:0\n\364\001while/lstm_seq2seq_attention_bidirectional_encoder/parallel_0_6/lstm_seq2seq_attention_bidirectional_encoder/body/lstm_seq2seq_attention_bid_encoder/decoder/rnn/while/rnn/attention_wrapper/attention_wrapper/multi_rnn_cell/cell_2/dropout/Shape:0\n\370\001while/lstm_seq2seq_attention_bidirectional_encoder/parallel_0_6/lstm_seq2seq_attention_bidirectional_encoder/body/lstm_seq2seq_attention_bid_encoder/decoder/rnn/while/rnn/attention_wrapper/attention_wrapper/multi_rnn_cell/cell_2/dropout/add/Enter:0\n\362\001while/lstm_seq2seq_attention_bidirectional_encoder/parallel_0_6/lstm_seq2seq_attention_bidirectional_encoder/body/lstm_seq2seq_attention_bid_encoder/decoder/rnn/while/rnn/attention_wrapper/attention_wrapper/multi_rnn_cell/cell_2/dropout/add:0\n\362\001while/lstm_seq2seq_attention_bidirectional_encoder/parallel_0_6/lstm_seq2seq_attention_bidirectional_encoder/body/lstm_seq2seq_attention_bid_encoder/decoder/rnn/while/rnn/attention_wrapper/attention_wrapper/multi_rnn_cell/cell_2/dropout/div:0\n\362\001while/lstm_seq2seq_attention_bidirectional_encoder/parallel_0_6/lstm_seq2seq_attention_bidirectional_encoder/body/lstm_seq2seq_attention_bid_encoder/decoder/rnn/while/rnn/attention_wrapper/attention_wrapper/multi_rnn_cell/cell_2/dropout/mul:0\n\213\002while/lstm_seq2seq_attention_bidirectional_encoder/parallel_0_6/lstm_seq2seq_attention_bidirectional_encoder/body/lstm_seq2seq_attention_bid_encoder/decoder/rnn/while/rnn/attention_wrapper/attention_wrapper/multi_rnn_cell/cell_2/dropout/random_uniform/RandomUniform:0\n\201\002while/lstm_seq2seq_attention_bidirectional_encoder/parallel_0_6/lstm_seq2seq_attention_bidirectional_encoder/body/lstm_seq2seq_attention_bid_encoder/decoder/rnn/while/rnn/attention_wrapper/attention_wrapper/multi_rnn_cell/cell_2/dropout/random_uniform/max:0\n\201\002while/lstm_seq2seq_attention_bidirectional_encoder/parallel_0_6/lstm_seq2seq_attention_bidirectional_encoder/body/lstm_seq2seq_attention_bid_encoder/decoder/rnn/while/rnn/attention_wrapper/attention_wrapper/multi_rnn_cell/cell_2/dropout/random_uniform/min:0\n\201\002while/lstm_seq2seq_attention_bidirectional_encoder/parallel_0_6/lstm_seq2seq_attention_bidirectional_encoder/body/lstm_seq2seq_attention_bid_encoder/decoder/rnn/while/rnn/attention_wrapper/attention_wrapper/multi_rnn_cell/cell_2/dropout/random_uniform/mul:0\n\201\002while/lstm_seq2seq_attention_bidirectional_encoder/parallel_0_6/lstm_seq2seq_attention_bidirectional_encoder/body/lstm_seq2seq_attention_bid_encoder/decoder/rnn/while/rnn/attention_wrapper/attention_wrapper/multi_rnn_cell/cell_2/dropout/random_uniform/sub:0\n\375\001while/lstm_seq2seq_attention_bidirectional_encoder/parallel_0_6/lstm_seq2seq_attention_bidirectional_encoder/body/lstm_seq2seq_attention_bid_encoder/decoder/rnn/while/rnn/attention_wrapper/attention_wrapper/multi_rnn_cell/cell_2/dropout/random_uniform:0\n\372\001while/lstm_seq2seq_attention_bidirectional_encoder/parallel_0_6/lstm_seq2seq_attention_bidirectional_encoder/body/lstm_seq2seq_attention_bid_encoder/decoder/rnn/while/rnn/attention_wrapper/attention_wrapper/multi_rnn_cell/cell_3/basic_lstm_cell/Add:0\n\374\001while/lstm_seq2seq_attention_bidirectional_encoder/parallel_0_6/lstm_seq2seq_attention_bidirectional_encoder/body/lstm_seq2seq_attention_bid_encoder/decoder/rnn/while/rnn/attention_wrapper/attention_wrapper/multi_rnn_cell/cell_3/basic_lstm_cell/Add_1:0\n\206\002while/lstm_seq2seq_attention_bidirectional_encoder/parallel_0_6/lstm_seq2seq_attention_bidirectional_encoder/body/lstm_seq2seq_attention_bid_encoder/decoder/rnn/while/rnn/attention_wrapper/attention_wrapper/multi_rnn_cell/cell_3/basic_lstm_cell/BiasAdd/Enter_1:0\n\376\001while/lstm_seq2seq_attention_bidirectional_encoder/parallel_0_6/lstm_seq2seq_attention_bidirectional_encoder/body/lstm_seq2seq_attention_bid_encoder/decoder/rnn/while/rnn/attention_wrapper/attention_wrapper/multi_rnn_cell/cell_3/basic_lstm_cell/BiasAdd:0\n\374\001while/lstm_seq2seq_attention_bidirectional_encoder/parallel_0_6/lstm_seq2seq_attention_bidirectional_encoder/body/lstm_seq2seq_attention_bid_encoder/decoder/rnn/while/rnn/attention_wrapper/attention_wrapper/multi_rnn_cell/cell_3/basic_lstm_cell/Const:0\n\376\001while/lstm_seq2seq_attention_bidirectional_encoder/parallel_0_6/lstm_seq2seq_attention_bidirectional_encoder/body/lstm_seq2seq_attention_bid_encoder/decoder/rnn/while/rnn/attention_wrapper/attention_wrapper/multi_rnn_cell/cell_3/basic_lstm_cell/Const_1:0\n\376\001while/lstm_seq2seq_attention_bidirectional_encoder/parallel_0_6/lstm_seq2seq_attention_bidirectional_encoder/body/lstm_seq2seq_attention_bid_encoder/decoder/rnn/while/rnn/attention_wrapper/attention_wrapper/multi_rnn_cell/cell_3/basic_lstm_cell/Const_2:0\n\205\002while/lstm_seq2seq_attention_bidirectional_encoder/parallel_0_6/lstm_seq2seq_attention_bidirectional_encoder/body/lstm_seq2seq_attention_bid_encoder/decoder/rnn/while/rnn/attention_wrapper/attention_wrapper/multi_rnn_cell/cell_3/basic_lstm_cell/MatMul/Enter_1:0\n\375\001while/lstm_seq2seq_attention_bidirectional_encoder/parallel_0_6/lstm_seq2seq_attention_bidirectional_encoder/body/lstm_seq2seq_attention_bid_encoder/decoder/rnn/while/rnn/attention_wrapper/attention_wrapper/multi_rnn_cell/cell_3/basic_lstm_cell/MatMul:0\n\372\001while/lstm_seq2seq_attention_bidirectional_encoder/parallel_0_6/lstm_seq2seq_attention_bidirectional_encoder/body/lstm_seq2seq_attention_bid_encoder/decoder/rnn/while/rnn/attention_wrapper/attention_wrapper/multi_rnn_cell/cell_3/basic_lstm_cell/Mul:0\n\374\001while/lstm_seq2seq_attention_bidirectional_encoder/parallel_0_6/lstm_seq2seq_attention_bidirectional_encoder/body/lstm_seq2seq_attention_bid_encoder/decoder/rnn/while/rnn/attention_wrapper/attention_wrapper/multi_rnn_cell/cell_3/basic_lstm_cell/Mul_1:0\n\374\001while/lstm_seq2seq_attention_bidirectional_encoder/parallel_0_6/lstm_seq2seq_attention_bidirectional_encoder/body/lstm_seq2seq_attention_bid_encoder/decoder/rnn/while/rnn/attention_wrapper/attention_wrapper/multi_rnn_cell/cell_3/basic_lstm_cell/Mul_2:0\n\376\001while/lstm_seq2seq_attention_bidirectional_encoder/parallel_0_6/lstm_seq2seq_attention_bidirectional_encoder/body/lstm_seq2seq_attention_bid_encoder/decoder/rnn/while/rnn/attention_wrapper/attention_wrapper/multi_rnn_cell/cell_3/basic_lstm_cell/Sigmoid:0\n\200\002while/lstm_seq2seq_attention_bidirectional_encoder/parallel_0_6/lstm_seq2seq_attention_bidirectional_encoder/body/lstm_seq2seq_attention_bid_encoder/decoder/rnn/while/rnn/attention_wrapper/attention_wrapper/multi_rnn_cell/cell_3/basic_lstm_cell/Sigmoid_1:0\n\200\002while/lstm_seq2seq_attention_bidirectional_encoder/parallel_0_6/lstm_seq2seq_attention_bidirectional_encoder/body/lstm_seq2seq_attention_bid_encoder/decoder/rnn/while/rnn/attention_wrapper/attention_wrapper/multi_rnn_cell/cell_3/basic_lstm_cell/Sigmoid_2:0\n\373\001while/lstm_seq2seq_attention_bidirectional_encoder/parallel_0_6/lstm_seq2seq_attention_bidirectional_encoder/body/lstm_seq2seq_attention_bid_encoder/decoder/rnn/while/rnn/attention_wrapper/attention_wrapper/multi_rnn_cell/cell_3/basic_lstm_cell/Tanh:0\n\375\001while/lstm_seq2seq_attention_bidirectional_encoder/parallel_0_6/lstm_seq2seq_attention_bidirectional_encoder/body/lstm_seq2seq_attention_bid_encoder/decoder/rnn/while/rnn/attention_wrapper/attention_wrapper/multi_rnn_cell/cell_3/basic_lstm_cell/Tanh_1:0\n\202\002while/lstm_seq2seq_attention_bidirectional_encoder/parallel_0_6/lstm_seq2seq_attention_bidirectional_encoder/body/lstm_seq2seq_attention_bid_encoder/decoder/rnn/while/rnn/attention_wrapper/attention_wrapper/multi_rnn_cell/cell_3/basic_lstm_cell/concat/axis:0\n\375\001while/lstm_seq2seq_attention_bidirectional_encoder/parallel_0_6/lstm_seq2seq_attention_bidirectional_encoder/body/lstm_seq2seq_attention_bid_encoder/decoder/rnn/while/rnn/attention_wrapper/attention_wrapper/multi_rnn_cell/cell_3/basic_lstm_cell/concat:0\n\374\001while/lstm_seq2seq_attention_bidirectional_encoder/parallel_0_6/lstm_seq2seq_attention_bidirectional_encoder/body/lstm_seq2seq_attention_bid_encoder/decoder/rnn/while/rnn/attention_wrapper/attention_wrapper/multi_rnn_cell/cell_3/basic_lstm_cell/split:0\n\374\001while/lstm_seq2seq_attention_bidirectional_encoder/parallel_0_6/lstm_seq2seq_attention_bidirectional_encoder/body/lstm_seq2seq_attention_bid_encoder/decoder/rnn/while/rnn/attention_wrapper/attention_wrapper/multi_rnn_cell/cell_3/basic_lstm_cell/split:1\n\374\001while/lstm_seq2seq_attention_bidirectional_encoder/parallel_0_6/lstm_seq2seq_attention_bidirectional_encoder/body/lstm_seq2seq_attention_bid_encoder/decoder/rnn/while/rnn/attention_wrapper/attention_wrapper/multi_rnn_cell/cell_3/basic_lstm_cell/split:2\n\374\001while/lstm_seq2seq_attention_bidirectional_encoder/parallel_0_6/lstm_seq2seq_attention_bidirectional_encoder/body/lstm_seq2seq_attention_bid_encoder/decoder/rnn/while/rnn/attention_wrapper/attention_wrapper/multi_rnn_cell/cell_3/basic_lstm_cell/split:3\n\364\001while/lstm_seq2seq_attention_bidirectional_encoder/parallel_0_6/lstm_seq2seq_attention_bidirectional_encoder/body/lstm_seq2seq_attention_bid_encoder/decoder/rnn/while/rnn/attention_wrapper/attention_wrapper/multi_rnn_cell/cell_3/dropout/Floor:0\n\364\001while/lstm_seq2seq_attention_bidirectional_encoder/parallel_0_6/lstm_seq2seq_attention_bidirectional_encoder/body/lstm_seq2seq_attention_bid_encoder/decoder/rnn/while/rnn/attention_wrapper/attention_wrapper/multi_rnn_cell/cell_3/dropout/Shape:0\n\370\001while/lstm_seq2seq_attention_bidirectional_encoder/parallel_0_6/lstm_seq2seq_attention_bidirectional_encoder/body/lstm_seq2seq_attention_bid_encoder/decoder/rnn/while/rnn/attention_wrapper/attention_wrapper/multi_rnn_cell/cell_3/dropout/add/Enter:0\n\362\001while/lstm_seq2seq_attention_bidirectional_encoder/parallel_0_6/lstm_seq2seq_attention_bidirectional_encoder/body/lstm_seq2seq_attention_bid_encoder/decoder/rnn/while/rnn/attention_wrapper/attention_wrapper/multi_rnn_cell/cell_3/dropout/add:0\n\362\001while/lstm_seq2seq_attention_bidirectional_encoder/parallel_0_6/lstm_seq2seq_attention_bidirectional_encoder/body/lstm_seq2seq_attention_bid_encoder/decoder/rnn/while/rnn/attention_wrapper/attention_wrapper/multi_rnn_cell/cell_3/dropout/div:0\n\362\001while/lstm_seq2seq_attention_bidirectional_encoder/parallel_0_6/lstm_seq2seq_attention_bidirectional_encoder/body/lstm_seq2seq_attention_bid_encoder/decoder/rnn/while/rnn/attention_wrapper/attention_wrapper/multi_rnn_cell/cell_3/dropout/mul:0\n\213\002while/lstm_seq2seq_attention_bidirectional_encoder/parallel_0_6/lstm_seq2seq_attention_bidirectional_encoder/body/lstm_seq2seq_attention_bid_encoder/decoder/rnn/while/rnn/attention_wrapper/attention_wrapper/multi_rnn_cell/cell_3/dropout/random_uniform/RandomUniform:0\n\201\002while/lstm_seq2seq_attention_bidirectional_encoder/parallel_0_6/lstm_seq2seq_attention_bidirectional_encoder/body/lstm_seq2seq_attention_bid_encoder/decoder/rnn/while/rnn/attention_wrapper/attention_wrapper/multi_rnn_cell/cell_3/dropout/random_uniform/max:0\n\201\002while/lstm_seq2seq_attention_bidirectional_encoder/parallel_0_6/lstm_seq2seq_attention_bidirectional_encoder/body/lstm_seq2seq_attention_bid_encoder/decoder/rnn/while/rnn/attention_wrapper/attention_wrapper/multi_rnn_cell/cell_3/dropout/random_uniform/min:0\n\201\002while/lstm_seq2seq_attention_bidirectional_encoder/parallel_0_6/lstm_seq2seq_attention_bidirectional_encoder/body/lstm_seq2seq_attention_bid_encoder/decoder/rnn/while/rnn/attention_wrapper/attention_wrapper/multi_rnn_cell/cell_3/dropout/random_uniform/mul:0\n\201\002while/lstm_seq2seq_attention_bidirectional_encoder/parallel_0_6/lstm_seq2seq_attention_bidirectional_encoder/body/lstm_seq2seq_attention_bid_encoder/decoder/rnn/while/rnn/attention_wrapper/attention_wrapper/multi_rnn_cell/cell_3/dropout/random_uniform/sub:0\n\375\001while/lstm_seq2seq_attention_bidirectional_encoder/parallel_0_6/lstm_seq2seq_attention_bidirectional_encoder/body/lstm_seq2seq_attention_bid_encoder/decoder/rnn/while/rnn/attention_wrapper/attention_wrapper/multi_rnn_cell/cell_3/dropout/random_uniform:0\n\340\001while/lstm_seq2seq_attention_bidirectional_encoder/parallel_0_6/lstm_seq2seq_attention_bidirectional_encoder/body/lstm_seq2seq_attention_bid_encoder/decoder/rnn/while/rnn/attention_wrapper/bahdanau_attention/ExpandDims/dim:0\n\334\001while/lstm_seq2seq_attention_bidirectional_encoder/parallel_0_6/lstm_seq2seq_attention_bidirectional_encoder/body/lstm_seq2seq_attention_bid_encoder/decoder/rnn/while/rnn/attention_wrapper/bahdanau_attention/ExpandDims:0\n\347\001while/lstm_seq2seq_attention_bidirectional_encoder/parallel_0_6/lstm_seq2seq_attention_bidirectional_encoder/body/lstm_seq2seq_attention_bid_encoder/decoder/rnn/while/rnn/attention_wrapper/bahdanau_attention/Sum/reduction_indices:0\n\325\001while/lstm_seq2seq_attention_bidirectional_encoder/parallel_0_6/lstm_seq2seq_attention_bidirectional_encoder/body/lstm_seq2seq_attention_bid_encoder/decoder/rnn/while/rnn/attention_wrapper/bahdanau_attention/Sum:0\n\326\001while/lstm_seq2seq_attention_bidirectional_encoder/parallel_0_6/lstm_seq2seq_attention_bidirectional_encoder/body/lstm_seq2seq_attention_bid_encoder/decoder/rnn/while/rnn/attention_wrapper/bahdanau_attention/Tanh:0\n\333\001while/lstm_seq2seq_attention_bidirectional_encoder/parallel_0_6/lstm_seq2seq_attention_bidirectional_encoder/body/lstm_seq2seq_attention_bid_encoder/decoder/rnn/while/rnn/attention_wrapper/bahdanau_attention/add/Enter:0\n\325\001while/lstm_seq2seq_attention_bidirectional_encoder/parallel_0_6/lstm_seq2seq_attention_bidirectional_encoder/body/lstm_seq2seq_attention_bid_encoder/decoder/rnn/while/rnn/attention_wrapper/bahdanau_attention/add:0\n\335\001while/lstm_seq2seq_attention_bidirectional_encoder/parallel_0_6/lstm_seq2seq_attention_bidirectional_encoder/body/lstm_seq2seq_attention_bid_encoder/decoder/rnn/while/rnn/attention_wrapper/bahdanau_attention/mul/Enter_1:0\n\325\001while/lstm_seq2seq_attention_bidirectional_encoder/parallel_0_6/lstm_seq2seq_attention_bidirectional_encoder/body/lstm_seq2seq_attention_bid_encoder/decoder/rnn/while/rnn/attention_wrapper/bahdanau_attention/mul:0\n\354\001while/lstm_seq2seq_attention_bidirectional_encoder/parallel_0_6/lstm_seq2seq_attention_bidirectional_encoder/body/lstm_seq2seq_attention_bid_encoder/decoder/rnn/while/rnn/attention_wrapper/bahdanau_attention/query_layer/MatMul/Enter_1:0\n\344\001while/lstm_seq2seq_attention_bidirectional_encoder/parallel_0_6/lstm_seq2seq_attention_bidirectional_encoder/body/lstm_seq2seq_attention_bid_encoder/decoder/rnn/while/rnn/attention_wrapper/bahdanau_attention/query_layer/MatMul:0\n\322\001while/lstm_seq2seq_attention_bidirectional_encoder/parallel_0_6/lstm_seq2seq_attention_bidirectional_encoder/body/lstm_seq2seq_attention_bid_encoder/decoder/rnn/while/rnn/attention_wrapper/checked_cell_output:0\n\312\001while/lstm_seq2seq_attention_bidirectional_encoder/parallel_0_6/lstm_seq2seq_attention_bidirectional_encoder/body/lstm_seq2seq_attention_bid_encoder/decoder/rnn/while/rnn/attention_wrapper/concat/axis:0\n\305\001while/lstm_seq2seq_attention_bidirectional_encoder/parallel_0_6/lstm_seq2seq_attention_bidirectional_encoder/body/lstm_seq2seq_attention_bid_encoder/decoder/rnn/while/rnn/attention_wrapper/concat:0\n\314\001while/lstm_seq2seq_attention_bidirectional_encoder/parallel_0_6/lstm_seq2seq_attention_bidirectional_encoder/body/lstm_seq2seq_attention_bid_encoder/decoder/rnn/while/rnn/attention_wrapper/concat_1/axis:0\n\307\001while/lstm_seq2seq_attention_bidirectional_encoder/parallel_0_6/lstm_seq2seq_attention_bidirectional_encoder/body/lstm_seq2seq_attention_bid_encoder/decoder/rnn/while/rnn/attention_wrapper/concat_1:0\n\322\001while/lstm_seq2seq_attention_bidirectional_encoder/parallel_0_6/lstm_seq2seq_attention_bidirectional_encoder/body/lstm_seq2seq_attention_bid_encoder/decoder/rnn/while/rnn/attention_wrapper/concat_2/concat_dim:0\n\307\001while/lstm_seq2seq_attention_bidirectional_encoder/parallel_0_6/lstm_seq2seq_attention_bidirectional_encoder/body/lstm_seq2seq_attention_bid_encoder/decoder/rnn/while/rnn/attention_wrapper/concat_2:0\n\322\001while/lstm_seq2seq_attention_bidirectional_encoder/parallel_0_6/lstm_seq2seq_attention_bidirectional_encoder/body/lstm_seq2seq_attention_bid_encoder/decoder/rnn/while/rnn/attention_wrapper/strided_slice/stack:0\n\324\001while/lstm_seq2seq_attention_bidirectional_encoder/parallel_0_6/lstm_seq2seq_attention_bidirectional_encoder/body/lstm_seq2seq_attention_bid_encoder/decoder/rnn/while/rnn/attention_wrapper/strided_slice/stack_1:0\n\324\001while/lstm_seq2seq_attention_bidirectional_encoder/parallel_0_6/lstm_seq2seq_attention_bidirectional_encoder/body/lstm_seq2seq_attention_bid_encoder/decoder/rnn/while/rnn/attention_wrapper/strided_slice/stack_2:0\n\314\001while/lstm_seq2seq_attention_bidirectional_encoder/parallel_0_6/lstm_seq2seq_attention_bidirectional_encoder/body/lstm_seq2seq_attention_bid_encoder/decoder/rnn/while/rnn/attention_wrapper/strided_slice:0\n\245\001while/lstm_seq2seq_attention_bidirectional_encoder/parallel_0_6/lstm_seq2seq_attention_bidirectional_encoder/body/lstm_seq2seq_attention_bid_encoder/encoder/concat:0\n\232\001while/lstm_seq2seq_attention_bidirectional_encoder/parallel_0_6/lstm_seq2seq_attention_bidirectional_encoder/body/lstm_seq2seq_attention_bid_encoder/sub:0\n\234\001while/lstm_seq2seq_attention_bidirectional_encoder/parallel_0_6/lstm_seq2seq_attention_bidirectional_encoder/body/lstm_seq2seq_attention_bid_encoder/sub_1:0\n\234\001while/lstm_seq2seq_attention_bidirectional_encoder/parallel_0_6/lstm_seq2seq_attention_bidirectional_encoder/body/lstm_seq2seq_attention_bid_encoder/sub_2:0\n\234\001while/lstm_seq2seq_attention_bidirectional_encoder/parallel_0_6/lstm_seq2seq_attention_bidirectional_encoder/body/lstm_seq2seq_attention_bid_encoder/sub_3:0\022\363\002\n\220\001lstm_seq2seq_attention_bidirectional_encoder/body/lstm_seq2seq_attention_bid_encoder/decoder/rnn/attention_wrapper/attention_layer/kernel/read:0\022\335\001while/lstm_seq2seq_attention_bidirectional_encoder/parallel_0_6/lstm_seq2seq_attention_bidirectional_encoder/body/lstm_seq2seq_attention_bid_encoder/decoder/rnn/while/rnn/attention_wrapper/attention_layer/MatMul/Enter_1:0\022\261\003\n\246\001lstm_seq2seq_attention_bidirectional_encoder/body/lstm_seq2seq_attention_bid_encoder/decoder/rnn/attention_wrapper/multi_rnn_cell/cell_1/basic_lstm_cell/kernel/read:0\022\205\002while/lstm_seq2seq_attention_bidirectional_encoder/parallel_0_6/lstm_seq2seq_attention_bidirectional_encoder/body/lstm_seq2seq_attention_bid_encoder/decoder/rnn/while/rnn/attention_wrapper/attention_wrapper/multi_rnn_cell/cell_1/basic_lstm_cell/MatMul/Enter_1:0\022\230\003\n\232\001while/lstm_seq2seq_attention_bidirectional_encoder/parallel_0_6/lstm_seq2seq_attention_bidirectional_encoder/body/lstm_seq2seq_attention_bid_encoder/sub:0\022\370\001while/lstm_seq2seq_attention_bidirectional_encoder/parallel_0_6/lstm_seq2seq_attention_bidirectional_encoder/body/lstm_seq2seq_attention_bid_encoder/decoder/rnn/while/rnn/attention_wrapper/attention_wrapper/multi_rnn_cell/cell_0/dropout/add/Enter:0\022\260\003\n\244\001lstm_seq2seq_attention_bidirectional_encoder/body/lstm_seq2seq_attention_bid_encoder/decoder/rnn/attention_wrapper/multi_rnn_cell/cell_0/basic_lstm_cell/bias/read:0\022\206\002while/lstm_seq2seq_attention_bidirectional_encoder/parallel_0_6/lstm_seq2seq_attention_bidirectional_encoder/body/lstm_seq2seq_attention_bid_encoder/decoder/rnn/while/rnn/attention_wrapper/attention_wrapper/multi_rnn_cell/cell_0/basic_lstm_cell/BiasAdd/Enter_1:0\022\373\002\n\230\001lstm_seq2seq_attention_bidirectional_encoder/body/lstm_seq2seq_attention_bid_encoder/decoder/rnn/attention_wrapper/bahdanau_attention/attention_v/read:0\022\335\001while/lstm_seq2seq_attention_bidirectional_encoder/parallel_0_6/lstm_seq2seq_attention_bidirectional_encoder/body/lstm_seq2seq_attention_bid_encoder/decoder/rnn/while/rnn/attention_wrapper/bahdanau_attention/mul/Enter_1:0\022\260\003\n\244\001lstm_seq2seq_attention_bidirectional_encoder/body/lstm_seq2seq_attention_bid_encoder/decoder/rnn/attention_wrapper/multi_rnn_cell/cell_2/basic_lstm_cell/bias/read:0\022\206\002while/lstm_seq2seq_attention_bidirectional_encoder/parallel_0_6/lstm_seq2seq_attention_bidirectional_encoder/body/lstm_seq2seq_attention_bid_encoder/decoder/rnn/while/rnn/attention_wrapper/attention_wrapper/multi_rnn_cell/cell_2/basic_lstm_cell/BiasAdd/Enter_1:0\022\232\003\n\234\001while/lstm_seq2seq_attention_bidirectional_encoder/parallel_0_6/lstm_seq2seq_attention_bidirectional_encoder/body/lstm_seq2seq_attention_bid_encoder/sub_3:0\022\370\001while/lstm_seq2seq_attention_bidirectional_encoder/parallel_0_6/lstm_seq2seq_attention_bidirectional_encoder/body/lstm_seq2seq_attention_bid_encoder/decoder/rnn/while/rnn/attention_wrapper/attention_wrapper/multi_rnn_cell/cell_3/dropout/add/Enter:0\022\261\003\n\246\001lstm_seq2seq_attention_bidirectional_encoder/body/lstm_seq2seq_attention_bid_encoder/decoder/rnn/attention_wrapper/multi_rnn_cell/cell_2/basic_lstm_cell/kernel/read:0\022\205\002while/lstm_seq2seq_attention_bidirectional_encoder/parallel_0_6/lstm_seq2seq_attention_bidirectional_encoder/body/lstm_seq2seq_attention_bid_encoder/decoder/rnn/while/rnn/attention_wrapper/attention_wrapper/multi_rnn_cell/cell_2/basic_lstm_cell/MatMul/Enter_1:0\022\245\003\n\335\001while/lstm_seq2seq_attention_bidirectional_encoder/parallel_0_6/lstm_seq2seq_attention_bidirectional_encoder/body/lstm_seq2seq_attention_bid_encoder/decoder/rnn/TensorArrayUnstack/TensorArrayScatter/TensorArrayScatterV3:0\022\302\001while/lstm_seq2seq_attention_bidirectional_encoder/parallel_0_6/lstm_seq2seq_attention_bidirectional_encoder/body/lstm_seq2seq_attention_bid_encoder/decoder/rnn/while/TensorArrayReadV3/Enter_1:0\022\232\003\n\234\001while/lstm_seq2seq_attention_bidirectional_encoder/parallel_0_6/lstm_seq2seq_attention_bidirectional_encoder/body/lstm_seq2seq_attention_bid_encoder/sub_2:0\022\370\001while/lstm_seq2seq_attention_bidirectional_encoder/parallel_0_6/lstm_seq2seq_attention_bidirectional_encoder/body/lstm_seq2seq_attention_bid_encoder/decoder/rnn/while/rnn/attention_wrapper/attention_wrapper/multi_rnn_cell/cell_2/dropout/add/Enter:0\022\260\003\n\244\001lstm_seq2seq_attention_bidirectional_encoder/body/lstm_seq2seq_attention_bid_encoder/decoder/rnn/attention_wrapper/multi_rnn_cell/cell_1/basic_lstm_cell/bias/read:0\022\206\002while/lstm_seq2seq_attention_bidirectional_encoder/parallel_0_6/lstm_seq2seq_attention_bidirectional_encoder/body/lstm_seq2seq_attention_bid_encoder/decoder/rnn/while/rnn/attention_wrapper/attention_wrapper/multi_rnn_cell/cell_1/basic_lstm_cell/BiasAdd/Enter_1:0\022\261\003\n\246\001lstm_seq2seq_attention_bidirectional_encoder/body/lstm_seq2seq_attention_bid_encoder/decoder/rnn/attention_wrapper/multi_rnn_cell/cell_3/basic_lstm_cell/kernel/read:0\022\205\002while/lstm_seq2seq_attention_bidirectional_encoder/parallel_0_6/lstm_seq2seq_attention_bidirectional_encoder/body/lstm_seq2seq_attention_bid_encoder/decoder/rnn/while/rnn/attention_wrapper/attention_wrapper/multi_rnn_cell/cell_3/basic_lstm_cell/MatMul/Enter_1:0\022\353\002\n\262\001while/lstm_seq2seq_attention_bidirectional_encoder/parallel_0_6/lstm_seq2seq_attention_bidirectional_encoder/body/lstm_seq2seq_attention_bid_encoder/decoder/rnn/strided_slice_1:0\022\263\001while/lstm_seq2seq_attention_bidirectional_encoder/parallel_0_6/lstm_seq2seq_attention_bidirectional_encoder/body/lstm_seq2seq_attention_bid_encoder/decoder/rnn/while/Less/Enter:0\022\260\003\n\244\001lstm_seq2seq_attention_bidirectional_encoder/body/lstm_seq2seq_attention_bid_encoder/decoder/rnn/attention_wrapper/multi_rnn_cell/cell_3/basic_lstm_cell/bias/read:0\022\206\002while/lstm_seq2seq_attention_bidirectional_encoder/parallel_0_6/lstm_seq2seq_attention_bidirectional_encoder/body/lstm_seq2seq_attention_bid_encoder/decoder/rnn/while/rnn/attention_wrapper/attention_wrapper/multi_rnn_cell/cell_3/basic_lstm_cell/BiasAdd/Enter_1:0\022\232\003\n\234\001while/lstm_seq2seq_attention_bidirectional_encoder/parallel_0_6/lstm_seq2seq_attention_bidirectional_encoder/body/lstm_seq2seq_attention_bid_encoder/sub_1:0\022\370\001while/lstm_seq2seq_attention_bidirectional_encoder/parallel_0_6/lstm_seq2seq_attention_bidirectional_encoder/body/lstm_seq2seq_attention_bid_encoder/decoder/rnn/while/rnn/attention_wrapper/attention_wrapper/multi_rnn_cell/cell_1/dropout/add/Enter:0\022\366\002\n\245\001while/lstm_seq2seq_attention_bidirectional_encoder/parallel_0_6/lstm_seq2seq_attention_bidirectional_encoder/body/lstm_seq2seq_attention_bid_encoder/encoder/concat:0\022\313\001while/lstm_seq2seq_attention_bidirectional_encoder/parallel_0_6/lstm_seq2seq_attention_bidirectional_encoder/body/lstm_seq2seq_attention_bid_encoder/decoder/rnn/while/rnn/attention_wrapper/MatMul/Enter:0\022\261\003\n\246\001lstm_seq2seq_attention_bidirectional_encoder/body/lstm_seq2seq_attention_bid_encoder/decoder/rnn/attention_wrapper/multi_rnn_cell/cell_0/basic_lstm_cell/kernel/read:0\022\205\002while/lstm_seq2seq_attention_bidirectional_encoder/parallel_0_6/lstm_seq2seq_attention_bidirectional_encoder/body/lstm_seq2seq_attention_bid_encoder/decoder/rnn/while/rnn/attention_wrapper/attention_wrapper/multi_rnn_cell/cell_0/basic_lstm_cell/MatMul/Enter_1:0\022\206\003\n\256\001while/lstm_seq2seq_attention_bidirectional_encoder/parallel_0_6/lstm_seq2seq_attention_bidirectional_encoder/body/lstm_seq2seq_attention_bid_encoder/decoder/rnn/TensorArray:0\022\322\001while/lstm_seq2seq_attention_bidirectional_encoder/parallel_0_6/lstm_seq2seq_attention_bidirectional_encoder/body/lstm_seq2seq_attention_bid_encoder/decoder/rnn/while/TensorArrayWrite/TensorArrayWriteV3/Enter:0\022\221\003\n\237\001lstm_seq2seq_attention_bidirectional_encoder/body/lstm_seq2seq_attention_bid_encoder/decoder/rnn/attention_wrapper/bahdanau_attention/query_layer/kernel/read:0\022\354\001while/lstm_seq2seq_attention_bidirectional_encoder/parallel_0_6/lstm_seq2seq_attention_bidirectional_encoder/body/lstm_seq2seq_attention_bid_encoder/decoder/rnn/while/rnn/attention_wrapper/bahdanau_attention/query_layer/MatMul/Enter_1:0\022\225\003\n\270\001while/lstm_seq2seq_attention_bidirectional_encoder/parallel_0_6/lstm_seq2seq_attention_bidirectional_encoder/body/lstm_seq2seq_attention_bid_encoder/BahdanauAttention/strided_slice_1:0\022\327\001while/lstm_seq2seq_attention_bidirectional_encoder/parallel_0_6/lstm_seq2seq_attention_bidirectional_encoder/body/lstm_seq2seq_attention_bid_encoder/decoder/rnn/while/rnn/attention_wrapper/assert_equal/Equal/Enter:0\022\240\003\n\277\001while/lstm_seq2seq_attention_bidirectional_encoder/parallel_0_6/lstm_seq2seq_attention_bidirectional_encoder/body/lstm_seq2seq_attention_bid_encoder/BahdanauAttention/memory_layer/Tensordot:0\022\333\001while/lstm_seq2seq_attention_bidirectional_encoder/parallel_0_6/lstm_seq2seq_attention_bidirectional_encoder/body/lstm_seq2seq_attention_bid_encoder/decoder/rnn/while/rnn/attention_wrapper/bahdanau_attention/add/Enter:0\022\366\002\n\260\001while/lstm_seq2seq_attention_bidirectional_encoder/parallel_0_6/lstm_seq2seq_attention_bidirectional_encoder/body/lstm_seq2seq_attention_bid_encoder/decoder/rnn/TensorArray_1:0\022\300\001while/lstm_seq2seq_attention_bidirectional_encoder/parallel_0_6/lstm_seq2seq_attention_bidirectional_encoder/body/lstm_seq2seq_attention_bid_encoder/decoder/rnn/while/TensorArrayReadV3/Enter:0R\256\001while/lstm_seq2seq_attention_bidirectional_encoder/parallel_0_6/lstm_seq2seq_attention_bidirectional_encoder/body/lstm_seq2seq_attention_bid_encoder/decoder/rnn/while/Enter:0R\260\001while/lstm_seq2seq_attention_bidirectional_encoder/parallel_0_6/lstm_seq2seq_attention_bidirectional_encoder/body/lstm_seq2seq_attention_bid_encoder/decoder/rnn/while/Enter_1:0R\260\001while/lstm_seq2seq_attention_bidirectional_encoder/parallel_0_6/lstm_seq2seq_attention_bidirectional_encoder/body/lstm_seq2seq_attention_bid_encoder/decoder/rnn/while/Enter_2:0R\260\001while/lstm_seq2seq_attention_bidirectional_encoder/parallel_0_6/lstm_seq2seq_attention_bidirectional_encoder/body/lstm_seq2seq_attention_bid_encoder/decoder/rnn/while/Enter_3:0R\260\001while/lstm_seq2seq_attention_bidirectional_encoder/parallel_0_6/lstm_seq2seq_attention_bidirectional_encoder/body/lstm_seq2seq_attention_bid_encoder/decoder/rnn/while/Enter_4:0R\260\001while/lstm_seq2seq_attention_bidirectional_encoder/parallel_0_6/lstm_seq2seq_attention_bidirectional_encoder/body/lstm_seq2seq_attention_bid_encoder/decoder/rnn/while/Enter_5:0R\260\001while/lstm_seq2seq_attention_bidirectional_encoder/parallel_0_6/lstm_seq2seq_attention_bidirectional_encoder/body/lstm_seq2seq_attention_bid_encoder/decoder/rnn/while/Enter_6:0R\260\001while/lstm_seq2seq_attention_bidirectional_encoder/parallel_0_6/lstm_seq2seq_attention_bidirectional_encoder/body/lstm_seq2seq_attention_bid_encoder/decoder/rnn/while/Enter_7:0R\260\001while/lstm_seq2seq_attention_bidirectional_encoder/parallel_0_6/lstm_seq2seq_attention_bidirectional_encoder/body/lstm_seq2seq_attention_bid_encoder/decoder/rnn/while/Enter_8:0R\260\001while/lstm_seq2seq_attention_bidirectional_encoder/parallel_0_6/lstm_seq2seq_attention_bidirectional_encoder/body/lstm_seq2seq_attention_bid_encoder/decoder/rnn/while/Enter_9:0R\261\001while/lstm_seq2seq_attention_bidirectional_encoder/parallel_0_6/lstm_seq2seq_attention_bidirectional_encoder/body/lstm_seq2seq_attention_bid_encoder/decoder/rnn/while/Enter_10:0R\261\001while/lstm_seq2seq_attention_bidirectional_encoder/parallel_0_6/lstm_seq2seq_attention_bidirectional_encoder/body/lstm_seq2seq_attention_bid_encoder/decoder/rnn/while/Enter_11:0R\261\001while/lstm_seq2seq_attention_bidirectional_encoder/parallel_0_6/lstm_seq2seq_attention_bidirectional_encoder/body/lstm_seq2seq_attention_bid_encoder/decoder/rnn/while/Enter_12:0R\261\001while/lstm_seq2seq_attention_bidirectional_encoder/parallel_0_6/lstm_seq2seq_attention_bidirectional_encoder/body/lstm_seq2seq_attention_bid_encoder/decoder/rnn/while/Enter_13:0Z\262\001while/lstm_seq2seq_attention_bidirectional_encoder/parallel_0_6/lstm_seq2seq_attention_bidirectional_encoder/body/lstm_seq2seq_attention_bid_encoder/decoder/rnn/strided_slice_1:0"
      }
    }
  }
  signature_def {
    key: "serving_default"
    value {
      inputs {
        key: "input"
        value {
          name: "serialized_example:0"
          dtype: DT_STRING
          tensor_shape {
            dim {
              size: -1
            }
          }
        }
      }
      outputs {
        key: "batch_prediction_key"
        value {
          name: "DatasetToSingleElement:0"
          dtype: DT_INT32
          tensor_shape {
            dim {
              size: -1
            }
            dim {
              size: 1
            }
          }
        }
      }
      outputs {
        key: "outputs"
        value {
          name: "strided_slice_8:0"
          dtype: DT_INT32
          tensor_shape {
            dim {
              size: -1
            }
            dim {
              size: -1
            }
          }
        }
      }
      outputs {
        key: "scores"
        value {
          name: "Select_1:0"
          dtype: DT_FLOAT
          tensor_shape {
            dim {
              size: -1
            }
            dim {
              size: 4
            }
          }
        }
      }
      method_name: "tensorflow/serving/predict"
    }
  }
}
